MLP_ERCOT_2022_models/delta_SO2_round1/2023_11_01-10_20_25_AM/epoch=36980,r2=0.3815,Invalids=0.pth (torch, 286135 bytes, 14 tensors)

0.weight f4 [256, 5]
00000000: 02dc 0c3c 7893 b4bb 3715 213c 71ec a63d
00000010: 1eab 9cbd cf5d 7ebc 9287 1b3c 35f6 e0bd
00000020: 86e5 1f3d 599c c9bd f0a1 cf3d 207c d3bc
00000030: aeae aebd 4804 ecbc adb4 b03c 000b 60bd
00000040: bae9 933c eef1 fb3a 9ef4 bebd 131b 9f3d
00000050: 4595 4cbd 80ed 323e 5d19 cdbc 747e e63b
00000060: d23f 473d c93b d3bd 3f9f 0fbb 2e0c 393c
00000070: 6cb5 7cbe cdd0 893b 9dfc b43d 1b4b 09bd
00000080: 2e03 b8bd d16a f03c 4a66 38bd c8f6 b53d
00000090: 1a16 1fbd c2cb 0f3e f851 15bd babf 233b
000000a0: e14f b7bc 8b0e d6bd 0618 db3d 9118 90bd
000000b0: 6eed b1bb 1851 3b3c e145 a33c 868c b5bb
000000c0: dfe1 e93d 934d b4bd 0e5a 573d 971f b0bc
000000d0: 4bcb cc3b b181 47bd e10f 203e eaa7 203d
000000e0: 1721 10bd fda3 1bbe 7005 4b3d 1a10 853c
000000f0: b271 b03b 03f0 133b 376c d93d 4e14 e13d
00000100: 7cea 0cbd e307 ae3d a4b8 15bd 38f7 bcbd
00000110: a584 f13c 455e 32bd 60ac 06bc cd2b e73c
00000120: 2f15 aa3c aafe c83d b6d5 aabd b6cc 47bc
00000130: ec3b 993b 2361 f3ba fe56 323e 0f1d eabd
00000140: 4ab1 283d eaca b9bc 6399 49bd abed c63c
00000150: e85c 1dbe 3327 1a3d 8863 b6bc 7adf 853c
00000160: c863 593d 6968 f7bd 8cc5 f1bd 3551 21bd
00000170: 7f87 9e3d c18f 8ebb 0b28 8d3d 7690 233d
00000180: 1265 9ebc 6f98 133e 3c20 993d f9d3 efbc
00000190: 0587 f0bd 313e 04be 4bef 23bc 263a 88bc
000001a0: 0d1e 4a3d 72e6 4cbd 8806 b23b f7a0 d03d
000001b0: e903 80bd 9098 5cbd 1018 86bd 7205 aa3d
000001c0: dae3 0abc d094 b33d f0da 89bd 0019 9bbc
000001d0: f791 003e 21f4 acbd 0c8a 243d b59f 593d
000001e0: 5f66 1c3c aef4 d3bb 15de c13e c038 53bd
000001f0: 5159 943d afbe dcbd 1882 233d 4acd cf3d
00000200: 000b bcbc 599a 093d 48c3 2bbd c050 c6bb
00000210: 269a 03be 8223 4ebd 8c4c d03d ca11 763d
00000220: 501a aabc 999b d43c e0cc acbd 8db5 a53d
00000230: a5c2 0ebb bb0f 2c3c f29b f43d 447c 26bc
00000240: 5cf4 e33d a27a 803d b388 12bd f202 303c
00000250: d008 f83d 174a 80bd ab9c a43d 46cc f8bc
00000260: a259 393c 0af9 053e c445 343d 8278 ecbc
00000270: 133c b0bd 207a 6ebd 7929 b23d 8a88 07bd
00000280: eb30 05be df53 a03d bf76 10ba f57f 8b3d
00000290: 521f 3ebd 981b d23d 969b dabc fc53 adbd
000002a0: daab e2bc 984c 973c 2aa4 b239 3381 9dbc
000002b0: 3574 f03d b9f2 d3bd 2939 b33d 92b1 803d
000002c0: 8f15 0b3e 758d 1ebd 5642 2ebd 3dd6 8d3d
000002d0: f0ec 3abd 8e22 febc 7b5a cc3d 0bff 03bd
000002e0: a45a c73d 536b 913d c237 803d c3ae 7f3c
000002f0: 3e84 dc3d 1bce a53d 0c6c 41bd b406 283e
00000300: dbcb 813d 7ec4 21bd 06b0 163d 7448 adbc
00000310: fbef 5b3e cb02 75bc 7fd3 833b a451 3e3d
00000320: 257b 3b3a d179 003c db41 b43c 9407 c0bd
00000330: 7de9 003e 42b7 bf3c 5a85 c0bb ad64 b03c
00000340: 181e 113e 7997 abbd 6369 18be dc48 17ba
00000350: 6f0a 433c 0c91 e7bd 6fa5 6dbc 0eec 85be
00000360: 6eed 6dbd 8531 d43c 22fa e3bc b0c9 06bb
00000370: c967 e539 4845 27bb ccb6 5939 c577 b6bd
00000380: 1660 b43d 6dea 27bd 904c cfbc 33e2 d03d
00000390: b752 f3bc 5ec3 c23d 98ff ac3d 2cf7 3ebd
000003a0: f3ee 6abb 2ac5 613c 26d7 c7bd 3fcb 3cbd
000003b0: 37b2 093d 05c3 603c 3dc5 b639 3209 803e
000003c0: 8493 fb3b f641 9bbb d015 0c3c e59c ad3d
000003d0: 2cf0 a2bd c10d 62bd e5f4 0fbe 8db1 2c3d
000003e0: 5cae 353d 76b3 503d d2c7 6c3d 1b2d 0bbe
000003f0: 4127 ab3d dcf2 85bd 6437 febb 5d91 17be
0.008597376 -0.0055107437 0.009831718 0.08150566 -0.076498255 -0.015525295 0.009492772 -0.1098446
0.03903725 -0.09844274 0.10138309 -0.025816023 -0.08529411 -0.028810635 0.021570528 -0.05469799
0.018055785 0.0019221881 -0.09324001 0.07768836 -0.049947042 0.17473412 -0.025036508 0.0070341174
0.04864485 -0.103141375 -0.0021914986 0.011294408 -0.24678582 0.004205799 0.08837245 -0.03351889
-0.089849815 0.029347809 -0.045019425 0.088849604 -0.038839437 0.14042571 -0.036455125 0.0024986104
-0.022376956 -0.104519926 0.106979415 -0.07035936 -0.005429915 0.0114329085 0.019930782 -0.0055404333
0.114200346 -0.088038586 0.052576117 -0.021499438 0.0062498203 -0.048707668 0.15631057 0.039222635
-0.035187807 -0.15199275 0.049565732 0.01624303 0.0053846473 0.0022573478 0.106163435 0.10990201
-0.03440331 0.08497598 -0.03655304 -0.09226841 0.029482195 -0.043546934 -0.008219808 0.028219128
0.020762054 0.09814198 -0.083415434 -0.012194803 0.0046763327 -0.0018568378 0.17415997 -0.11431324
0.0411847 -0.022679765 -0.049218547 0.02428325 -0.15367472 0.03763504 -0.022264257 0.016341913
0.053073674 -0.120804615 -0.11805257 -0.039384086 0.077406876 -0.004350633 0.06892403 0.03993269
-0.019335303 0.14413618 0.07476851 -0.029275881 -0.11744503 -0.12914349 -0.010005782 -0.01662929
0.049345065 -0.050024457 0.0054329075 0.101869516 -0.06250746 -0.053856432 -0.06547558 0.0830182
-0.008477176 0.08768618 -0.06731212 -0.01893282 0.12555681 -0.084450014 0.040170714 0.053130824
0.009545892 -0.006468377 0.37864748 -0.051567793 0.07243598 -0.107785575 0.03991899 0.10146578
-0.022954464 0.033594463 -0.04193428 -0.0060521066 -0.12851772 -0.05032683 0.1017085 0.06007556
-0.0207645 0.025953101 -0.08437514 0.08091269 -0.0021783498 0.010501797 0.11943807 -0.010161463
0.11130592 0.0627339 -0.035774898 0.01074289 0.12111056 -0.062641315 0.080376945 -0.030370843
0.011312874 0.13083282 0.044011846 -0.028866056 -0.08605208 -0.058221936 0.086993165 -0.0330892
-0.13006942 0.07828497 -0.00055108586 0.06811515 -0.046416588 0.10259169 -0.026685517 -0.084632844
-0.027669836 0.01846914 0.00034073117 -0.019226646 0.11740915 -0.1034903 0.08751137 0.06283869
0.13582443 -0.038709123 -0.04254373 0.06925628 -0.045636117 -0.031022336 0.09978195 -0.03222565
0.09734085 0.071005486 0.06260635 0.015605631 0.10767411 0.08095952 -0.047222182 0.16408807
0.063377105 -0.03949403 0.036788963 -0.021152712 0.21478264 -0.014954279 0.004023015 0.046464577
0.0007151834 0.007841543 0.022004059 -0.093764454 0.12589069 0.023402814 -0.0058752717 0.021532381
0.14171636 -0.083785005 -0.14883952 -0.000577105 0.011904343 -0.11306962 -0.0145047745 -0.26156658
-0.05808776 0.025902519 -0.027829234 -0.0020566992 0.0004375561 -0.0025523473 0.0002076283 -0.08909563
0.088073894 -0.04099505 -0.025305063 0.10199394 -0.029702527 0.095099196 0.08447188 -0.04662244
-0.0035847991 0.013779918 -0.09757833 -0.046092268 0.033617225 0.013718371 0.000348607 0.25007015
0.0076774973 -0.0047380878 0.008550122 0.08477191 -0.079559654 -0.055188898 -0.14058264 0.042161513
0.044355735 0.050952397 0.05780775 -0.13591425 0.083570965 -0.065404624 -0.007758068 -0.14801545

0.bias f4 [256]
00000000: 2e33 663d 012a c2ba f8fc 0d3c 16b2 223d
00000010: dafd eb3d ca52 8b3d 7a16 91bd cdb6 8abc
00000020: 90e3 a03d 6c6f 423e cd2a 8fbd 172c 143e
00000030: dd9e 683d a9ca 0dbd 2c4c 26bd 0f13 e53b
00000040: bba0 87bb 3b31 ba3c e09a 963d b5e8 70bd
00000050: c06a 9a3d e7cb 88bc c7cc 70bc 69d1 e8bb
00000060: 1a73 e13b 789b c1b8 7d28 b5bd 9ab2 afbd
00000070: d33b e5bb 7dc5 5dbd b9e0 923d 1d5c 1ebd
00000080: da7f 01bd 7122 6a3b c7fd 0fbe acaf 6fbd
00000090: a7b8 a43c d846 d1bc d8eb 4a3d d8f8 843c
000000a0: 00f0 633d 2ecd aa3d 029f 513d 326a 283e
000000b0: 956c 8d3c 6475 4b3d 0c20 323d 6259 983d
000000c0: 3588 0d3e ad1e d0bd 25c9 a33c 1d82 1c3d
000000d0: 97ff 7b3b eb09 4e3d 3d6a c2bd 129e 973d
000000e0: cb2d fd3c 2424 4e3d 362c ffbb d48d 4d3d
000000f0: 7ca7 2a3d ea54 4e3d 65cf 55bd 67b4 643c
00000100: 593b e1bb d3b9 2e3c 4838 0a3e cd26 c8bc
00000110: c910 c8bc 84df d53d 74aa bd3b 6086 ec3d
00000120: 916b d53d 90cf 5f3e 9235 3a3c a23b c0bd
00000130: 8b50 4f3d 0d81 f9bc 4ce7 043d 42ca 0dbd
00000140: 5e31 163d c905 1e3d 47a3 403e 846a 9e3d
00000150: 3bdf 3abd a3d9 8a3c 07aa 9d3d 5e98 58bc
00000160: 59fb dc3c d460 b5bd db01 cb3c d555 f93b
00000170: 7ad4 9dbd cf57 933d cc05 83bd 31b4 113c
00000180: 81af 95bd e9de c33c 51db 09be 6db5 5c3d
00000190: b8ae 3e3c d951 91bd ab53 463d e41c 113c
000001a0: 27bf 313d d963 6abd 59b0 c53d 8d2d 073e
000001b0: e1ce bb3d 39ba 113d 9038 49bd 1159 b43d
000001c0: 3cfb 7b3d b644 9ebd 013c 533d b7a0 bc3d
000001d0: 6bd3 173d 4ec4 813d 96ca 0a3d e014 f93d
000001e0: deab b3bd 3a7f ec3d 2419 11bd 9493 113c
000001f0: 0de0 7cbb 0b53 5a3d 5607 d2bd 16ca bd3d
00000200: d8f5 fe3d 9171 a13b 54aa ebbd d66e bdbd
00000210: 39bc 113d aaf8 4e3b 3c77 10bd d3db cc3c
00000220: ca05 493d e77c b93c 6cda dd3a 16aa 7d3d
00000230: acc1 303c de92 74bd 861d 63bc 9631 a73d
00000240: 2671 823d 9b7f c5bd 5d60 933d ac3c 0ebd
00000250: 96cd 66bd 0d4b 0e3e 7342 18bd ea81 1dbd
00000260: d2f0 dcbd b326 2c3d 7199 77bd 6453 0bbe
00000270: abc7 8bbd 8a29 5c3d d7c8 4a3d 3382 6bbd
00000280: c055 283d bf89 9b3d bf72 943d 4402 533d
00000290: 5679 933d 31d3 09bd b11b d2bb 82f6 e5bd
000002a0: e703 6abd b77f f83c a1bf b8bc 4b6d f8bd
000002b0: 2bcf aabd 31ca cb3c e4d2 0bbc 1839 3bbd
000002c0: 3244 5c3d 80cb d2bd 5b75 c0bd fd35 e63c
000002d0: 3a7e 0b3d 6572 363b 086f 4e3d a31c 3bbd
000002e0: 500e b43d 16ae b2bb c4d4 123e d4f0 b4bc
000002f0: aa2b 8c3d 836a 663c ba1a f53b 9f86 b73d
00000300: 288c 37bc d539 bbbc d98d 59bd 5056 81bd
00000310: e390 013d 7965 c1bc af94 4e3d 37f7 c23c
00000320: 1b68 323d 2827 d1bd f265 0fbd 4ef5 f13d
00000330: 59e1 f3bb 1b62 68bc a3c9 0f3d e9ac e53c
00000340: 1c19 df3d 4942 c6bb c1a7 1dbd 3c8e abbc
00000350: f31a 403b 231e f5bc 60c1 383d 5f2e 213e
00000360: bcb4 ffbd 4104 323d 771c 87bd 1507 4b3c
00000370: 60a5 06bd 631c cd3d 5b01 ceb9 d455 623c
00000380: 1907 a6bd e5df 243b 594e 203d a3a7 fb3d
00000390: a9dd 873d 7cd1 57bd f75d 493c ad26 82ba
000003a0: 4e35 0bba c572 0abd b497 473c f042 0fbd
000003b0: a2d2 1fbd 67d0 10bc 1dfc b23c b1e1 ef3b
000003c0: 3b70 cebd d47c 783d c8f6 76bd 7014 a13d
000003d0: abc2 d03d 446c 9fbc 6bc3 97bc 5abc 143d
000003e0: d60a 8b3d d320 c93d 5e3f 963d 8d58 a53d
000003f0: 7868 9fbd 6e03 1c3d d6bf 883d eb50 6e3c
0.056201153 -0.0014813544 0.0086662695 0.039720617 0.11523028 0.068029 -0.07084365 -0.01693287
0.07855904 0.18987817 -0.069905855 0.14469944 0.05679213 -0.0346171 -0.040599987 0.0069907974
-0.0041390336 0.022728553 0.07353759 -0.058815677 0.07539892 -0.01669879 -0.01469726 -0.0071050418
0.0068801763 -9.2319155e-05 -0.08845613 -0.085789874 -0.006995657 -0.054143418 0.07171769 -0.038662065
-0.03161607 0.0035726095 -0.14061652 -0.058517143 0.02010758 -0.025546476 0.049541324 0.01623194
0.055648804 0.08339916 0.051177032 0.1644676 0.01726369 0.0496725 0.043487594 0.074389234
0.1382149 -0.10162101 0.019993374 0.038210023 0.0038451904 0.050302427 -0.094929196 0.074031964
0.030905625 0.050327435 -0.007787253 0.050184086 0.04166363 0.05037395 -0.05219974 0.013959027
-0.00687353 0.010664421 0.13498032 -0.024432564 -0.024422066 0.10443023 0.005788142 0.115490675
0.10420907 0.21856523 0.011365311 -0.09386374 0.05061392 -0.030457044 0.032447144 -0.034616716
0.036668174 0.038579736 0.18812285 0.0773516 -0.045623045 0.01694948 0.07698446 -0.013219921
0.02697532 -0.08856359 0.024781158 0.007609109 -0.07706542 0.071944825 -0.0639759 0.008893059
-0.07308865 0.023910003 -0.13462569 0.05388396 0.011638336 -0.07095689 0.048419636 0.008856986
0.043395188 -0.05722413 0.09652776 0.1320097 0.091703184 0.035577986 -0.049126208 0.088060506
0.061518893 -0.07727949 0.051570896 0.092103414 0.03706686 0.0633627 0.033884607 0.12162185
-0.087730154 0.11547704 -0.035424367 0.008885283 -0.0038585693 0.053301852 -0.102553055 0.092670605
0.12449235 0.0049268682 -0.11507097 -0.09249656 0.035579894 0.003158132 -0.03526996 0.025007164
0.049077787 0.022642566 0.0016926057 0.061929785 0.0107883625 -0.059710376 -0.013862019 0.08163755
0.063692376 -0.096434794 0.07196114 -0.03472583 -0.056348406 0.13895817 -0.037172746 -0.038453974
-0.1078812 0.042029094 -0.060449068 -0.1360603 -0.06825193 0.053750552 0.049507942 -0.057497215
0.041097403 0.07594632 0.072484486 0.051515833 0.07200877 -0.033648673 -0.0064119925 -0.11228658
-0.057132628 0.030334337 -0.022552313 -0.12130221 -0.083402954 0.024876686 -0.008534167 -0.045708746
0.053775974 -0.10292721 -0.09397384 0.028101915 0.034055926 0.002783918 0.050398856 -0.045681607
0.087917924 -0.0054528816 0.14338976 -0.022087492 0.06844266 0.01406348 0.0074799927 0.08961224
-0.011202849 -0.022854725 -0.053113792 -0.06315291 0.031632315 -0.023607956 0.050434764 0.023799522
0.043556314 -0.102125466 -0.035009332 0.11814366 -0.007442635 -0.014183546 0.035104405 0.028036552
0.10893461 -0.0060503823 -0.03849006 -0.020941846 0.0029312938 -0.029921597 0.04510629 0.15740345
-0.12485644 0.043461088 -0.06597226 0.012391825 -0.032872558 0.1001518 -0.00039292392 0.013814408
-0.081068225 0.0025157866 0.03913722 0.122878335 0.06634075 -0.052690014 0.012290469 -0.0009929739
-0.0005310372 -0.03380086 0.012182165 -0.034975946 -0.039019234 -0.0088387495 0.021848733 0.0073206057
-0.1008 0.06066592 -0.060293943 0.07865226 0.1019338 -0.019460805 -0.0185258 0.03631244
0.06789176 0.09820714 0.07336305 0.0807353 -0.07783598 0.03808921 0.06677215 0.01454566

1.weight f4 [256]
00000000: d71b 9d3d 6c81 dd3c c5a1 fe3c c06e 533d
00000010: 6837 4e3d 5e39 c13d c031 053d 1167 243d
00000020: 50b4 cc3c e605 c73d a763 9c3d a4ba 953d
00000030: f7fa 8e3c 604b 043d 1e39 653d aa92 ae3d
00000040: dc4e ac3c 6eb1 0a3d b07f 5d3d 4b07 f23c
00000050: 529e 8e3d c431 d83c f9d8 a93d 242b 5d3d
00000060: 7c42 9f3d 870f 1d3d 2927 d53c 1611 923d
00000070: af03 ca3c 7f7a 2d3d dba4 b43d d827 533d
00000080: cee1 d73d 72a2 073d 71ee b13d 0a15 703d
00000090: 1ece 4e3d 64dd 923d 7ab5 3f3d 18c5 b33d
000000a0: f721 493d 36bb 963d 8123 c13d 4224 603d
000000b0: d526 6a3d 437c 4a3d 095e 933d 3ebf 213d
000000c0: 01d1 9e3d ff8d 413d 0705 903c c40c e43d
000000d0: f794 433d bc81 c13c be22 1b3d 7330 a33d
000000e0: 7f0c 413d 1309 a73d 9bf1 853c 72e1 793d
000000f0: cc55 383d 439c 473d 9e66 ce3c 4e24 aa3d
00000100: 4685 8d3d c22a d53c abfb 8d3d 81c3 5e3d
00000110: 93d7 273d e2e6 d23c a073 3c3d 4ca6 c33d
00000120: 9611 2c3d 0440 df3d 2891 c33d 7147 513d
00000130: 242f 9f3d 2bf4 7e3d ab6a 643d 838b 553d
00000140: dae2 c53d 4f5a 3d3d ca59 533d acd1 b93c
00000150: c7db df3c 70a6 833d d462 2a3d 4117 553d
00000160: 2924 0e3d 4d6e 7b3d 0f35 a93d 5773 cd3d
00000170: 8567 8e3d 54c8 943d 086e 223d a64b 8c3c
00000180: 23c3 093d 44ca fa3d 5fc6 8f3d 1b60 2e3d
00000190: 0fd2 8c3d a63f 193d 9145 463d 8513 043d
000001a0: b3db 803d 26e3 5d3d 83a2 cc3d 58b8 203d
000001b0: b1cd f23d 59dc 953d d3aa 683d 055a 893d
000001c0: 17cd bb3d 16a8 b13c 7ccd 133d 567e 193d
000001d0: 06a0 5b3d 89a5 2d3d e8ee 863d 61a5 803d
000001e0: b144 6d3d d8c1 923c 65e8 673d 62e3 473d
000001f0: 7a29 843c 7729 343d 592a 473d 3cf3 8a3d
00000200: 18b8 983d 614d 853c 4b5a c43d c570 0b3d
00000210: 2ba6 8b3c 1e17 bc3d dce8 563d c671 f83c
00000220: afe6 503d 7d1a 913d 669e 563d 8607 c13d
00000230: f9e7 4c3d 3015 d53d 0c94 4d3d 1423 933c
00000240: 83fc a73c 615f b33d 42ce 343d f56d c23d
00000250: c554 a53d 1867 8f3d 9f0b eb3c 6ee3 5b3d
00000260: e451 5f3d 9b47 db3c 8733 2b3d b654 b73d
00000270: 2835 493d 29b5 6b3d c440 c73c 9f9d 833d
00000280: 8548 163d 14dd 393d 5b34 3c3d 34e4 9b3d
00000290: 98c6 643d 4c0e 383d 3101 853d 27be d33d
000002a0: 9cf6 763d d1e7 3c3d 6beb a23d 7af7 aa3c
000002b0: 8444 043d ffce 163d da51 613d aa47 703d
000002c0: c959 643d 1d61 8e3d 05b9 253d 36eb 1b3d
000002d0: 9a5b c13d 9fdf ce3d e993 b53d e2b1 bc3d
000002e0: bfaf 523d 5366 9c3d 314f 8f3d c936 313d
000002f0: 50f3 5f3d 199f 0c3d 83fc 973c 01eb 773d
00000300: 2927 473d 61f2 433d dcf6 833d 6b9a 9b3d
00000310: a79e c13c dcda 183d 0d3a 303d f73c 233d
00000320: 0e37 b33d d04e 5d3d e80b ca3c 3d6f e03d
00000330: 20d9 8d3d f534 153d 2cc2 c83d 454e f73c
00000340: 40df 923d 04da 4b3d 606d 153d 0f9a 7d3d
00000350: 6444 613d dd82 a03d 6e90 9b3c eb7e a43d
00000360: e4c7 ae3d 9a5a f53c 503b 5e3d f89c 823d
00000370: 7b37 ba3d e094 d93d d231 873d 8abd b63d
00000380: d05a d93c 5294 f33c f725 8e3d b52b 973d
00000390: d79c e43c c096 1d3d ea2e 5c3d ceb8 fc3c
000003a0: 7fbd 9b3d f33f 603d a8fb 323d 0224 ed3c
000003b0: 9e70 a13d b743 813d 36d7 403d 661c 773d
000003c0: ceda 763d 1b01 423d 96d4 163d 271f 8f3d
000003d0: 1112 8e3d 21fc 823d 8ddc 8f3d f2f7 1e3d
000003e0: a1e7 953d 33ff 8c3c 2d1d 5a3d 1872 0e3d
000003f0: b01a f73c ddb2 4c3d 7990 023d 2080 8f3d
0.07671326 0.027039252 0.031082997 0.05161929 0.05034581 0.0943477 0.03251815 0.040137354
0.024988323 0.09717922 0.07636195 0.073109895 0.017453654 0.032298446 0.055962674 0.08524068
0.021033697 0.033860616 0.05407685 0.029544493 0.06963791 0.026390918 0.082933374 0.05399622
0.07776353 0.038344886 0.02601965 0.07132165 0.02465996 0.04235315 0.08820506 0.05155167
0.10541116 0.033113904 0.08688057 0.058613814 0.050489537 0.07171133 0.04680393 0.08777827
0.049104657 0.073599264 0.094306 0.05472208 0.05716594 0.04943491 0.0719567 0.039489023
0.07754708 0.04725456 0.017580522 0.11135247 0.047749486 0.023621432 0.03787493 0.07968225
0.047131058 0.08156028 0.016350558 0.061006017 0.045003697 0.048733007 0.025195416 0.08307706
0.069101855 0.026021365 0.069327675 0.054385666 0.040977072 0.02574486 0.046008706 0.09553203
0.04200896 0.10900882 0.09549171 0.051093522 0.07772663 0.062244575 0.05576579 0.052135002
0.09662409 0.046228703 0.0515993 0.022682987 0.027326478 0.0642823 0.041598156 0.05202413
0.034702454 0.061384488 0.08262073 0.10031765 0.069533385 0.07264772 0.039655715 0.017125916
0.033633363 0.1224561 0.07020258 0.042572122 0.06876003 0.037414216 0.048406187 0.032245178
0.06291904 0.054171704 0.09991934 0.039238304 0.11855639 0.073174186 0.056803536 0.06706623
0.09169977 0.021686595 0.036084637 0.037474 0.053619407 0.042394195 0.065885365 0.062815435
0.057926837 0.017914698 0.056618113 0.048800834 0.016133059 0.043984856 0.04862437 0.067846745
0.07456988 0.016272249 0.095875345 0.034043092 0.017047008 0.09184097 0.052468166 0.030327689
0.051001247 0.0708513 0.052397154 0.09425263 0.050025914 0.10404432 0.050190017 0.017961062
0.02050615 0.087584265 0.044142015 0.09493629 0.08072809 0.070020854 0.028692065 0.05368369
0.054521456 0.026767543 0.041797187 0.08951704 0.04912296 0.057545815 0.024322875 0.06426548
0.036690254 0.045376852 0.045948368 0.07611886 0.055853456 0.04493551 0.06494368 0.10339003
0.06029378 0.046119515 0.07955059 0.02086996 0.032291904 0.0368185 0.0550097 0.058662094
0.05574969 0.06952117 0.04045965 0.03806611 0.094413 0.10101246 0.08866102 0.09213616
0.051437136 0.07636704 0.069975264 0.043265138 0.0546754 0.034331415 0.018553024 0.06052685
0.04862133 0.047838572 0.06443569 0.07597812 0.023635222 0.037318096 0.04302411 0.039853062
0.08750735 0.05403024 0.02466388 0.10958717 0.06926179 0.036427457 0.0980266 0.030188689
0.07171488 0.049768463 0.03648126 0.0619145 0.054996863 0.0783746 0.018989768 0.0803202
0.0853422 0.029950429 0.054255784 0.06377596 0.09092613 0.10624099 0.06601299 0.089228705
0.02653256 0.02973381 0.06940835 0.07381383 0.027906818 0.038473845 0.05375568 0.03084984
0.07604503 0.054748487 0.04369703 0.028947834 0.07882808 0.06311744 0.04708024 0.060329817
0.060267262 0.047364336 0.03682383 0.06988364 0.0693704 0.06395746 0.070244886 0.038810678
0.0731957 0.017211532 0.05325048 0.034776777 0.030164093 0.049975265 0.03187606 0.0700686

1.bias f4 [256]
00000000: a22d 9cbd a021 4b3b ffee 02bb c43f 1fbd
00000010: 40bc 18bd a274 0fbe ac10 9e3a ed2b c7bc
00000020: da3a 32bc b232 27be 5f83 97bd cf74 4ebd
00000030: 0ecf 8fbb 32cd 6f3a a378 1fbd 927d 08be
00000040: 13d5 84bb 1b02 7dbc afef 2dbd eaea 91bc
00000050: c0f9 32bd 2358 3cbc c815 c1bd 55d0 05bd
00000060: 7bcc b3bd 96b1 8bbc 38c4 88bb 000a b5bd
00000070: ca4c 04bc 2a91 02bd 0bc0 bcbd 1390 bdbc
00000080: 5b85 fabd ed47 30bb e515 f2bd 7c59 26bd
00000090: 90f6 17bd 666b 95bd 71db e3bc 2e8a e1bd
000000a0: 4a65 37bd cbd5 9fbd 37cc d7bd 9591 12bd
000000b0: e3a3 4bbd 7e20 1fbd 709f 84bd 814b 9abc
000000c0: cc99 9abd b06e babc f2d7 bcba 477d c1bd
000000d0: 17d8 23bd 40dc adbb e996 efbc bf1a 67bd
000000e0: e804 f7bc 1d73 dfbd 3a9d 963b 7496 80bd
000000f0: 2340 e5bc 9fd0 98bc 77ce 34bc c4e4 a6bd
00000100: ae82 82bd 69e4 7fbc bcc8 43bd a77e 43bd
00000110: 4605 06bd e854 313b d9ef 39bd 758c c3bd
00000120: de44 25bd 1586 06be 21d1 f1bd b254 0fbd
00000130: 37ef b9bd 8180 8abd 437c 4cbd f897 1bbd
00000140: 68f0 fcbd e3f5 e2bc 966b 24bd cd68 0bbc
00000150: 1317 3f3b 566c 5fbd e6eb c1bc f84c cdbc
00000160: fbce 99ba 672d 8bbd b60b b0bd 0f5e e2bd
00000170: f0d2 9abd 3643 5abd b95b d0bc c5c4 8fba
00000180: 3870 dfbc dcfb 0cbe a099 2dbd 63dd 0ebd
00000190: 4b28 96bd 792d 90bc 0655 cfbc 7e57 b9bc
000001a0: 83ca 67bd 6640 54bd f5ba b1bd bd98 b0bc
000001b0: 1676 d4bd 3a61 c7bd 7254 51bd a3e1 5bbd
000001c0: 950e c9bd f9e2 63ba d053 7dbc 3e18 97bc
000001d0: a589 3cbd 8e70 aebc 5b27 fcbc 1d58 75bd
000001e0: 93da 8fbd 2f11 b6bb 86b6 36bd 075f c0bc
000001f0: d349 b03b ac7c 38bd c59b 14bd cb51 04bd
00000200: 1edb 9ebd afae 06bb bfea 0fbe f413 81bc
00000210: fc7a c9bb 172a 02be 2287 50bd 735f 52ba
00000220: f008 09bd 910e 27bd b736 fcbc 1215 d7bd
00000230: 09e3 e6bc ac9a 16be ab90 0fbd bfef d7bb
00000240: 05ed e6bb 938b d6bd 33e4 19bd 60b5 08be
00000250: ad29 dabd 74b6 43bd 95ff 373b 1f53 d5bc
00000260: 2073 41bd 8354 57bc c4f1 00bd 248f abbd
00000270: 8850 b3bc 5499 52bd 476f 393b 94a4 4dbd
00000280: 734a bdba 51db 4dbc 026b 38bd b024 b6bd
00000290: 2b0e 23bd b401 40bd 697b 7dbd c62e 1abe
000002a0: 2ebb 13bd a719 10bd 7355 cdbd a7c5 c2bb
000002b0: a80d 82bc cdd3 93bc 3599 26bd 359f 88bd
000002c0: 3035 2ebd 3594 5abd e7b1 b7bc d1d7 94bc
000002d0: d24a 01be 3b60 eabd aa4a e9bd 515b cbbd
000002e0: 9b2e 05bd 1708 75bd 53af 8bbd 82db 1dbd
000002f0: 8729 34bd 0cbb 8dbc 8fda 53bb 97f1 7ebd
00000300: e6fb c3bc 2cc9 cfbc 4b7b 7fbd ad99 58bd
00000310: 3cf3 50ba 69cf 77bc e30f bbbc d121 bebc
00000320: 66e0 cfbd 631d 06bd 4e52 46bc 90bf d7bd
00000330: 300f a3bd e5cc 23bc 3465 afbd b41f c8bb
00000340: 271a 80bd a05f eabc ef25 74bc b47d 89bd
00000350: 9134 dfbc aadc 09be 36b1 09bb 91e6 a4bd
00000360: d113 8fbd 11c1 3fbc a8d7 12bd 8b94 24bd
00000370: f71d d7bd 3ff5 1abe 1981 8dbd 802f c6bd
00000380: 4954 90bb 9e82 603a c24a 89bd 0ddd 8fbd
00000390: 450b 3dbc 43c8 ebbc f94c 67bd b8fd 9cbc
000003a0: b1ba 77bd 7647 c4bc 2f11 f4bc 719a 43ba
000003b0: 85ef aabd e760 23bd 3653 debc 7692 8abd
000003c0: 4a97 5bbd 850b 0abd b8ed 29bc 3eb5 87bd
000003d0: bc49 5fbd ea1f 99bd 8f30 96bd ceb4 dbbc
000003e0: c17f ccbd 9c1a 65bb 3d17 0cbd 519d 56bc
000003f0: aae3 1bbb 07d6 04bd e0d3 98bc db51 a3bd
-0.07625891 0.0030995384 -0.0019978879 -0.03887917 -0.037288904 -0.14009336 0.0012059412 -0.024312938
-0.010878289 -0.16327932 -0.07398104 -0.050404366 -0.0043886965 0.0009147703 -0.038933408 -0.13329151
-0.0040537207 -0.0154423965 -0.04246491 -0.017812211 -0.04369521 -0.011495623 -0.094279826 -0.032669384
-0.08779236 -0.017052453 -0.0041737817 -0.08839798 -0.008074949 -0.03187672 -0.09216317 -0.023139989
-0.12232467 -0.002689834 -0.11820582 -0.040612683 -0.037100375 -0.07295875 -0.027814599 -0.11012684
-0.04477433 -0.0780445 -0.10536998 -0.03578337 -0.04971684 -0.038849346 -0.06475723 -0.018834831
-0.07548866 -0.022757858 -0.0014407618 -0.09447723 -0.040001 -0.005305797 -0.029246764 -0.05642199
-0.030153707 -0.10910628 0.0045963796 -0.06278697 -0.027984684 -0.018654166 -0.011035553 -0.08149102
-0.063725814 -0.015618422 -0.047798857 -0.047728207 -0.032719873 0.0027058665 -0.045394752 -0.095482744
-0.04034888 -0.13137086 -0.11807466 -0.03499288 -0.0907883 -0.067627914 -0.049923193 -0.037986726
-0.12350541 -0.027705139 -0.040141664 -0.008508873 0.002915804 -0.054546677 -0.023672055 -0.025061116
-0.0011734659 -0.06795769 -0.08595984 -0.110530965 -0.075597644 -0.053286754 -0.025434362 -0.0010968676
-0.02727519 -0.13767952 -0.042382836 -0.0348791 -0.07331904 -0.017599808 -0.025309097 -0.022624727
-0.056589615 -0.051819228 -0.08678237 -0.021557206 -0.103740856 -0.09735341 -0.051105924 -0.05368198
-0.098172344 -0.00086931844 -0.015461877 -0.018444177 -0.046029706 -0.021293905 -0.030780485 -0.059898484
-0.070241116 -0.0055562477 -0.04460766 -0.023482813 0.0053798943 -0.04504077 -0.036281366 -0.032304566
-0.07756637 -0.0020550897 -0.14054392 -0.015756585 -0.006148694 -0.12711369 -0.050910123 -0.00080250873
-0.03345579 -0.040785376 -0.030787809 -0.10502066 -0.02818443 -0.1470744 -0.035050076 -0.0065898593
-0.007047298 -0.104758404 -0.037571143 -0.13350439 -0.1065248 -0.047781423 0.0028075923 -0.026040612
-0.047228932 -0.013142708 -0.031480566 -0.08376911 -0.021888986 -0.051415756 0.0028295086 -0.050205782
-0.0014441743 -0.012564496 -0.045023926 -0.08893716 -0.039808434 -0.046876624 -0.06188527 -0.15056905
-0.03606718 -0.035180714 -0.10026064 -0.005943972 -0.015875652 -0.01804533 -0.040673453 -0.06670991
-0.042531192 -0.053363997 -0.022423698 -0.018169316 -0.12626198 -0.11444136 -0.11391194 -0.099295266
-0.03251515 -0.05982217 -0.0682055 -0.038539417 -0.043984916 -0.017301105 -0.0032326316 -0.062242117
-0.023923825 -0.02536448 -0.06237344 -0.05288093 -0.0007970815 -0.015125134 -0.022834724 -0.023209484
-0.101502225 -0.03274287 -0.012104584 -0.105345845 -0.07961881 -0.009997581 -0.08564225 -0.006107295
-0.06254988 -0.02861005 -0.014901622 -0.06713429 -0.027246745 -0.13463083 -0.0021010167 -0.080517896
-0.069862016 -0.011703745 -0.035850197 -0.040180724 -0.10503762 -0.15132616 -0.06909389 -0.09677029
-0.004404579 0.00085643854 -0.06703712 -0.07024584 -0.011538331 -0.028782016 -0.05646989 -0.019163951
-0.060480777 -0.023959856 -0.02979335 -0.0007461673 -0.08346466 -0.039887335 -0.027139287 -0.067662165
-0.053611077 -0.033702392 -0.010371618 -0.06626366 -0.054513678 -0.0747679 -0.073334806 -0.026819613
-0.099853046 -0.0034958487 -0.03420185 -0.013099031 -0.0023786821 -0.032430675 -0.018655717 -0.07974597

1.running_mean f4 [256]
00000000: 453d 643d fbe5 36bb 5f70 3a3c f52e 213d
00000010: 95a6 ee3d 73b4 8b3d 553c 8fbd ca4c 97bc
00000020: bf1e a13d 688f 423e bdd7 8dbd 87d1 123e
00000030: 758c 673d 9d21 06bd d5cb 23bd 55d6 163c
00000040: 6844 bbbb 64c2 c03c 4991 953d 095b 75bd
00000050: efcb 973d 06f4 86bc 40ea 7ebc 1a57 dfbb
00000060: b44d e93b 2584 fdba 4f89 b9bd 4b31 b0bd
00000070: 32a0 c9bb 2ed4 60bd 2f70 933d 0302 1fbd
00000080: 22ae febc 72ad ce3a 9641 11be 21cf 6fbd
00000090: 2de8 9b3c 39d5 bbbc e448 4f3d 85fc 853c
000000a0: 3ca6 5e3d 618c a63d 36f8 543d 1821 2b3e
000000b0: 095d 9a3c 43fe 4e3d df20 2f3d 3346 983d
000000c0: df42 0c3e ceb2 d1bd 28de a33c 90c7 1e3d
000000d0: c791 b33b b2f7 513d 2a70 c0bd 603d 973d
000000e0: bdaa 003d b405 503d edde f0bb d5e8 4b3d
000000f0: 1912 2f3d cc39 4e3d f185 58bd 3e9d 453c
00000100: 3ada e6bb d278 373c 10f9 083e 0bc0 b9bc
00000110: 08a3 c8bc 96c0 d03d 90cb a53b 12cd ed3d
00000120: 3793 d13d 54e7 603e 0245 423c 6751 c4bd
00000130: 294a 523d dc18 00bd 1232 f93c a83d 10bd
00000140: 44a1 073d fe4c 253d dc0b 3e3e 6079 9c3d
00000150: 2d99 4abd d3b3 883c 2b75 9d3d fc0d 32bc
00000160: 1831 003d df51 b8bd 8c50 bb3c d03e cd3b
00000170: f6d1 9cbd 6b77 933d d9a1 84bd 7a65 ef3b
00000180: fe64 96bd 4ef8 c33c ae31 0abe 3c06 503d
00000190: eb93 393c 1afd 8ebd 9fa9 443d 0fbf 143c
000001a0: 35bc 323d f644 62bd 7623 c83d 0213 083e
000001b0: 8149 bf3d 5872 163d 15e2 4dbd b025 b53d
000001c0: 6b3f 763d 2128 9dbd 0a29 583d b936 bc3d
000001d0: fd13 143d 28a2 7f3d 9e8b 0c3d dffd f33d
000001e0: 08a2 b6bd 48b4 ea3d e7c3 0ebd 031f 283c
000001f0: 4cb8 efbb fade 5e3d 2200 d3bd ea1f be3d
00000200: 4d83 fe3d eb49 383b 80af e8bd 6dae babd
00000210: 0796 1a3d d2f2 163b 9dd1 15bd 20d3 cf3c
00000220: 9612 453d ab0d ba3c 0593 c13a 0055 7f3d
00000230: 6294 153c f936 6dbd 3016 73bc 972e ac3d
00000240: d217 843d 3167 c4bd f9f7 963d c970 08bd
00000250: a30e 66bd d622 0e3e c086 1ebd bd10 16bd
00000260: 5926 dbbd 4848 323d 0fb0 6fbd 6fea 0bbe
00000270: f59b 89bd 4ddb 6e3d 4d45 4d3d f41e 6bbd
00000280: 3d20 223d 2ef5 9b3d 40a2 933d 5c0a 403d
00000290: 862b 913d 1ac9 08bd c1a1 eebb a5d4 e8bd
000002a0: 68fc 66bd 1838 f03c d552 b1bc dfb0 f5bd
000002b0: 6b0c a3bd 8870 c13c 56a4 42bc b301 41bd
000002c0: 7573 523d f707 d4bd 57aa c0bd baeb ee3c
000002d0: b292 123d a7b6 763b 71a1 3b3d 1ce1 31bd
000002e0: cce5 ad3d cbf4 9fbb b521 143e 5997 c3bc
000002f0: 9b14 8a3d 0f41 403c 297a b63b 2a66 b13d
00000300: a715 3fbc 382a c5bc b8c8 59bd 7ef1 83bd
00000310: 608e 0e3d 7f50 bfbc 39ca 4e3d 1287 bb3c
00000320: 54dd 353d 0cc4 cfbd 4c67 0cbd 0590 f23d
00000330: 99e3 0ebc 0482 68bc 5d13 173d 2a22 f13c
00000340: 31ab e23d 6263 a4bb 2dc5 14bd 5075 babc
00000350: 8a30 5e3b 71d7 f0bc 5ba5 333d e940 203e
00000360: 1430 00be 9008 2f3d c0e8 86bd 1022 3b3c
00000370: 20cb 0cbd a0ec cd3d 960c 0d39 2c78 5b3c
00000380: 9a1e a6bd 7e9b 813a 7a26 203d f66a fb3d
00000390: 1f7c 883d 20c9 56bd 6e4a 553c 1b16 02b9
000003a0: d35f 89ba cdd7 15bd 0b46 293c 3b42 13bd
000003b0: 9cea 25bd 7439 1ebc 0119 be3c 937f e53b
000003c0: 344b ccbd d954 733d bac8 6ebd bd3a a03d
000003d0: 5dd5 cd3d e41e 90bc 87d3 90bc 3f1b 1f3d
000003e0: 26ab 8c3d 45b4 cb3d f2d7 953d 4606 a33d
000003f0: ee4c a5bd ccef 183d 2e07 863d f593 6f3c
0.055722494 -0.0027908075 0.01137933 0.039351422 0.11652867 0.06821527 -0.06993929 -0.018469233
0.078671925 0.19000018 -0.069259144 0.14337741 0.056530435 -0.0327469 -0.03998931 0.009206374
-0.005714942 0.023530193 0.073031016 -0.05990127 0.07411944 -0.016473781 -0.015558779 -0.0068158032
0.0071198586 -0.001934175 -0.09059393 -0.08603152 -0.00615313 -0.05488985 0.07199132 -0.038820278
-0.031088892 0.0015768243 -0.14185175 -0.058547143 0.019031608 -0.02292882 0.050606623 0.016355762
0.054357752 0.08132244 0.051994525 0.16711843 0.01884319 0.05053545 0.042755958 0.074352644
0.13697384 -0.102391824 0.020003393 0.038764536 0.0054800245 0.05126161 -0.093963936 0.07384753
0.03141283 0.05078669 -0.0073507936 0.049782593 0.04274187 0.05034809 -0.05286211 0.012061415
-0.0070450576 0.011198239 0.1337626 -0.022674581 -0.024491802 0.10192983 0.005059667 0.1161138
0.10233157 0.21963245 0.011857273 -0.09585839 0.051340256 -0.031273708 0.030419383 -0.03521505
0.03311278 0.04035663 0.18559211 0.07640338 -0.049462486 0.01668731 0.07688364 -0.010867592
0.03129682 -0.08999991 0.022865556 0.0062635913 -0.07657234 0.072005115 -0.064761825 0.007305798
-0.073434815 0.023922112 -0.13495514 0.050787196 0.01132677 -0.06981869 0.048013326 0.009078755
0.04363652 -0.055241548 0.09772389 0.13288501 0.09340192 0.03673014 -0.050264437 0.08845079
0.060119074 -0.076736696 0.052773513 0.09190125 0.036151875 0.062410504 0.034312837 0.119136564
-0.08917624 0.11460167 -0.034854796 0.0102613 -0.007315671 0.054411866 -0.1030276 0.09283431
0.124273874 0.002812023 -0.11361599 -0.091153 0.037740733 0.0023032916 -0.036576856 0.025369227
0.048113428 0.022711596 0.0014768547 0.06233692 0.0091296155 -0.057913754 -0.014836833 0.08407324
0.06449856 -0.09589995 0.07371516 -0.033310685 -0.056166302 0.13880476 -0.038702726 -0.036637057
-0.107006736 0.043525964 -0.058517512 -0.13663648 -0.067191996 0.05831461 0.05011492 -0.057402566
0.039581526 0.07615124 0.07208681 0.04688488 0.070883796 -0.03339491 -0.007282466 -0.11368684
-0.056393057 0.029323623 -0.021645943 -0.11996626 -0.07961353 0.02361323 -0.011880001 -0.04712076
0.05137964 -0.10353082 -0.0940749 0.029165138 0.03578443 0.003764549 0.04580826 -0.04342757
0.08491096 -0.0048814765 0.14465983 -0.02387588 0.067422114 0.011734261 0.005568762 0.086620644
-0.011662877 -0.024067983 -0.053169936 -0.06442545 0.034803748 -0.023353813 0.050485823 0.022891555
0.044400528 -0.10144815 -0.0342782 0.11843876 -0.008721256 -0.014191154 0.0368837 0.029435236
0.110678084 -0.00501673 -0.036320854 -0.022761017 0.0033903443 -0.029399605 0.043858867 0.15649761
-0.1251834 0.042732775 -0.06587362 0.011421695 -0.034373403 0.10054898 0.00013451496 0.01339535
-0.081113055 0.0009888259 0.039099194 0.122762606 0.06664299 -0.0524379 0.013018234 -0.00012406001
-0.0010480828 -0.036582757 0.010331641 -0.035951834 -0.040506944 -0.009657253 0.023205282 0.0070037334
-0.09975281 0.05940709 -0.058296897 0.078237034 0.100504614 -0.017592855 -0.01767899 0.038844343
0.068685815 0.09946493 0.07316579 0.07960181 -0.08071314 0.037338063 0.06544338 0.014622678

1.running_var f4 [256]
00000000: 1a57 9e39 d5f4 8d3c 6dae 413c 6e51 643b
00000010: 3084 fb3c 02fd 943d e553 363c 9884 143d
00000020: 3867 c33c 0c19 963a 6252 863c e4d9 e13c
00000030: cce5 8d3c 5725 383c 36d1 a03a b2ac 7e3b
00000040: eca1 923c 2f2f bf3b 956d a63c 7319 eb3c
00000050: 7d5d 193d fb87 c43c 94b2 213c 3673 db3c
00000060: 18ce 153e 69d5 7b3c a716 c93c 038c b03b
00000070: eba6 c53c 0db7 233c bb22 2c3d 0e1e 963c
00000080: 8bf6 a23c 9168 433c 2a83 653c 1e84 c03c
00000090: 3d40 6f3c 6477 333d d559 fb3c 7826 343d
000000a0: fe9d d13a 50c4 a13b 82eb 233d fc12 953d
000000b0: 0bcf 8138 3c3a 693c f90e 503c ea6e 713d
000000c0: 35f0 8639 e5ac 193d c4d0 f53c ac6e b43c
000000d0: 7780 123b 7a14 0a3d 231f c93d 6078 083d
000000e0: f43f 013d 4009 ce39 e465 bb3b 5252 c83c
000000f0: 2755 233c 2ca8 293c a2c2 ce3c 8855 213d
00000100: cc79 d03c 2885 e33c 222a f93c 023a cf3c
00000110: c35a d03c a6e2 8e3c f353 493d 9c05 273b
00000120: 45ff f53c 75a5 723b 40d6 cc3a 3cf2 363d
00000130: b125 403c 37a0 273e 2229 613c 4e73 9b39
00000140: 2e7e cc3c 3391 3f3c 7299 c83c 589a c13c
00000150: 7afd 963c 97d1 8d39 e5c5 b83b e387 6a3d
00000160: 2663 533c ee8a 3a3e 6e4b 4e3a 66aa 003c
00000170: 70a6 fa3c 6645 da3c 7f7c 723c d4dc 133c
00000180: 8421 2e3b 8f98 5f39 2488 153d 93a3 2f3c
00000190: 94bd 033d d24a 733c 2dc1 203c a6f2 d73c
000001a0: 020e a53d db62 d93c b38c 183d c4ae a23d
000001b0: 485c cc3c 3047 ab3a 1ae6 383c 2238 e43b
000001c0: bb9a 1a3c a226 ed3c ae69 cf3b 39b1 753c
000001d0: 70a8 ca3c 3492 7739 b66f 223c f729 863c
000001e0: 2b26 313e 7fbd a23c 49bf 503a 7ce6 6d3b
000001f0: e487 fd3c 1ac9 413d 9b59 503c 13c0 343c
00000200: 45d2 063b b577 773c 8ac6 893d 8d8d 803c
00000210: 80ef 923c dab1 c63c d7f2 303c f4bb 693c
00000220: 2455 303d c50c 4b3c ac59 3c3d 1f4e b93c
00000230: 9340 283c a804 153c d2c8 2a3d 800b 933c
00000240: 721a c73c 221c d13c 3063 5c3c 84b1 a83c
00000250: f0a8 073a f8d7 403d 2493 8d3c dfbf 7f3c
00000260: b7bd 8c38 3e3c d63c c72e 3a3c 53c5 833c
00000270: aa8d 983c dd0b ab3c 7a33 823c 03cb d23b
00000280: 5820 5f3c e23d 3f3c 40fa 423d 725a 5f3c
00000290: 9c7c 8b3c 7773 433d 2414 d63c 9b14 0b3c
000002a0: fc16 d83c 7f5b 4d3b 7411 973c cec4 113d
000002b0: 0495 703c 0ffe 483a 06ee a53c 4716 293e
000002c0: d088 833a ca44 213d c06a a33d 93f2 833c
000002d0: bc90 853c e2f5 e03c 77b1 3d3c 5aba 113d
000002e0: c567 dc3c 31d5 323d 3b4f 113e 4f08 c63c
000002f0: ca4c dc3b 8ca9 763c 4f56 1e3c 974d c23c
00000300: 67cf 473b 97e9 9d3d 30f6 ff38 66b4 8f3a
00000310: b1fd 1d3c 5a5f bc3b 9b8a 213d 20e6 ae3d
00000320: d446 713b 48ce d63c 0b25 d33c f087 fb3b
00000330: bb05 df3d 5968 ba3c 0052 ec3c 7232 9d3c
00000340: 176d f339 01d7 bd3c ba30 d53b f5c3 2a3e
00000350: a4ab b93a 7e63 b139 b3f8 2a3c ae04 093d
00000360: 3541 f43c 65f9 cc3c 9f9c 373d aed1 d83c
00000370: 391c 523b 00e1 093d 5bbe 1939 356f 763c
00000380: e2f4 2f3c 2990 333c 8db6 0f3e b02d 8b3c
00000390: a310 c83c 7c17 8c3c d4d2 0e3a 0630 d23c
000003a0: 1a06 8b39 1f7d 8e3c 9d3b 013d d224 583c
000003b0: 30a7 2a3d 1627 103d fb6f 1d3c d18f 6d39
000003c0: 11d2 a93d 768e 0a3d b34f ca3c 73cc d53c
000003d0: cc8b 0a3d ecd8 eb3b 9988 db3d ab60 7f3c
000003e0: e6a3 273a fe2e a83c c233 313d 9d37 b53b
000003f0: 00e3 263c b694 2e3d 620a f33c f8a2 db3d
0.00030201004 0.01732866 0.0118213715 0.0034838575 0.03070268 0.0727482 0.0111284 0.036259264
0.02385293 0.0011451556 0.016396705 0.027569719 0.01732149 0.011239371 0.0012269381 0.0038860259
0.017899476 0.005834482 0.020315925 0.028698659 0.037442673 0.023990622 0.0098692365 0.026788335
0.146294 0.015370705 0.024546934 0.0053877844 0.024127444 0.009992373 0.04202531 0.018324878
0.019892951 0.011926786 0.014008323 0.023500498 0.014602718 0.04381503 0.030682484 0.043982
0.001599252 0.0049367324 0.04001952 0.072790116 6.189764e-05 0.014235076 0.012698882 0.058943667
0.0002573744 0.0375184 0.030006774 0.022025429 0.0022354403 0.033710934 0.09820392 0.033317924
0.03155513 0.00039298274 0.0057189334 0.024453316 0.009969032 0.010355037 0.025239293 0.03938821
0.025448702 0.027773455 0.030415598 0.025296215 0.025433904 0.017442059 0.049152326 0.0025485521
0.030028949 0.003702489 0.0015627816 0.044664606 0.011727736 0.16369711 0.013742717 0.00029649812
0.02496251 0.011692333 0.02448723 0.023633167 0.018431414 0.00027049772 0.0056388252 0.057258498
0.012902057 0.1821706 0.0007869516 0.007853126 0.030596942 0.02664442 0.01480019 0.0090248175
0.002657027 0.0002132377 0.036506787 0.0107201515 0.032163218 0.0148493815 0.009811682 0.026360821
0.080593124 0.026536396 0.037243556 0.0794349 0.024946347 0.001306748 0.011285329 0.0069646994
0.009436305 0.028949086 0.0063297367 0.014995866 0.02473852 0.0002361022 0.009914329 0.016377432
0.17299716 0.01986575 0.0007963074 0.003630071 0.030948587 0.047310926 0.012716676 0.011032122
0.0020572108 0.015104224 0.067273214 0.015692497 0.017936468 0.024254728 0.010800085 0.014266003
0.043049946 0.012393181 0.045983955 0.022620259 0.010269302 0.009095348 0.041695423 0.01794982
0.024304602 0.02552611 0.0134513825 0.020592459 0.0005175015 0.047080964 0.017282076 0.0156097105
6.711057e-05 0.026151773 0.011363692 0.016085302 0.018622238 0.02087968 0.015893687 0.0064328923
0.013618551 0.011672469 0.04760194 0.013632404 0.017027192 0.047717538 0.02613265 0.008488799
0.026378147 0.0031335053 0.01844094 0.03558808 0.014683966 0.0007667252 0.0202551 0.16512404
0.001003528 0.039372243 0.07979345 0.01610688 0.016304366 0.027460996 0.011577955 0.03557811
0.02690495 0.043660346 0.1419038 0.024173884 0.006723021 0.015055072 0.009664132 0.023718638
0.0030488612 0.07710569 0.000122052035 0.0010963797 0.009643004 0.0057486715 0.039438825 0.085399866
0.0036815898 0.02622141 0.0257745 0.007676117 0.10889765 0.022754835 0.028847694 0.019189093
0.0004642985 0.02317381 0.006506053 0.16676314 0.0014165533 0.00033834198 0.010435271 0.03345173
0.02981625 0.025021264 0.0448271 0.02646717 0.003206028 0.033661842 0.0001466213 0.015041162
0.010739537 0.010959663 0.14034481 0.016989559 0.024421996 0.017101042 0.0005448286 0.025657665
0.00026516692 0.017393647 0.031550992 0.013192372 0.04166335 0.035193525 0.009609218 0.00022655657
0.0829202 0.033827268 0.024696207 0.026098466 0.033824727 0.00719749 0.10719413 0.015587012
0.0006394967 0.02053022 0.04326225 0.0055303113 0.010185957 0.04262229 0.029668037 0.10724443

4.weight f4 [256, 256]
00000000: ca07 9abe f96b 18bc af41 45bc f830 7b3d
00000010: 0a83 80bc 79f1 85bd 9182 873b df9b 1cbf
00000020: 3440 17bf 75fe f5be 42ec bd3b 4378 76bc
00000030: 01d5 353c befe 903b f483 a3bd ea1c b83d
00000040: 453c 9abb bb68 d0be bc61 9b3c b459 b8bd
00000050: 0ea0 a1bb ca43 da3c 1681 40bd c9f5 eebe
00000060: 5ea8 0ebe e254 aaba 2383 d9bb 55f7 67be
00000070: 07c8 aebc bce0 b23b b83c 883c 05d7 33ba
00000080: a51c 323e 1507 813c b9cd c1bd aec9 7cbc
00000090: fc9f 833c 93e8 213d 9564 e4bb 0bd1 5bbe
000000a0: bb6b e93b 3cfd ce3c 2cf7 a13b bf25 ea3c
000000b0: 227d 29bd edbd 193d 834f c6bd 49f7 5ebc
000000c0: d219 91be 67fe e7bb 7291 dcbc f0be 1abf
000000d0: 5703 cf3a d545 ab3c e14f 893c e39f 833a
000000e0: 1285 2c3d 2ed5 6e3c 2fe2 5bbb c54c b43d
000000f0: 24c6 753c e330 b83b c35b 023d f923 96bb
00000100: db3c 1abd c4b8 10bf aeea b439 338d c13c
00000110: 9f04 ad3c 4086 683b e3f9 38bb 7402 cd3b
00000120: 0797 053d 335e a5be bd90 823c ab2e c43b
00000130: 12c0 26bd 7f81 f5bc 26b8 1fbe 1672 06be
00000140: cf9b d63a dae9 8abc d095 09be 70eb 1d3c
00000150: 665a 60bc f861 533d e1b0 9dbd 0c39 83bc
00000160: 9683 94bc 71ef 89bc 8046 f43c 6b50 fdbe
00000170: 735b db3c 1d56 8eba 9aa9 a03d 448d 97bc
00000180: bda2 fabc beba b4bd 2800 053c 7c9c fd3c
00000190: 2e03 f03c 8392 173c 8b16 bb3c ac9f 9e3c
000001a0: 80d0 e9ba 41e8 28be 580d e93c 6669 a83b
000001b0: 266e 03bf 92a6 53bd cde3 4ebc d416 d73c
000001c0: 326c 3a3d d651 4ebd a664 b0be 5430 8c3b
000001d0: 11b7 a43c c098 62bc d225 2ebc ac9f c33c
000001e0: 9e88 2a3b 8460 46be 6749 013c a86b c53c
000001f0: 7114 45bc e58e 0fbc 2a5e a93c 37a8 fcba
00000200: 3b47 2bbd 747f 7d3d 1cf5 b4be 7959 ab3b
00000210: 80f6 33be 34de d73c fcbb e4bc a4ba 6dbc
00000220: 5200 1c3c 7b0d f73b 8aae af3c 99a4 e43c
00000230: a193 c03b cde7 443d adf3 b73c e42b 48be
00000240: 96c8 883c 6bd0 383d 88e1 033d 684a 05be
00000250: 2339 c5bc b166 9b3c 1656 323c 47a0 513d
00000260: 0eea aabc 66b4 0c3d b34f e63c 84be 99bd
00000270: c256 ca3a ae5f bb3d 1de7 10bc d192 1a3d
00000280: 8b4d 473b 5918 7abb 7017 b0bb 7115 41be
00000290: b108 16bd 737f 7f3b a224 4fb9 447c bd3c
000002a0: 92b3 dbbe 4c6f a0be 240f 98be 7a17 b63c
000002b0: 8358 91be 3db0 bcba 3c81 9c3c 5f7a 0cbc
000002c0: 2f59 653a 4df4 9cbe 3acd 5a3c dbc5 cc3c
000002d0: 136e 7ebd b433 433c eedf de3c e236 00be
000002e0: f577 fcbe 366f f03c d06a 29be 99a3 093d
000002f0: 9cb9 bcbd ada0 ff3b b395 74bc 4cc9 b73d
00000300: 2696 c73c a979 ee3d 7a6c 963c c54f 903d
00000310: 1713 753b 9720 babe bce8 f33c 94f1 b23b
00000320: ce3f 88be a965 00bf b3f7 9c3c 802e c3be
00000330: 32cd f4bc 4399 b23c c009 39bf a0fb 22bc
00000340: 55c3 fb3b de75 ad3c e1f3 c6be d85f a9bc
00000350: ff1a 663c 01a0 193d a887 b63c cb26 aa3c
00000360: a9f1 9b3c d723 0d3d c140 a13b d75a 213d
00000370: 5968 033d dd01 8f3d 7032 d2bc b7b5 bb3d
00000380: 643a 49bc 6b2d 9a3a c56a 1cbe 8169 07bb
00000390: 0454 2b3d 3e28 b73a 18a8 0cbe 2878 b7be
000003a0: c6f7 46bc ec46 0dbc 5488 b6bc 06d1 81bc
000003b0: d905 2fbc 7a5d 383d dacf 4b3c 540e 9f3d
000003c0: 490e e7bb 6978 eabd 6eef 9f3c f941 2e3e
000003d0: bcb0 063d 5560 ae3d 3a0c 6ebe 0b29 ae3c
000003e0: 4eda 99be 24f8 c73c b115 2b3b 2d8f debe
000003f0: 92ac 0539 e427 d43c 9971 93bd 2715 2fbc
-0.30084068 -0.009303086 -0.012039586 0.061325997 -0.015687484 -0.06540198 0.004135438 -0.6117534
-0.5908234 -0.48045698 0.0057959864 -0.015043321 0.011098147 0.004424899 -0.079841524 0.0898989
-0.0047068917 -0.40704903 0.018967502 -0.090014845 -0.00493241 0.026643652 -0.046998106 -0.46671894
-0.13931414 -0.0012995268 -0.006637947 -0.22652943 -0.021335615 0.0054589193 0.016630515 -0.00068603485
0.1739374 0.015750447 -0.094630666 -0.015428944 0.016067497 0.03952844 -0.006969998 -0.21466462
0.007123438 0.025267236 0.0049427953 0.028582452 -0.0413791 0.037534643 -0.096831344 -0.013608762
-0.28340012 -0.0070798877 -0.026924822 -0.604476 0.0015793842 0.020907322 0.016761722 0.0010042157
0.042119093 0.014577193 -0.0033551564 0.08803705 0.015000854 0.005621062 0.031825792 -0.004581925
-0.037655693 -0.5653193 0.00034507125 0.0236269 0.021120368 0.003548041 -0.0028225116 0.006256396
0.032614734 -0.3229843 0.015938157 0.0059870086 -0.040710516 -0.029968975 -0.15597591 -0.13129458
0.0016373339 -0.016957212 -0.13436055 0.009638652 -0.013693428 0.051607102 -0.076997526 -0.016018413
-0.018129151 -0.016837807 0.029818773 -0.49475417 0.026777005 -0.0010859404 0.07844849 -0.018499978
-0.030595178 -0.08824681 0.008117713 0.030958407 0.029298391 0.00925124 0.022837898 0.019363247
-0.0017838627 -0.16494848 0.028448746 0.0051395176 -0.5133995 -0.051672526 -0.012627554 0.026256002
0.04551334 -0.050371014 -0.3445179 0.004278222 0.020106824 -0.013830364 -0.010629134 0.023879848
0.0026021372 -0.19372755 0.007891036 0.024099186 -0.012028799 -0.008762096 0.020674784 -0.0019276206
-0.041815978 0.061889127 -0.35343254 0.005229172 -0.17574501 0.026351072 -0.02792167 -0.014509831
0.009521561 0.007539449 0.021445531 0.027910518 0.0058769737 0.048072625 0.02245506 -0.19547993
0.01669721 0.045120638 0.032197505 -0.13016665 -0.024075096 0.018969866 0.010884782 0.051178243
-0.02086356 0.03435173 0.028114175 -0.07507041 0.0015437233 0.09149109 -0.008844164 0.03773767
0.003041121 -0.0038161485 -0.0053738877 -0.18855835 -0.036629383 0.0038985878 -0.00019754705 0.023130544
-0.4291044 -0.31334913 -0.2969905 0.022227991 -0.28387842 -0.0014395785 0.019104593 -0.008574097
0.0008748946 -0.30655137 0.013354594 0.024996689 -0.062116694 0.011914182 0.027206387 -0.12520936
-0.4931027 0.029349905 -0.16544652 0.033603285 -0.0921509 0.0078011365 -0.014928269 0.08973941
0.024363589 0.116442986 0.018362273 0.07046465 0.0037395412 -0.3635299 0.029774062 0.0054609273
-0.2661118 -0.5015512 0.019161081 -0.38121414 -0.029883001 0.021801597 -0.722805 -0.009947687
0.0076831975 0.021174368 -0.3885794 -0.020675585 0.014044522 0.037506107 0.022281483 0.020770451
0.019036131 0.034458008 0.0049210493 0.039393272 0.032081936 0.06982777 -0.025658816 0.09165519
-0.012281988 0.0011762803 -0.15275104 -0.002066225 0.04182817 0.0013973785 -0.13735998 -0.3583386
-0.012144035 -0.008622866 -0.022281803 -0.01584674 -0.0106825465 0.04501102 0.012439692 0.07766405
-0.0070512635 -0.11448748 0.019523349 0.17017354 0.03288339 0.085144676 -0.23246852 0.021259805
-0.30049366 0.024410315 0.0026105458 -0.4346861 0.00012748156 0.025897928 -0.071994014 -0.010686195
