MLP_CAISO_2022_models/delta_CO2_round1/2023_10_30-12_57_23_AM/epoch=35033,r2=0.7823,Invalids=0.pth (torch, 692689 bytes, 20 tensors)

0.weight f4 [512, 5]
000000 e4 88 fa bd 04 96 c9 3f a5 26 22 40 2a 52 3b bc
       -0.12233141 1.5748906 2.5336087 -0.011433164
000010 e8 2f 35 bf 72 b7 66 3c b7 1d 62 bf fa 8e 12 3e
       -0.70776224 0.014081823 -0.8832659 0.14312354
000020 94 99 5f be af 32 b8 bd 92 a7 5a bf 1d b1 ec 3f
       -0.21835929 -0.08994042 -0.8541194 1.8491551
000030 76 25 60 be a1 21 f7 be 87 21 6a bf 72 17 2c 3f
       -0.2188929 -0.48267844 -0.9145741 0.67223275
000040 04 dc ab bf e2 75 72 bf f7 37 8b 3f 09 f7 9d bf
       -1.3426518 -0.94711125 1.0876454 -1.2341014
000050 2f 18 a2 be 25 a7 1a 3f 9c e1 fb 3f 77 82 63 be
       -0.31659076 0.6041129 1.9678226 -0.22217737
000060 89 e0 f4 bf 96 96 32 bf 00 9b e0 3f b0 ee c1 3f
       -1.9131023 -0.69761026 1.7547302 1.5150967
000070 f2 1b 76 bf ad 0c 24 bf be 09 e9 bd 72 cc 4d 3f
       -0.9613639 -0.6408184 -0.11378811 0.80390084
000080 da 73 a1 c0 6a e7 cd bd b3 e8 08 3f 2e 45 26 3e
       -5.045392 -0.10053904 0.5348007 0.16237327
000090 0b 7e cd be 13 b1 e8 be a1 b8 d1 3f 20 17 a1 bf
       -0.40135226 -0.45447597 1.6384469 -1.2585182
0000a0 30 38 e3 bf b1 9c 52 bf 72 e9 7e 3f b6 24 8a 3f
       -1.7751522 -0.8227034 0.9957496 1.0792453
0000b0 74 27 44 bf 59 8b 1f be 58 85 22 3f b4 ea e4 bf
       -0.766227 -0.155805 0.63484716 -1.7884126
0000c0 77 f9 11 3e ad b7 a9 bf 17 51 f4 be ba 70 1c 3f
       0.1425532 -1.3259178 -0.47718117 0.6110951
0000d0 43 99 50 40 a4 95 14 3f f2 6f 45 3e 9b b0 44 3d
       3.2593544 0.58040833 0.19280985 0.048019987
0000e0 63 9e 74 40 09 f2 a4 bf eb ea fa be 14 c1 b5 3e
       3.8221672 -1.2886363 -0.49007353 0.3549887
0000f0 17 87 4d be a7 7c f9 3c 00 5e 87 be 10 57 cd be
       -0.20071064 0.030454947 -0.26438904 -0.40105486
000100 01 04 94 3e 34 77 71 be ec 84 b2 3c 4f 96 d8 3b
       0.28909305 -0.23580629 0.021791898 0.006609715
000110 8a bd fa 3f 6b 71 03 c0 71 b6 3b 3f 6a 9b a1 3f
       1.9589093 -2.0537975 0.7332526 1.2625554
000120 0a 65 79 3e 4c 7c 97 be ea 0e 00 c0 af cc f2 3d
       0.2435495 -0.29587018 -2.0009103 0.118554465
000130 f5 4a b5 be 61 9e 5a be 0d ab 85 bf 6d 99 99 40
       -0.3540875 -0.2134948 -1.0442826 4.7999787
000140 eb a8 26 bd 62 21 16 bf ab 1f 86 40 eb e0 9f be
       -0.040688436 -0.5864469 4.1913657 -0.31226286
000150 6a 38 9d be 69 9c 5c 3e 53 29 cd 3d 6a b1 5d bf
       -0.30707103 0.2154404 0.100176476 -0.8659884
000160 08 90 ca 3f 3d 66 b7 bf b6 c5 0a 3e 9a da cb 3f
       1.5825205 -1.4328076 0.13551983 1.5926087
000170 a0 61 38 3e 7c 95 df bf 17 c6 ce 3c fd 43 81 3e
       0.18005991 -1.7467494 0.025240941 0.25247183
000180 7f 76 1f 3f d8 92 72 bf 89 64 bd 3f e1 d6 d8 bf
       0.62290186 -0.94755316 1.4796306 -1.6940576
000190 e5 b4 3c bd 0d 35 7a bf 09 68 2f c0 d2 65 70 3f
       -0.046070952 -0.977372 -2.7407248 0.93905365
0001a0 2b 7d 81 bf 1d 1d 83 3f d3 f4 2e 3f 5d 5c 62 bf
       -1.0116323 1.024326 0.6834232 -0.88422185
0001b0 28 15 b6 be 04 a7 05 c0 ae 67 20 3f 88 09 8e c0
       -0.35563016 -2.0883188 0.626582 -4.4386635
0001c0 9f 5b 19 bf ca b7 4c bf 47 9c 90 3f 75 5f 99 3f
       -0.5990543 -0.7996794 1.1297692 1.1982256
0001d0 b9 94 4e be 7b e1 fc be 29 2d f7 3e d8 ec f7 bf
       -0.2017392 -0.49390778 0.48276642 -1.9369154
0001e0 3c 38 4e 3f f5 ca d6 bd 68 1d 75 40 77 76 83 bd
       0.80554557 -0.1048793 3.8299198 -0.0641908
0001f0 ec c3 86 bf d7 95 3f 3f 9c 63 6d 3f 81 dd c2 bf
       -1.0528541 0.7483801 0.92730117 -1.5223848
000200 a8 18 87 3e 24 8c ba bf 28 17 16 bd bb a2 a4 3f
       0.26386 -1.4574018 -0.036643177 1.2862161
000210 ec 5b 40 bf 0b e1 ec 3f 35 b2 b1 3f 54 85 7f be
       -0.7514026 1.8506178 1.388251 -0.24953204
000220 c6 f2 db 3e 37 8c a0 3e 75 fe 23 3d c8 c2 64 3e
       0.4295866 0.31356975 0.04003759 0.22339928
000230 d9 f1 fd 3d ff 49 71 3f 43 68 5d 40 a9 58 18 3f
       0.123996444 0.94253534 3.4594886 0.59510285
000240 85 ce 25 bf 70 a2 18 c0 5c bd 69 3e 62 e7 29 3f
       -0.6476825 -2.3849144 0.22826141 0.6636869
000250 36 2f b9 bf b8 95 cf 3e ae ca c5 3f 63 1f fa 3e
       -1.4467533 0.40543914 1.5452478 0.4885207
000260 e9 84 24 be e5 57 27 3f 6b fc fd 3f 73 27 33 3f
       -0.16066326 0.6536849 1.9842657 0.6998207
000270 cb 4e 37 3f 3b 38 20 c0 5c eb fa be 86 4c e1 3e
       0.71604604 -2.503432 -0.4900769 0.44003695
000280 4c bd 08 3f ac c3 60 3f 79 35 2a c0 5c 82 91 3e
       0.53413844 0.8779857 -2.6595137 0.2841977
000290 d0 90 ed 3d f7 ae 86 bc a8 1c 4c 3e c8 ec 8a 3e
       0.115998864 -0.016440852 0.19932806 0.27133775
0002a0 c9 0c db bf 34 82 d8 3f 74 f1 97 bf dd 00 b3 3f
       -1.7113277 1.6914735 -1.1870561 1.3984638
0002b0 a7 bb e2 3e 0d 25 6a bf 72 02 ab bf bf 45 4a 3f
       0.44283792 -0.91462785 -1.3360121 0.79012674
0002c0 48 4d 19 3f bd 54 5b c0 49 e2 f7 be 21 01 e8 3e
       0.59883547 -3.427047 -0.4841483 0.4531336
0002d0 93 a2 9b 3f 56 66 ef 3e 65 08 db 3d e4 2d fa bf
       1.2158989 0.46757764 0.106949605 -1.9545255
0002e0 78 e3 03 bf 98 ef ef 3d 99 db 73 3f 6d 9d 5e 40
       -0.51518965 0.11715621 0.95256954 3.4783585
0002f0 e8 fd 16 3f 88 0e 1d bf d2 08 35 bf 4c bb 8d bf
       0.5898118 -0.613503 -0.70716584 -1.1072783
000300 af 62 b3 3f f2 70 c2 3f 3a 71 1e be 09 88 30 3f
       1.4014491 1.5190718 -0.1547288 0.68957573
000310 ff 75 1d 3f 24 4f d2 3f 8c a1 07 3f e8 15 f0 bf
       0.6150817 1.6430402 0.52980876 -1.8756685
000320 d0 ef d5 3d 01 3e 1c 3e 51 8f a4 3e bf cd e3 bf
       0.10446131 0.15258028 0.32140592 -1.7797164
000330 46 61 c9 3f 46 c3 38 bf 79 0e 07 3f 43 bc a2 be
       1.573281 -0.72172964 0.5275646 -0.31784257
000340 7d 71 cc 3f e2 c0 8a bf 5e 5d 83 3d ef 54 5d 3f
       1.5972134 -1.0840113 0.06414293 0.86457723
000350 51 12 d4 3f 9f b3 b9 bf fe 3a ad 3f 00 0a 04 3f
       1.656809 -1.4507941 1.3533628 0.5157776
000360 32 c1 3b be 0d d4 d0 bd 03 f1 d9 bf 45 10 1c 40
       -0.18335417 -0.101966955 -1.7026676 2.438493
000370 99 bc ab bc ce b3 ec bd e6 a5 3c bc 15 a1 a3 bf
       -0.020963954 -0.115577325 -0.011514163 -1.2783533
000380 ab 68 a5 3f e8 2f 9d 3f 76 55 f6 be 6c ac b9 bf
       1.2922567 1.2280245 -0.48112077 -1.4505744
000390 a5 f2 88 bf 37 ab 12 bf 73 ad eb bd b2 67 64 be
       -1.0699049 -0.57292503 -0.11507692 -0.22305182
0003a0 8a ed 37 3e 1d 68 f3 3f 4a 2a 17 c0 2c bf af 3f
       0.17961708 1.9016148 -2.3619561 1.3730216
0003b0 fa f1 f8 be ce dd 3f 3d 9f 88 36 bf 90 06 04 40
       -0.48622113 0.04684239 -0.7130222 2.0629005
0003c0 24 d5 2d bf 30 45 d4 bc 57 3b d9 bd ca e7 b4 3f
       -0.6790335 -0.025911897 -0.10607021 1.4133236
0003d0 1f 77 b5 bf 54 d0 45 3e 43 04 b7 be 88 e9 a7 3e
       -1.4176978 0.19317752 -0.3574544 0.32795358
0003e0 a8 92 c7 bf 52 ec ac 40 e7 c8 dd bd 65 47 55 3e
       -1.5591631 5.4038477 -0.10829335 0.20828016
0003f0 9a bf 6c be f2 ab b8 bf 37 e0 b9 3f 78 b3 8d bd
       -0.23119965 -1.4427474 1.452155 -0.069189966

0.bias f4 [512]
000000 10 92 1d bf 75 4f 8b 3e 58 6f 15 3f c2 a3 0b bf
       -0.61551 0.27209058 0.5837302 -0.5454675
000010 2b 44 aa 3e da e9 b7 3f f6 97 42 3f 6f 1e a5 3f
       0.33255133 1.4368241 0.76013124 1.2899913
000020 3e 48 e8 3d d1 18 d2 3e 55 07 29 bf ba 2c 0a 40
       0.11341904 0.41034558 -0.6602681 2.15898
000030 80 91 f8 3c 67 ab 08 3f 50 ad 27 bf 85 dd 09 3e
       0.030342817 0.5338654 -0.6549883 0.13463409
000040 e2 83 c8 bf 9d 18 59 bf 93 1b 20 c0 2f 1a 7d bf
       -1.5665247 -0.8480318 -2.501683 -0.9886808
000050 c5 43 d1 3f cb 55 4f bf a1 9a 92 3e a5 66 e2 3f
       1.6348807 -0.80990285 0.28633597 1.7687575
000060 a8 28 8c 3f d6 7c 5a 3f 13 ec ca 3f 56 84 40 3e
       1.0949907 0.85346735 1.5853294 0.18800482
000070 c2 02 1d bf e3 e0 7e be f6 e7 94 bf 40 0e 6e 3f
       -0.61332333 -0.24890475 -1.1633289 0.92990494
000080 6f 33 a3 3e c3 0c f6 3d e5 ab 25 3f dd f4 1b 3f
       0.31875178 0.12014153 0.64715415 0.60920507
000090 e5 8c b6 3f 43 88 20 40 a6 11 2c bf 21 2a c1 bf
       1.4261748 2.5083168 -0.6721443 -1.5090982
0000a0 c7 85 af 3d 57 ce e1 be 49 92 5e 3e 24 9c 16 3c
       0.08570438 -0.44102737 0.21735491 0.0091925
0000b0 23 fb aa 3d d9 7d 86 bd 65 f5 35 3e 05 7a 5b bf
       0.08348682 -0.06566972 0.17769392 -0.8573306
0000c0 a8 3d 76 bf 08 2e da bc 6b 46 03 3d 70 e1 99 bf
       -0.9618783 -0.026633278 0.032049578 -1.2021923
0000d0 82 e4 34 3e e5 1b c6 be ff 5f 98 bf 46 fe 9d 3e
       0.17665294 -0.38693157 -1.1904296 0.30858058
0000e0 3f d0 f7 3e 4b 18 e9 be d8 1f a8 3f 6c 99 1a 3f
       0.48401067 -0.45526347 1.3134718 0.60390353
0000f0 58 6a a9 be c2 45 d2 be 9d a9 ae 3f c5 49 83 3e
       -0.33088946 -0.41068846 1.3645512 0.2564222
000100 34 73 33 3e f8 11 7d 3f 87 66 10 c0 eb bb 89 3e
       0.17524415 0.98855543 -2.2562578 0.26901183
000110 da d0 f9 3f 18 a1 64 3f d3 c3 1b 3d 9a 7b 4b 3e
       1.9516861 0.8930831 0.03802855 0.19871369
000120 18 05 c3 be 81 42 cb 3e 2d d3 61 3f 2a c2 3e bf
       -0.38089824 0.39699176 0.88212854 -0.7451502
000130 e8 76 af 3e e7 2a b8 3f ec 1c 83 3f 2b f7 ac bd
       0.34270406 1.4388093 1.0243201 -0.08445581
000140 6c 06 3f bf 78 8f 70 3f 33 39 28 3d 89 4d 0e 3f
       -0.74619174 0.93968916 0.041070174 0.5558706
000150 07 9e fa bd 72 57 bd 3f 8f 59 8e bd c2 55 32 bf
       -0.122371726 1.4792311 -0.06950676 -0.69662106
000160 9b ca 71 3f 9e 47 ab bf f2 0b 01 3f cb f5 05 c0
       0.94449776 -1.3381231 0.5040885 -2.093127
000170 1d 9e a0 3e f7 f2 88 3f ce 51 11 3b 1a 7b 8f 3d
       0.3137063 1.0699147 0.0022174004 0.07005902
000180 0a 95 ae 3f ff 27 37 3f 61 12 b1 bb 48 9e 6e bf
       1.3639233 0.71545404 -0.0054038023 -0.9321027
000190 c3 d0 07 bf 84 2b f1 3e 25 10 2f 3f 71 af 9a 3f
       -0.5305292 0.47103512 0.6838401 1.208479
0001a0 1c 9f 15 3e 72 cd 92 bd 89 0d 55 bf 4b 8e 6f 3f
       0.14611477 -0.07168092 -0.8322378 0.93576497
0001b0 2c f8 a8 3e 31 83 2a 3f 99 8a c6 3f 97 25 11 3d
       0.3300184 0.6660643 1.5511047 0.03543624
0001c0 4a de 00 40 b4 c0 27 3e dd d7 00 c0 11 fe a2 3d
       2.0135674 0.16382104 -2.0131752 0.079586156
0001d0 85 3c 3b 40 e4 fc 9a 3f 21 3d 87 bd 7b 61 38 bf
       2.9255688 1.2108426 -0.06603456 -0.72023743
0001e0 d6 ff 90 be 11 1f 9b 3f ea bc 37 3f 47 20 82 bf
       -0.28320187 1.2118856 0.71772635 -1.01661
0001f0 cc 9a c2 3d 46 fc 1e bf 20 67 e4 3d 5e 1d cc bf
       0.095021814 -0.6210369 0.11152482 -1.5946462
000200 7f 79 37 be 06 66 ab be c7 05 2a bf d0 78 15 3f
       -0.17917441 -0.33476275 -0.66415066 0.5838747
000210 33 b9 6c 3e 68 9b 9e bf 1f c9 70 3f 50 9d f4 bf
       0.23117523 -1.2391176 0.94056886 -1.9110508
000220 4d e4 63 3e 28 dc a6 bf 89 4b 42 bf 39 55 c5 3f
       0.22255059 -1.3035936 -0.7589651 1.5416633
000230 62 59 f6 be d0 e0 e4 bf 43 20 6a 40 2c 77 32 3f
       -0.4811507 -1.7881107 3.658219 0.6971309
000240 b6 df a1 3f 78 30 a8 bf d5 65 fb 3e ff 1c 07 c0
       1.2646396 -1.3139791 0.4910113 -2.1111448
000250 70 e4 8a 3f ad ba a7 3f 11 76 69 3f e4 e2 47 be
       1.0850964 1.3103844 0.9119578 -0.19520146
000260 37 31 c9 be 5c 0c 97 3d c8 72 84 3f b4 3c 62 bf
       -0.3929536 0.07375404 1.0347528 -0.88373876
000270 67 12 ae 3f f4 5e 35 3f 3d be 61 3f 44 6a f3 3f
       1.3599366 0.7084801 0.88180906 1.9016805
000280 82 6c 11 3e b0 41 e5 be aa a0 d1 bf a7 13 45 bf
       0.14201549 -0.44776678 -1.6377156 -0.7698311
000290 78 6d ba bf 52 98 03 40 76 de 36 3f ec ae 83 be
       -1.4564657 2.056172 0.714332 -0.25719392
0002a0 85 10 01 be 86 6d ea bf 22 5d 0a bf f9 05 6f 3d
       -0.12603958 -1.8314674 -0.5404836 0.058355305
0002b0 43 f4 96 be d2 ab 61 3c f7 02 7b 3f 12 a6 44 3f
       -0.29483232 0.013773875 0.980514 0.76815903
0002c0 a6 d7 21 3e c5 44 09 c0 db 2a 7d 3f 1d da 20 bf
       0.1580492 -2.1448224 0.9889352 -0.62832814
0002d0 ec fc 38 3f 74 1b b5 3f 87 38 bd be 21 c6 ce 3f
       0.7226093 1.4149003 -0.3695719 1.6154214
0002e0 28 fa b2 3f b0 fb d8 3f 6f 0d 2a bf a3 1b 97 3c
       1.3982592 1.6951809 -0.6642675 0.018445795
0002f0 d4 25 52 3f 57 bb 36 40 99 76 e3 be 34 6d 75 bf
       0.8208897 2.8551843 -0.4442642 -0.95869756
000300 66 1b d3 3d e4 05 16 c0 a9 42 12 bf 88 82 73 3e
       0.1030796 -2.3441095 -0.57132965 0.23780262
000310 2b f4 e7 bf f6 3b 12 3e 31 d5 bc be 01 62 89 3f
       -1.8121389 0.14280686 -0.36881402 1.0733033
000320 58 47 8f bf 5b 68 69 3e 20 90 9f be c1 2d be bd
       -1.1193647 0.22793715 -0.31164646 -0.092860706
000330 8a a5 b1 3f 4e 95 77 3e 88 fc ec 3d a1 03 7e 3e
       1.3878644 0.24178049 0.11571604 0.24806072
000340 2c a5 33 be 5c 2b f5 bd ce 7c f9 bf 81 c8 b8 3e
       -0.17543477 -0.11971161 -1.9491212 0.36090472
000350 ab 61 00 bf 1d 5a 28 c0 c2 b9 1a 3f 18 ec a0 3f
       -0.5014903 -2.6305 0.60439694 1.257205
000360 47 b9 86 3f f4 ba dd 3f 34 47 85 3f c4 fd 49 bf
       1.0525292 1.7322679 1.0412354 -0.7890284
000370 96 12 79 3f 51 ff f6 3f 63 cf b5 3f f7 2f 69 3f
       0.97293985 1.9296666 1.4203914 0.91088814
000380 99 03 9d 3f e0 09 3a bf 9c 29 43 bf af b6 b1 3f
       1.2266723 -0.7267132 -0.76235366 1.3883876
000390 ad 95 02 40 f8 0b 21 3f 05 b2 36 c0 1b 1d fd 3e
       2.0403855 0.6290889 -2.8546154 0.49436268
0003a0 5e e2 78 3c 2b 84 75 3f 99 94 cf 3d 22 18 99 3e
       0.015190689 0.959048 0.10135765 0.29901224
0003b0 3b 7d 20 3f e2 30 4b 3f 2a 9e 20 c0 64 b8 79 3e
       0.62691087 0.79371464 -2.5096536 0.24386746
0003c0 c2 8f a7 3e 44 da f3 bd b5 ba ca bd 77 4a 7c bf
       0.32726866 -0.11906865 -0.09898893 -0.98551124
0003d0 69 9d 46 bf 1e a0 91 3d 7c 58 ce be 62 03 04 bf
       -0.7758394 0.07110618 -0.40301883 -0.5156766
0003e0 48 80 66 bf 6c 8a 49 bf 3f 9e 6f 3f b7 d6 93 3f
       -0.9003949 -0.7872684 0.9360084 1.1549901
0003f0 de 1e 6f bf 6a 82 c5 bd a6 5b c4 be 01 91 1e 40
       -0.93406475 -0.09644015 -0.38351172 2.4776003

1.weight f4 [512]
000000 9e 16 29 3f 9b 1c 8f 3e 6a ff 00 3f f2 ba e8 3e
       0.66050136 0.27951512 0.5038973 0.45455128
000010 ac 81 91 3f 3a 70 97 3f 89 d8 19 3f 94 55 36 3f
       1.1367698 1.1831124 0.6009603 0.7122433
000020 95 08 a9 3f b1 98 39 3f 4f d3 a6 3f 69 7c 76 3f
       1.3205744 0.72498614 1.3033236 0.96283585
000030 05 37 63 3e ef 39 4e 3f 6b f0 91 3f a8 b9 32 3f
       0.22188957 0.8055715 1.1401495 0.6981454
000040 67 7e 93 3f 9b d1 33 3f 52 90 85 3e 79 5e 9b 3f
       1.152295 0.7024171 0.2608667 1.2138206
000050 93 c8 01 3f 9a 92 23 3f 61 92 05 3f 01 5d 55 3f
       0.50696677 0.6389557 0.5217648 0.8334504
000060 60 7e 8d 3f a9 79 ad 3f 4c f6 7b 3f 76 04 4f 3c
       1.1054192 1.3552753 0.98422694 0.012635341
000070 60 2d 44 3f 1a bc 90 3f 45 f8 7d 3f ce fc a8 3f
       0.76631737 1.1307404 0.99206954 1.320215
000080 13 7c 8f 3f 9c bf 8f 3f e9 3a 28 3f eb 23 55 3f
       1.120974 1.123035 0.6571489 0.8325793
000090 25 5e 9b 3f 2e 3e 40 3f fe e2 21 3f 98 cd 92 3f
       1.2138106 0.7509488 0.6323699 1.1468992
0000a0 80 87 9c 3f bb 79 c2 3f f2 2d 8b 3f 54 47 8c 3f
       1.2228851 1.5193399 1.0873396 1.0959268
0000b0 72 43 7f 3f f4 9c 6d 3f 72 e8 88 3f 2c 7a 81 3f
       0.9971229 0.92817616 1.0695937 1.0115409
0000c0 c2 14 c3 3f af dc 68 3f 07 0d 96 3f a8 7b 79 3f
       1.524071 0.90961736 1.1722726 0.9745431
0000d0 be 3c dc 3d 33 77 0d 3f 74 18 04 3f 79 74 c4 3f
       0.10753773 0.5526001 0.5159981 1.5348045
0000e0 e7 80 80 3f 8f 67 87 3f 12 25 92 3f 7b 15 90 3f
       1.0039338 1.0578479 1.1417563 1.1256555
0000f0 3d bc 86 3f 16 3c 8e 3e 0e a9 93 3f 0b b1 93 3f
       1.0526196 0.27780217 1.1535966 1.1538404
000100 22 af 1b 3d 57 ef b7 3f f5 23 26 3f ac 9f 84 3f
       0.038008817 1.4369916 0.64898616 1.0361228
000110 88 66 96 3f bc 8c 40 3f 0a cb 84 bc 22 0f c3 3f
       1.175004 0.75214744 -0.016210098 1.5238993
000120 2a b6 a3 3f a6 86 83 3f 6d 77 98 3f de 8f 22 3f
       1.2789967 1.0275466 1.1911446 0.63500774
000130 0e 42 91 3f df 37 21 3f 04 ee a6 3f 45 8c 9f 3f
       1.1348283 0.6297588 1.3041387 1.2464682
000140 8c bb b0 3f 39 6b 87 3f 80 8b 8a 3f a6 59 6b 3f
       1.3807235 1.0579597 1.0823822 0.9193367
000150 06 93 4d 3e d5 a2 00 3f 1d 3d 96 3f d8 56 4c 3f
       0.20075616 0.5024846 1.17374 0.79820013
000160 fa f1 aa 3f 54 cc 46 3f af b0 a5 3f 48 7e 86 3f
       1.3355095 0.7765553 1.2944545 1.0507288
000170 be 64 75 3f 4e 4a bb 3f 35 93 32 3f 3c c8 1b 3f
       0.95856845 1.4632051 0.6975587 0.6085241
000180 d8 5f 47 3f f0 2f 24 3f 83 2e 0a 3f b4 51 f1 3e
       0.7788062 0.64135647 0.5397722 0.47132647
000190 f3 04 a7 3f af 38 a9 3f 88 67 a4 3f 3b 37 45 3f
       1.3048385 1.3220423 1.2844095 0.770374
0001a0 56 7a 3c 3f 00 97 57 3f 6b 6b 8d 3f 8c 7d 8e 3f
       0.7362417 0.8421478 1.1048406 1.1132064
0001b0 97 d1 10 3f 25 0e 59 3f 34 ac 5e 3f 11 bc 94 3c
       0.5656981 0.8478721 0.8698151 0.018156083
0001c0 f5 a5 79 3f a0 c9 09 3f 45 30 a3 3f b7 a9 4b 3f
       0.97518855 0.5382328 1.2749106 0.7955584
0001d0 8f fc a9 3f e1 72 13 3f 03 46 83 3f fb 8c 82 3f
       1.32802 0.57597166 1.0255741 1.0199274
0001e0 91 c9 87 3f 19 6e 8c 3f 95 64 d1 3f 98 41 a6 3f
       1.0608388 1.0971099 1.635882 1.2988768
0001f0 54 0f 78 3f e5 3a 08 3f 14 3b 77 3e 56 03 88 3f
       0.9689839 0.53214866 0.2414363 1.0626018
000200 91 e6 9d 3f 39 a0 83 3f db 91 18 3f 28 7d 04 3f
       1.2335988 1.0283271 0.5959756 0.51753473
000210 09 5a a2 3f 41 5e b0 3f 3e f8 d2 3f 59 c9 9b 3f
       1.2683727 1.3778764 1.6482008 1.2170821
000220 52 f2 96 3f 15 bc a3 3f 01 25 20 3f a8 6d a2 3f
       1.17927 1.2791773 0.62556463 1.2689714
000230 44 8b 1b 3f c0 8c ec 3e 2f 63 22 3f 21 d2 50 3f
       0.6075938 0.46201134 0.6343259 0.8157063
000240 d2 aa 38 3f d1 7b 63 3f 11 31 5a 3f e5 e0 83 3f
       0.7213565 0.88860804 0.8523112 1.0303007
000250 70 67 ab 3e 63 40 a2 3e 4e 04 af 3f 3f 42 85 3f
       0.33477354 0.31689748 1.3673189 1.0410842
000260 03 e1 b7 3f 3a a8 6f 3d 8e 83 96 3f 91 41 92 3f
       1.4365543 0.058510043 1.1758897 1.1426259
000270 a9 6f ea 3e e9 b8 77 3f 9c ae 14 3f 71 72 08 3f
       0.45788315 0.96766526 0.5807893 0.53299624
000280 36 a5 6a 3e ec bd a9 3e 17 2e 25 3f fa 68 9c 3f
       0.22914585 0.3315271 0.6452345 1.2219536
000290 61 bf 79 3f b6 7c 95 3f 30 b0 82 3f 39 43 90 3f
       0.97557646 1.1678684 1.0210018 1.1270515
0002a0 3b ca e8 3e ac f3 7b 3f bc 85 7f 3f 32 a2 90 3f
       0.4546679 0.9841869 0.9981344 1.1299498
0002b0 10 a9 d6 3c 9a bf 91 3f ad 64 ae 3e df 96 43 3f
       0.026203662 1.1386597 0.34061185 0.76402086
0002c0 0a f7 2a 3f fc ca 2b 3f 29 ff bc 3f f6 6a 87 3f
       0.667832 0.67106605 1.4765369 1.0579517
0002d0 47 4f 08 3f 46 cb a2 3f 28 f9 c5 3f a7 45 8e 3f
       0.5324597 1.2718284 1.5466661 1.1115006
0002e0 c4 e1 30 3f 0b 5b 73 3f 4f 96 3a 3f fc f6 1c 3f
       0.6909449 0.95060796 0.728856 0.6131437
0002f0 37 f5 60 3f dc 0c fd 3e 05 7c 2f 3f a1 72 8b 3f
       0.8787417 0.49423873 0.68548614 1.0894357
000300 ae 8b 22 bc 4d d0 8a 3f c6 7f a5 3f 6a a3 13 3e
       -0.009920998 1.0844818 1.2929618 0.14417806
000310 5c 35 69 3f 9a 54 b9 3e e1 72 52 3f c8 3c 86 3f
       0.91097045 0.36197358 0.8220654 1.0487299
000320 86 2f 99 3f 6b 5b 64 3f f6 59 46 3e b6 1b 8c 3f
       1.1967628 0.8920199 0.19370255 1.0945957
000330 3e 7e 3c 3f e5 7b 48 3f 18 a0 a5 3e ce 3a c6 3d
       0.7363013 0.7831405 0.32348704 0.09679185
000340 6c 91 6c 3d 7e de 75 3f f6 9f 99 3f 37 1c 85 3f
       0.057755873 0.9604262 1.2001941 1.0399235
000350 0b 46 77 3f 1d a8 b9 3f 2d e6 08 3f cb 7a 81 3f
       0.9659125 1.4504429 0.5347622 1.0115598
000360 82 a6 08 3f 96 f6 a3 3f 15 2d b6 3f 44 cc 96 3f
       0.5337907 1.2809627 1.4232508 1.1781087
000370 42 fb 98 3f 04 43 ad 3f 8a 73 25 3f 31 85 77 3f
       1.1951678 1.3536077 0.64629424 0.9668761
000380 eb 97 79 3f 5f 75 ae 3f 30 3c 8b 3e 64 5f 6d 3f
       0.97497433 1.3629569 0.27194357 0.9272368
000390 d4 fa 82 3f de a1 81 3f c1 47 0a 3f c1 eb 51 3f
       1.0232797 1.0127523 0.5401574 0.82000357
0003a0 85 68 1c 3f c8 6e e3 3e 75 35 f2 3b 27 0d 24 3f
       0.61096984 0.44420457 0.0073916265 0.6408257
0003b0 3d f8 a3 3e 12 be b4 3f a3 80 b7 3f b9 8f 43 3f
       0.32025328 1.4120505 1.4336132 0.7639118
0003c0 29 a5 66 3f 99 ec 76 3e f8 cc 50 3f b9 f1 7a 3f
       0.90095764 0.24113692 0.8156276 0.9802509
0003d0 80 bf 17 3f ef f8 4b 3f 4b a6 2c 3f 7d 22 04 3f
       0.5927658 0.7967672 0.6744124 0.51615125
0003e0 3f 67 62 3f 75 19 78 3f 7e b4 2d 3f 84 58 d1 3e
       0.8843879 0.96913844 0.67853534 0.40887845
0003f0 ee 24 52 3f d2 1c a7 3f 4a 4d 01 3f 3d 10 75 3f
       0.820876 1.305567 0.5050856 0.957279

1.bias f4 [512]
000000 90 d7 07 bf 4d 61 12 bf bf 96 a2 be fa 9d bc be
       -0.530633 -0.5717972 -0.31755635 -0.36839277
000010 33 a2 cb bf 54 6b ed bf bf de 8a be 22 55 09 bf
       -1.5908874 -1.8548379 -0.27123067 -0.5364553
000020 b9 94 99 bf ce 33 03 bf 04 b1 bf bf ce d6 98 bf
       -1.1998512 -0.5125092 -1.4975896 -1.1940553
000030 06 f1 de be 88 59 55 bf 25 6b a7 bf de 5a 32 bf
       -0.4354326 -0.8333974 -1.3079573 -0.696699
000040 32 2a dd bf b3 54 de be 19 0e c2 bd d5 86 8a bf
       -1.7278502 -0.43423995 -0.09475345 -1.0822397
000050 81 98 a4 be 79 76 fa be de a9 a3 be d6 4d 68 bf
       -0.321476 -0.48918512 -0.31965536 -0.9074377
000060 f6 9a d5 bf f8 c1 bb bf db c7 8f bf 12 80 0b bd
       -1.6687915 -1.466857 -1.1232866 -0.034057684
000070 fa 53 13 bf ad ff 88 bf 6c dc 86 bf 09 79 ba bf
       -0.57550013 -1.0703026 -1.0536017 -1.4568187
000080 4b 9c 30 bf 51 b1 b3 bf 2e 94 07 bf dd 5a e7 be
       -0.68988484 -1.4038488 -0.5296048 -0.4518651
000090 0e bf cd bf e5 80 0f bf 31 dc 17 bf 32 f3 a9 bf
       -1.607393 -0.5605605 -0.5932036 -1.3277342
0000a0 38 54 d6 bf 43 9d f9 bf 7f 74 80 bf 83 02 a2 bf
       -1.6744452 -1.9501117 -1.0035552 -1.2657017
0000b0 cd 06 9c bf 79 9f 87 bf 71 a1 d0 bf 09 87 a9 bf
       -1.2189575 -1.0595542 -1.6299268 -1.3244334
0000c0 9e 2a c6 bf 51 b5 83 bf af c7 7f bf 60 88 b0 bf
       -1.5481756 -1.0289708 -0.9991407 -1.3791618
0000d0 d3 45 50 be 99 18 01 bf 3c a1 a3 be 20 cd d4 bf
       -0.20339136 -0.5042816 -0.3195895 -1.6625099
0000e0 55 c1 89 bf 62 55 81 bf 12 0a ac bf 81 47 85 bf
       -1.0762125 -1.0104182 -1.3440573 -1.0412446
0000f0 6e cb b7 bf 13 c8 b6 bd 80 9b c6 bf 3b ae a3 bf
       -1.4358957 -0.0892488 -1.5516205 -1.2787546
000100 fa f0 cb bd 55 85 d5 bf 02 61 12 bf 17 75 9f bf
       -0.09958072 -1.6681315 -0.5717927 -1.2457608
000110 65 b5 71 bf 0f 48 17 bf 64 a2 24 bd 60 30 d9 bf
       -0.9441741 -0.5909433 -0.04019393 -1.6967888
000120 fc 75 db bf 42 1c 9e bf 0c 96 02 c0 90 7c cc be
       -1.7145381 -1.2352374 -2.0404081 -0.39938784
000130 04 54 bd bf 75 0b b3 be f7 9d cc bf f4 19 dc bf
       -1.4791265 -0.3496968 -1.5985707 -1.719542
000140 93 ef b1 bf 20 06 c7 bf 53 e7 cd bf 8a bd 48 bf
       -1.3901237 -1.5548744 -1.608622 -0.78414214
000150 6d 58 e6 be 05 a8 a7 be 45 04 c4 bf 01 5c 5b bf
       -0.4498934 -0.32745376 -1.5313803 -0.8568726
000160 c0 c8 73 bf 27 b0 2b bf 20 91 e7 bf b9 4b a8 bf
       -0.95228195 -0.6706566 -1.8091164 -1.3148109
000170 1b ab 7d bf bd bf b8 bf af f7 f4 be 03 3d 2d bf
       -0.9908921 -1.4433514 -0.47845218 -0.6767122
000180 b3 85 38 bf 2c 8f 8e be e0 a6 f9 be f3 dd e0 be
       -0.7207901 -0.27843606 -0.48760128 -0.43919334
000190 69 12 93 bf 3b 7a a6 bf f6 b2 cc bf 3b f1 4e bf
       -1.1489993 -1.3006052 -1.5992115 -0.8083684
0001a0 a6 c5 13 bf f1 65 6d bf 72 ec 5d bf 5f 16 6b bf
       -0.5772346 -0.92733675 -0.8668891 -0.9183101
0001b0 c5 6c e1 be 46 e6 60 bf 77 e1 46 bf 1c 16 c8 bd
       -0.44028297 -0.8785137 -0.7768778 -0.09769842
0001c0 ad 73 93 bf 17 a9 de be 3a 1a 98 bf e0 59 8c bf
       -1.1519676 -0.4348838 -1.1883004 -1.0964928
0001d0 bf ea 00 c0 98 d9 87 be fe e6 99 bf 82 d7 97 bf
       -2.0143278 -0.26533198 -1.2023618 -1.1862643
0001e0 d5 1d 34 bf ab af b2 bf 0c 61 e4 bf 34 e4 83 bf
       -0.7035802 -1.395986 -1.7842116 -1.0304017
0001f0 54 5f 59 bf 01 87 de be 39 f7 f6 be ae 9e 43 bf
       -0.84911084 -0.43462375 -0.4823549 -0.76414
000200 a6 1c da bf 7e 3b 99 bf 43 7a 07 bf e6 af 4b be
       -1.7039993 -1.197128 -0.5292093 -0.19891319
000210 88 a5 d4 bf 6e 00 de bf 65 da dd bf f3 9b dc bf
       -1.6613016 -1.7343881 -1.7332274 -1.7235092
000220 c0 20 b5 bf 68 20 8e bf c8 2d da be c2 eb ea bf
       -1.415062 -1.110364 -0.42613053 -1.8353198
000230 49 6f f6 be f1 c9 99 be 36 2b 20 bf f4 54 65 bf
       -0.4813178 -0.30036882 -0.62565935 -0.89582753
000240 c6 45 eb be bb 4e 91 bf ef 56 74 bf f2 6f 9d bf
       -0.4595167 -1.1352152 -0.9544515 -1.2299788
000250 7b 57 88 be 08 38 80 be bf be 8f bf 94 db a6 bf
       -0.26629242 -0.25042748 -1.1230086 -1.303576
000260 6b 1e de bf 8b b2 cb bd 9c b5 d2 bf 4b c3 32 bf
       -1.7353033 -0.09946164 -1.6461673 -0.69829243
000270 de 7b d4 be 85 ce 8f bf 63 c9 15 bf 81 37 1a bf
       -0.41500753 -1.12349 -0.58510417 -0.6024094
000280 94 5b 09 bf 00 c8 ab be 2f 67 14 bf ef 77 9f bf
       -0.5365536 -0.33551025 -0.57969946 -1.2458476
000290 b8 97 8a bf 67 ad 54 bf d6 3e 7f bf 52 fd b9 bf
       -1.0827551 -0.8307709 -0.99705255 -1.4530432
0002a0 18 c9 60 bf 3f 5c 48 bf 4f 86 84 bf 48 a5 c1 bf
       -0.87806845 -0.78265756 -1.0353488 -1.5128565
0002b0 b0 3a 84 bd f0 7d b8 bf 5d 4d 80 be 3e 0d 61 bf
       -0.06456506 -1.4413433 -0.25059023 -0.8791083
0002c0 14 30 39 bf 21 76 1e bf f9 56 dd bf 28 b8 9f bf
       -0.72338986 -0.61899 -1.7292167 -1.2478075
0002d0 37 d5 cd be 66 e8 e4 bf 83 c8 c3 bf ee 8a 95 bf
       -0.40201733 -1.7883422 -1.5295566 -1.1683023
0002e0 1a 48 0d bf 52 ac 82 bf 57 e2 0e bf fa 76 21 bf
       -0.55188143 -1.0208838 -0.5581412 -0.6307217
0002f0 3e c4 83 bf 17 0f b3 be db 27 97 be 0d 64 80 bf
       -1.0294263 -0.3497245 -0.29522595 -1.0030533
000300 eb b2 a5 bd f2 ef d0 bf fa d5 bb bf e3 09 af be
       -0.080907665 -1.6323225 -1.4674675 -0.3418723
000310 0a 05 3e bf 11 77 4a be c7 10 3f bf 7a 55 9d bf
       -0.7422644 -0.19771983 -0.74634975 -1.229171
000320 e1 ed 96 bf 1b fd 5a bf 5b 88 ca be c8 18 d2 bf
       -1.1791345 -0.8554246 -0.39557156 -1.6413813
000330 fc f0 10 bf c1 dc 7a bf 26 ca db bd 41 4f 75 be
       -0.5661771 -0.97993094 -0.10731916 -0.23956014
000340 ae 4b 14 be 31 0e 88 bf 14 2a 49 bf b9 c4 b1 bf
       -0.14481995 -1.0629331 -0.7857983 -1.388816
000350 23 e1 93 bf 1a a1 a1 bf a1 f1 93 be 92 0d 60 bf
       -1.1553081 -1.2627289 -0.28895286 -0.87520707
000360 62 9f 94 be 16 db 5f bf d2 a1 02 c0 aa 40 b1 bf
       -0.2902785 -0.87443674 -2.0411267 -1.3847859
000370 2d b6 b2 bf e1 62 d4 bf f1 fa d8 be c4 ae 78 bf
       -1.3961846 -1.6592675 -0.42378953 -0.9714167
000380 34 17 4f bf 22 45 de bf 98 d8 37 bf 05 d3 4d bf
       -0.8089478 -1.7364848 -0.7181487 -0.80400115
000390 48 2a 47 bf 7e 1a 9d bf 44 ad db be 89 26 77 bf
       -0.7779889 -1.227371 -0.4290563 -0.96543175
0003a0 fc fa f9 be 1e a5 1e be 9b 57 05 bd b7 5a f1 be
       -0.48824298 -0.15492675 -0.03255425 -0.47139522
0003b0 45 1c e6 bd 92 e8 ad bf ca 5b c1 bf ba a2 30 bf
       -0.11235861 -1.35866 -1.5106137 -0.689983
0003c0 75 34 7c bf d2 66 0d bf 2c 21 6a bf 81 06 2d bf
       -0.98517543 -0.55235016 -0.91456866 -0.6758805
0003d0 fa 3f 60 be d9 7f 7f bf d9 07 eb be 9d fe 05 bf
       -0.21899405 -0.99804455 -0.45904425 -0.52341634
0003e0 c4 6f 95 bf d7 fd 7e bf c9 14 ec be 46 3f a7 be
       -1.1674733 -0.9960608 -0.46109608 -0.3266546
0003f0 aa 76 8d bf a4 63 01 c0 e8 92 47 be 08 36 58 bf
       -1.1051838 -2.0217066 -0.19489634 -0.84457445

1.running_mean f4 [512]
000000 13 a1 1c bf 17 59 8b 3e c8 4a 15 3f 8c fa 0f bf
       -0.6118328 0.27216408 0.5831723 -0.5624168
000010 eb f1 b0 3e dd da b6 3f 4e d2 45 3f 75 52 a2 3f
       0.3455957 1.4285542 0.77274024 1.2681414
000020 3b fa bf 3d e7 01 d4 3e 0e fd 27 bf ee 27 0a 40
       0.093738995 0.414077 -0.65620506 2.158687
000030 a8 a2 f8 3c 32 4a 01 3f 05 ec 26 bf 97 06 09 3e
       0.030350998 0.5050384 -0.6520389 0.1338142
000040 04 61 c9 bf 63 13 57 bf c7 ff 1f c0 d4 93 79 bf
       -1.5732732 -0.84013957 -2.4999864 -0.9749119
000050 64 4f d0 3f 25 d1 4e bf 28 57 95 3e ba fb e0 3f
       1.6274228 -0.8078788 0.29168057 1.7576821
000060 7a 50 8c 3f 59 90 63 3f 5a ac c8 3f 9f 91 40 3e
       1.096206 0.8889213 1.5677598 0.1880555
000070 3b f6 15 bf 4e 30 77 be ed af 97 bf a7 81 67 3f
       -0.5857884 -0.2413952 -1.1850563 0.9043221
000080 3d 85 a9 3e 7f 0d dd 3d 57 1d 23 3f be c4 19 3f
       0.33109465 0.1079359 0.63716644 0.6006583
000090 d8 c9 b5 3f 51 7e 20 40 e6 3e 2b bf dd 41 bd bf
       1.4202223 2.5077097 -0.6689285 -1.4785725
0000a0 b9 3f 9d 3d 1a ea da be 48 fd 51 3e bf 62 d1 3b
       0.0767817 -0.4275673 0.20506775 0.0063899453
0000b0 5b 21 50 3d a5 a7 78 bd ae a2 3c 3e 28 af 51 bf
       0.05081306 -0.060706753 0.18421432 -0.8190789
0000c0 8b 6e 73 bf 48 d7 64 bd d4 b9 f2 3c c6 78 9b bf
       -0.9509055 -0.05586937 0.029629625 -1.2146232
0000d0 00 f1 34 3e 17 a9 c6 be ba 3f 95 bf 35 18 9b 3e
       0.17670059 -0.3880088 -1.1660073 0.30291906
0000e0 bc 81 00 3f 8b 5f e6 be bd bf a8 3f 0c 24 1b 3f
       0.5019796 -0.44994769 1.3183514 0.6060188
0000f0 02 51 af be 97 89 c3 be 67 22 af 3f c6 a7 85 3e
       -0.34241492 -0.3819091 1.3682374 0.26104563
000100 9b 7f 33 3e 91 4b 78 3f 09 5b 0f c0 41 10 8f 3e
       0.17529146 0.96990305 -2.2399313 0.27942088
000110 01 cf f7 3f c1 88 65 3f 94 ce 1b 3d 9a 1a 44 3e
       1.9360048 0.89661795 0.038038805 0.19150773
000120 0e 98 c2 be e3 2e c7 3e 19 09 65 3f ec 9f 40 bf
       -0.38006634 0.3890296 0.89467007 -0.7524402
000130 e8 39 b7 3e 5b 56 b6 3f e2 28 84 3f 2b de bf bd
       0.35786366 1.4245104 1.0324976 -0.09368547
000140 d6 e0 39 bf 3b c2 70 3f f7 aa 0c 3d e1 17 0d 3f
       -0.726087 0.9404637 0.034342732 0.5511456
000150 54 af fa bd 38 f4 bb 3f 3f 61 51 bd e6 9d 30 bf
       -0.122404724 1.4683905 -0.05111813 -0.68990934
000160 b3 1e 71 3f 25 62 a8 bf 42 0b fd 3e 62 45 07 c0
       0.9418747 -1.3154951 0.49422652 -2.1136098
000170 69 30 a4 3e b0 90 8b 3f b4 fb 20 bc d9 9b 7d 3d
       0.32068184 1.090353 -0.009825636 0.061916206
000180 ff 35 ad 3f 91 c8 39 3f 2f ab 34 bb 76 a5 69 bf
       1.3532103 0.72571665 -0.0027567854 -0.912681
000190 c8 36 08 bf 0a 6c f6 3e a3 14 32 3f d2 00 98 3f
       -0.5320859 0.48129302 0.6956274 1.187525
0001a0 a3 25 18 3e a4 27 d5 bd f1 90 51 bf 70 d7 72 3f
       0.14858107 -0.104079515 -0.8186179 0.9485998
0001b0 9b 91 b0 3e 5d 2a 2a 3f be eb c6 3f 97 2f 11 3d
       0.34486088 0.6647089 1.5540693 0.035445776
0001c0 22 72 00 40 bc 78 16 3e 06 62 fe bf cd 04 8b 3d
       2.006966 0.14694494 -1.9873664 0.06788025
0001d0 ed df 3b 40 62 18 98 3f 5a 9b 93 bd b4 37 32 bf
       2.9355423 1.1882441 -0.07207365 -0.69616246
0001e0 2d 8b 88 be da d8 9a 3f 78 4c 37 3f 3c e1 83 bf
       -0.26668683 1.2097428 0.7160106 -1.0303111
0001f0 0b 51 ca 3d 37 1d 17 bf e5 76 e4 3d 9f 25 c9 bf
       0.09878739 -0.59028953 0.1115549 -1.5714606
000200 c8 13 29 be 8b a4 af be 3c 43 30 bf ae 48 18 3f
       -0.16511452 -0.34305224 -0.6885259 0.594859
000210 58 b4 6d 3e b3 3f 9d bf 59 1c 70 3f b4 e1 f3 bf
       0.23213327 -1.2285064 0.93793255 -1.9053254
000220 66 33 4f 3e 4f c6 a8 bf 4b 0f 41 bf 79 09 c6 3f
       0.2023445 -1.3185519 -0.7541396 1.5471641
000230 e5 f8 f4 be 83 49 e5 bf 12 6a 6a 40 da 6b 33 3f
       -0.4784614 -1.7913059 3.662724 0.70086443
000240 f0 88 a4 3f dc d6 a9 bf 8e 85 f5 3e 43 f6 06 c0
       1.285429 -1.3268695 0.47953457 -2.1087806
000250 2c 4b 8b 3f a2 1f a4 3f 40 ec 6d 3f ee b4 46 be
       1.0882316 1.2822154 0.92938614 -0.19404957
000260 dc a7 cb be cc 16 97 3d 0a ce 82 3f dd 8d 60 bf
       -0.39776504 0.07377395 1.0219128 -0.87716466
000270 5d 77 ad 3f 2b 5c 32 3f 09 40 5f 3f 1c a8 f3 3f
       1.3552052 0.6967189 0.87207085 1.9035678
000280 8f 76 11 3e b6 d9 f3 be 46 e5 d3 bf 04 9f 46 bf
       0.14205383 -0.47627038 -1.6554344 -0.7758639
000290 c1 23 ba bf 46 3c 05 40 8f fd 34 3f 92 a3 87 be
       -1.4542161 2.0818038 0.706994 -0.26491982
0002a0 74 19 01 be c7 2f ea bf 43 dd 0a bf 7d 8f 94 3d
       -0.12607366 -1.829583 -0.5424387 0.07253931
0002b0 b3 fe 96 be a5 31 05 3c 34 e0 7b 3f 1e 80 46 3f
       -0.29491195 0.008129512 0.9838898 0.7753924
0002c0 0b 6a 22 3e c4 00 0a c0 d4 92 7a 3f d9 72 20 bf
       0.15860765 -2.1562967 0.9788029 -0.62675244
0002d0 32 5b 38 3f 6b 03 b7 3f e6 05 bf be 61 0b cd 3f
       0.72014153 1.4297918 -0.37309188 1.6019098
0002e0 44 1c b5 3f 88 7c dc 3f bc ee 28 bf a1 08 ee 3c
       1.4149251 1.7225504 -0.6598928 0.029056849
0002f0 a0 6f 54 3f 7d 87 36 40 63 12 e2 be 09 3e 79 bf
       0.82982826 2.8520195 -0.44154653 -0.97360283
000300 f9 29 d3 3d 7b 43 16 c0 84 48 0f bf 5d 93 73 3e
       0.1031074 -2.3478687 -0.55970025 0.23786683
000310 49 7e e6 bf e4 e4 2b 3e 52 70 cf be b5 5e 88 3f
       -1.8007289 0.16786534 -0.4051538 1.0653902
000320 d2 4e 8e bf be 03 6e 3e 29 9b 9f be 86 6b bb bd
       -1.1117804 0.23243615 -0.31173065 -0.09151368
000330 68 ed b1 3f 96 ac 79 3e f7 1f f1 3d 29 15 7e 3e
       1.3900576 0.24382243 0.11773675 0.2481276
000340 94 b1 33 be c3 4b ea bd fc 0f fa bf 1a fe bc 3e
       -0.1754821 -0.11440232 -1.9536128 0.36912614
000350 47 d1 f7 be 33 96 28 c0 c3 62 1c 3f e9 e3 9e 3f
       -0.48401853 -2.6341674 0.610882 1.2413303
000360 40 c7 85 3f 21 99 dd 3f 50 f2 87 3f 39 0e 4a bf
       1.0451431 1.7312356 1.0620823 -0.7892795
000370 f5 aa 7a 3f 50 c0 f6 3f ca 70 b4 3f db 6d 64 3f
       0.9791711 1.9277439 1.409692 0.89230126
000380 c5 6f 9c 3f 26 3d 37 bf 18 37 43 bf ea 01 b0 3f
       1.2221609 -0.7157768 -0.7625594 1.3750584
000390 2d 31 02 40 0a a0 21 3f a1 69 35 c0 2c da ff 3e
       2.0342515 0.63134825 -2.834572 0.4997114
0003a0 65 8e c0 3c 1e c3 72 3f ee a2 cf 3d 82 8c 93 3e
       0.023505399 0.94828975 0.10138498 0.28818136
0003b0 91 22 1e 3f 0b 37 46 3f 6b 9a 21 c0 21 73 79 3e
       0.61771494 0.7742774 -2.52505 0.24360324
0003c0 ad 6a a2 3e 19 eb f3 bd 7a 5c dc bd 21 3c 81 bf
       0.31722012 -0.11910076 -0.10759826 -1.0096475
0003d0 d7 46 48 bf 41 91 82 3d 60 18 d1 be 15 55 09 bf
       -0.78233093 0.06375361 -0.4083891 -0.5364545
0003e0 d8 ce 67 bf 57 ee 44 bf 75 bc 69 3f 4e 0d 96 3f
       -0.90549994 -0.7692618 0.9130319 1.172281
0003f0 0d 94 6f bf ba 3d b6 bd e0 20 c8 be 2f a1 1d 40
       -0.9358528 -0.08898492 -0.39087582 2.4629629

1.running_var f4 [512]
000000 0e fa 2f 41 d2 96 4e 3f 86 e8 d1 40 c2 70 32 40
       10.9985485 0.80698884 6.559634 2.7881322
000010 ba 20 16 41 64 a7 12 41 53 12 c8 41 09 c4 1c 3f
       9.38299 9.165867 25.008947 0.61236626
000020 58 e2 53 40 1c f7 9e 40 1b d7 2f 41 0b 55 64 41
       3.31069 4.9676647 10.990016 14.270762
000030 01 32 33 3e f4 c9 e0 3d 4d bc f1 40 bf 08 6b 41
       0.17499544 0.109760195 7.554236 14.689635
000040 a6 61 89 41 85 b6 2f 3f 88 a0 be 40 90 d5 83 3f
       17.17268 0.6863788 5.957096 1.0299549
000050 78 be 1a 41 34 c1 cd 40 b8 ad a5 41 4f aa 18 40
       9.671501 6.4298344 20.709824 2.3853948
000060 07 62 92 41 fd 03 62 40 d0 ce 3f 41 1b 1b a6 3e
       18.297865 3.5314934 11.987991 0.32442555
000070 e8 61 69 41 50 6b e7 40 6a 55 39 41 4b 88 a7 40
       14.586403 7.2318497 11.583353 5.2353873
000080 6c a6 cc 40 7e 9b 22 3e 7c da 1b 41 5a bd 1d 41
       6.395315 0.15879628 9.740841 9.858728
000090 5a d6 d5 40 fc 78 6b 41 b0 69 82 40 95 92 cf 40
       6.682416 14.717037 4.0754013 6.4866433
0000a0 d9 c8 79 3e cf 22 72 3f 75 1a 87 40 8c 7b 7c 3f
       0.24393024 0.94584364 4.2219796 0.9862602
0000b0 1a e4 e4 3c 3b 6c 7f 40 31 6c 9d 3e 17 7a 97 40
       0.027940799 3.9909809 0.30746606 4.7336535
0000c0 c3 8f 0c 3f 7c c5 75 41 cf f4 eb 3d 31 2e ad 3f
       0.5490686 15.360714 0.11521303 1.3529721
0000d0 6a 35 26 3e b1 8b 26 41 2c 25 16 41 d0 9d d5 40
       0.16231313 10.409104 9.384075 6.675514
0000e0 e6 86 d7 3e cc b4 c8 40 79 04 20 3f 9a cb 08 42
       0.42095107 6.27207 0.62506825 34.19883
0000f0 52 89 f4 40 24 5a d4 40 63 d4 4e 41 d8 5a 5c 3f
       7.6417627 6.6360035 12.926852 0.86076117
000100 c4 2b 2b 3e 17 f4 dd 3f a2 1d 0e 41 28 ad 91 40
       0.16715914 1.7340115 8.882235 4.552387
000110 67 d5 0a 42 52 17 04 41 d0 35 b5 3e 53 28 67 41
       34.7084 8.255693 0.35392618 14.447345
000120 d6 93 84 40 83 46 c4 40 76 f5 1c 41 6a 67 8e 42
       4.1430464 6.1336074 9.809927 71.20198
000130 45 d1 1f 3e 1c 25 c5 3e d8 ca c8 40 77 5a 20 40
       0.15607174 0.38504875 6.274761 2.5055215
000140 53 e0 b5 41 7c 30 da 3c 5a 03 1c 3d b3 d7 8e 41
       22.734533 0.026634447 0.038089134 17.855322
000150 0a 00 bd 3f 06 c6 08 41 b6 26 51 41 f7 2b 11 41
       1.4765637 8.548346 13.071951 9.073234
000160 9a 34 09 40 2d 8e c8 40 5d 24 64 40 b7 2d 04 41
       2.1438355 6.2673554 3.5647194 8.261161
000170 9a ec c9 40 c6 2b 19 42 3a d6 b2 43 88 d5 b5 41
       6.310132 38.292747 357.67365 22.729263
000180 b8 45 9f 40 e8 95 c3 41 81 eb 06 41 95 22 9c 40
       4.9772606 24.448196 8.432496 4.8792214
000190 80 1f 5d 40 9d df 91 41 65 41 34 41 30 0c 13 41
       3.4550476 18.234186 11.265965 9.190475
0001a0 14 9e 64 41 73 64 10 40 a0 1e 88 3f b7 94 d4 40
       14.288593 2.256131 1.0634346 6.6431537
0001b0 35 ff 89 41 88 35 74 41 42 a0 82 40 3b 0a 1d 3f
       17.249613 15.263069 4.0820627 0.61343735
0001c0 82 71 1b 41 5e 48 aa 41 3a f6 3f 41 cc 90 12 3d
       9.715212 21.285336 11.997614 0.03578262
0001d0 6b 28 42 41 06 60 d4 40 4c a1 eb 40 80 47 84 41
       12.134868 6.6367216 7.3634396 16.534912
0001e0 ba 77 9e 40 3c 82 dc 41 6d e6 c0 41 9f 9b cd 3e
       4.952115 27.563591 24.112513 0.40157792
0001f0 1d fe 6f 41 c9 df c8 40 79 de 36 3f e2 27 09 41
       14.999539 6.2773175 0.71433216 8.572237
000200 95 52 0c 41 96 27 2e 41 59 37 8e 40 94 f1 71 3f
       8.770162 10.884665 4.4442563 0.94509244
000210 88 72 09 3f 16 2d bf 3f 31 63 60 42 c2 6b f9 40
       0.53690386 1.4935634 56.096867 7.794404
000220 33 97 13 40 98 09 87 3f d8 84 94 42 d5 c4 8d 3e
       2.3061035 1.0549803 74.25946 0.27689233
000230 ce 26 d6 40 c6 d8 92 40 42 0c 26 40 91 9f 0a 3e
       6.692237 4.5889616 2.5944982 0.13537432
000240 e1 d9 50 40 e1 46 c5 40 fb 3a 28 41 fc cd be 40
       3.2632983 6.164902 10.5144 5.9626446
000250 95 b2 f6 40 17 dc 2c 40 d9 51 12 40 61 9e 5f 40
       7.7092996 2.7009332 2.2862456 3.4940417
000260 17 10 6c 41 2b dd 90 3d d3 18 10 41 9d b5 d8 40
       14.753928 0.070734344 9.006061 6.7721696
000270 fb 15 d9 3e 55 a6 40 41 70 16 0c 41 79 18 f4 40
       0.42399582 12.040608 8.755478 7.6279874
000280 43 f3 ee 3e 8e 85 00 41 ce f9 fe 40 30 79 8c 40
       0.4666997 8.032606 7.9679937 4.3897934
000290 83 a1 7b 40 30 3b c7 40 65 2a 65 3f 09 03 64 40
       3.931733 6.225975 0.89517814 3.5626853
0002a0 65 5e 0f 40 4f 50 96 40 30 c7 ef 3f c2 82 14 40
       2.2401364 4.6973033 1.8732662 2.3204808
0002b0 32 d5 67 3e fa 43 19 41 1b 66 cb 40 3f 10 8b 41
       0.22639921 9.579096 6.356214 17.382933
0002c0 34 1c 02 3d 47 b4 81 40 cb e5 05 42 40 83 9c 41
       0.031765178 4.0532565 33.474407 19.564087
0002d0 33 40 0d 41 75 26 30 40 44 d1 eb 3f 7e 42 8a 40
       8.828174 2.7523472 1.8423238 4.3206167
0002e0 85 d7 3d 41 e4 e6 0b 41 c1 35 72 40 23 3e 06 40
       11.865117 8.74387 3.7845309 2.0975425
0002f0 26 ee 15 41 94 5a 26 40 79 95 cc 40 21 e9 94 41
       9.370642 2.5992785 6.393246 18.613832
000300 df 24 52 3f a7 50 97 3d 9b 79 2a 40 b6 8c a9 3f
       0.8208751 0.0738843 2.6636722 1.3246067
000310 58 22 ba 40 58 b3 fb 3f 78 81 16 41 90 ec 1b 41
       5.8166924 1.9664106 9.406609 9.7452545
000320 e4 a1 18 41 c2 ad 58 3d ed 5d d8 3e 21 7c 87 41
       9.539524 0.052900083 0.4225916 16.93561
000330 0e 32 99 40 b7 7a cb 40 80 61 01 41 92 94 b9 3e
       4.78736 6.35873 8.086304 0.36246163
000340 9b 5b 99 3e fc 6b 1a 41 d0 4c 12 40 b7 d3 0f 41
       0.29952702 9.651363 2.2859383 8.989188
000350 1b b4 1b 41 8f cf 7e 3f 8e 8f c1 40 2a 89 f0 40
       9.731471 0.9953546 6.048774 7.5167437
000360 f7 4e 7a 41 09 92 e7 3f 66 c7 4b 42 84 52 a8 40
       15.644279 1.8091441 50.944725 5.2600727
000370 ba 66 13 40 c9 98 21 3f e4 c5 b4 3f b4 2f 75 40
       2.303145 0.63123757 1.4122891 3.8310366
000380 6d 0e 28 40 e8 13 8e 40 a8 01 c5 3d 3d 7f 91 41
       2.6258805 4.43993 0.096194565 18.187128
000390 2f 5f 0f 41 91 d4 91 41 8f 48 db 40 77 a9 c0 40
       8.960738 18.228792 6.8526073 6.0206866
0003a0 54 b5 da 40 5a 20 90 40 7c c0 a6 3d 60 46 1a 41
       6.834635 4.503949 0.08142182 9.642181
0003b0 a7 95 04 41 6d ca 32 41 55 0c b7 3e 2b 57 71 3f
       8.286536 11.17442 0.35751596 0.9427363
0003c0 2f 8a 73 40 d7 dc 59 3e c3 c0 2a 41 08 54 b2 3f
       3.805309 0.2127565 10.672061 1.3931894
0003d0 95 f3 e7 3f fd 6c 80 40 df 78 34 43 cf cd 1f 3e
       1.812121 4.013304 180.47215 0.15605853
0003e0 03 6e 32 41 08 4f 0a 40 f7 7b 81 43 85 f6 f4 40
       11.151858 2.1610737 258.96848 7.6550927
0003f0 66 58 32 3e a8 12 26 42 64 1b 11 41 24 81 62 41
       0.17416534 41.51822 9.069187 14.156528

4.weight f4 [256, 512]
000000 99 80 22 40 52 d6 97 bd 64 b1 30 be 1d cc 8e 3e
       2.539099 -0.07413925 -0.17255169 0.278901
000010 9b 89 05 c0 93 20 e0 be 97 71 ce 3f 2e 6d ba bd
       -2.0865238 -0.43774852 1.6128415 -0.091028556
000020 b5 61 3c 40 1a 41 bf 3c be ea bb bf 63 65 1f 3e
       2.9434636 0.023346473 -1.4681013 0.1556602
000030 1f 15 f7 be b8 ca 88 c0 44 a1 26 40 e4 8d d9 c0
       -0.48258302 -4.274746 2.6035929 -6.7985706
000040 34 aa e3 bf e7 24 81 bd f4 de a6 3e 55 3c 09 be
       -1.7786317 -0.06305867 0.32591975 -0.13401921
000050 60 50 27 c0 2d 79 65 c0 7c 65 34 bf 5a a5 88 c0
       -2.6142807 -3.585521 -0.7046735 -4.2701845
000060 af 3f 01 c0 59 ce 17 3f 1a 40 c1 3f 83 7d 4c be
       -2.019512 0.59299237 1.5097687 -0.19969754
000070 e9 7d b9 be fd 53 ff bf da 54 54 3e e1 48 ef 3f
       -0.36228874 -1.9947506 0.20735493 1.8694116
000080 b8 a4 06 bd 36 44 8e be 62 8a 2b c0 4a 23 2a be
       -0.03287193 -0.27786416 -2.6803212 -0.16615024
000090 27 6b a1 3f 1c ae 1e bf 9e 15 12 3c 18 22 90 be
       1.2610825 -0.6198442 0.008916287 -0.2815101
0000a0 c9 d3 90 c0 db 91 74 c0 af 19 be 3f 3d 80 d1 be
       -4.5258527 -3.8214023 1.4851588 -0.4091815
0000b0 91 01 7e 3d 9b c9 26 3f 23 18 03 be 7d 2a db bd
       0.062013213 0.65151376 -0.12802176 -0.10701463
0000c0 81 3a 51 3e 80 85 58 be ae 5c 5b be 0c af 6d 3f
       0.20432474 -0.21144676 -0.21422073 0.92845225
0000d0 fb 0e 35 bc 76 65 bc bf 3f da 35 c0 c3 b6 df bf
       -0.011050935 -1.4718463 -2.8414457 -1.747765
0000e0 06 a5 06 3f c3 fa 2c 3f 14 a3 62 c0 08 b9 2f bf
       0.52595556 0.6757013 -3.5412035 -0.6864171
0000f0 9b 78 82 bf d2 b7 d4 bd 62 28 8d c0 d8 a4 0a 3f
       -1.0193056 -0.103866234 -4.4111795 0.5415778
000100 9b 32 6b be 5c c4 dd bc cd d4 87 bc b4 cb 81 be
       -0.22968523 -0.02707117 -0.016580964 -0.25350726
000110 0c 1b 79 be d1 35 ed 3d af 8d 0e 3d b1 bd 3b 3c
       -0.24326724 0.1158253 0.03480309 0.0114588
000120 0d 88 70 c0 79 67 b1 bf 56 f0 8c bf f0 83 23 bf
       -3.7583039 -1.3859702 -1.1010845 -0.63873196
000130 ef a4 29 3e 70 ac 11 3f 6f 3c 88 bf 27 55 9f 3f
       0.16566823 0.56903744 -1.0643443 1.2447861
000140 b3 b9 1e 3f e4 ec fa bf 22 b8 82 c0 76 18 a6 bf
       0.62002105 -1.9603543 -4.084977 -1.2976215
000150 6b 37 9d bf 89 db 2f c0 9d 94 c2 bd d6 75 a6 3f
       -1.2282537 -2.7477744 -0.09501002 1.3004711
000160 53 fa ad 3f 54 f3 fe 3d 94 a3 6c c0 3a e2 a6 c0
       1.3592018 0.12448755 -3.697484 -5.2151155
000170 bc 8d 0b bf 2e b0 0e c0 f5 ec c9 be c8 53 44 be
       -0.54513144 -2.2295032 -0.39438596 -0.19172585
000180 a9 f7 7f bf f8 54 de 3f 1a a1 47 bf 65 00 82 3e
       -0.99987274 1.736968 -0.77980196 0.25390926
000190 3f 93 4d 3f f2 77 37 3e 0c 22 1f c0 c8 2a 9a bf
       0.80302805 0.1791685 -2.486453 -1.2044306
0001a0 9d e3 ca be 73 4b 19 bf a7 d6 24 be 22 69 05 3f
       -0.3962678 -0.5988075 -0.16097508 0.52113545
0001b0 f8 ea 27 3e 8b 0a 4b 3e c3 c9 df be db 6a 4a 3b
       0.16398227 0.1982824 -0.4370862 0.0030886445
0001c0 0c 67 6e 3e f6 ac 01 3e 57 46 15 bf ea 94 bf bf
       0.23281497 0.12663636 -0.58310455 -1.496732
0001d0 e5 05 ef 3f 86 0f 6c 3e 71 86 4b 3e c1 04 29 3e
       1.8673674 0.23052797 0.19875504 0.1650572
0001e0 bb d0 a5 3d bd d7 dc 3f e6 7e 4d c0 db 3b 2c 3e
       0.08096453 1.7253338 -3.2108703 0.16819708
0001f0 48 26 5e be 4e 22 06 c0 60 5a a5 bd e8 c1 a1 3e
       -0.2169429 -2.0958438 -0.08073878 0.3159325
000200 2d c3 ab bf 2b 2d 03 bf a6 19 78 bf 89 85 84 3c
       -1.3418938 -0.51240796 -0.96914136 0.016176956
000210 82 c9 6b 3f af 29 d9 3e 02 3c 77 c1 93 f6 e9 bc
       0.9210435 0.42414615 -15.45215 -0.028559959
000220 b0 c5 9a c0 5c 92 7f 3c ad ff 08 bf 73 cb 94 c0
       -4.836632 0.01559886 -0.5351513 -4.649835
000230 db f3 72 3e 99 b1 67 3e a5 4b 0c bf 0d 49 13 bf
       0.23725836 0.22626342 -0.54802924 -0.5753334
000240 a7 31 df bd f7 03 82 40 3d 8e c5 bf 91 b7 85 3f
       -0.10898142 4.062984 -1.5434033 1.0446645
000250 59 36 e6 bc 28 50 f4 3c d4 b5 e1 be 49 ac 2c 3f
       -0.028102087 0.029823378 -0.44084036 0.67450386
000260 fc dd 98 3f c7 89 35 3d 10 7f 0c c0 43 f6 29 3f
       1.1942744 0.044320848 -2.1952553 0.6639139
000270 db c2 fb be 94 fc d8 be 25 d7 30 3e 91 43 7d 3e
       -0.491721 -0.42380202 0.17269571 0.24732806
000280 fa 90 b2 3e 84 2e 85 3d ae ae 5f 3d c7 ba 08 3d
       0.34876233 0.06503013 0.054609947 0.03338125
000290 03 14 0c 3c 1d 3e 7e 3f e2 7e f2 bc ac a4 73 40
       0.008549693 0.9931353 -0.029601518 3.8069258
0002a0 23 58 d0 be bf 3d dc 3d b5 9b b6 3d b0 5d cc bf
       -0.40692243 0.10753965 0.089164175 -1.5966091
0002b0 4e bf fb bd 0d 50 b0 3e 85 ee f1 bd f7 3d 06 c0
       -0.12292348 0.34436074 -0.11813072 -2.097532
0002c0 e6 a8 13 c0 90 aa 71 3d 6c 68 e8 3f ea 98 d3 bf
       -2.3071837 0.05900055 1.8156867 -1.6531041
0002d0 ce 2d 00 be a0 e9 f2 3f 0a 16 2e 3f 39 89 73 bf
       -0.12517473 1.8977547 0.6800238 -0.9513126
0002e0 cb bf f4 3e e5 6b c0 3e 17 6f 32 bf b9 89 8c bf
       0.47802576 0.37582317 -0.6970076 -1.097953
0002f0 9f a7 3a c0 65 57 b4 bf 22 38 5d bd ca 49 38 bf
       -2.9164808 -1.4089171 -0.05400861 -0.71987593
000300 3d b9 26 be fa d0 03 c0 fe b5 87 3d 41 4d b7 bf
       -0.162816 -2.05963 0.06626509 -1.4320451
000310 d1 15 72 3d 2c 5c f3 3e ce d0 ce 3d c4 79 15 40
       0.059102837 0.4753126 0.1009842 2.335557
000320 93 48 f9 3e e5 3b 38 be a9 c5 5e 3e 70 f0 ac bf
       0.48688182 -0.17991598 0.21755089 -1.3510876
000330 db 39 cc c0 a8 02 4e bf 0f ef 4e be a1 1c e7 bc
       -6.3820624 -0.80472803 -0.20208381 -0.028211894
000340 0e 2f 31 bd 5f 45 ce 3f 0c 4f 72 be 4c 28 9f bf
       -0.043257765 1.611492 -0.23662966 -1.2434173
000350 19 48 0f c0 ff 55 ea be bd b8 28 3f e4 50 40 bd
       -2.2387755 -0.45768735 0.6590689 -0.046952143
000360 b7 c6 ef bf 0c ef cb 3e c7 d7 6c bf 23 78 88 c0
       -1.8732518 0.39830816 -0.9251675 -4.264665
000370 cb d2 64 3e 8c 9f 2a 3f 9c c0 ce bd 6c ae 1d 3e
       0.22346036 0.666497 -0.10095331 0.15398568
000380 b0 cd 99 3e 4d fa fc 3e bc 70 03 3f 04 41 b1 bf
       0.3003974 0.49409714 0.51343894 -1.3847966
000390 f1 c0 66 3e 21 b2 09 bf b2 19 05 c0 39 e0 df c0
       0.22534539 -0.5378743 -2.0796933 -6.996121
0003a0 2d bf 5d c0 d2 8c a9 3f ea e6 bd 3c 76 d7 90 3f
       -3.4647934 1.32461 0.023181397 1.1315753
0003b0 da 9e 11 be bd 37 4d bf d7 b0 cc 3e 48 92 65 3e
       -0.14220753 -0.80163175 0.39978668 0.22419083
0003c0 97 47 a2 3e c5 2f 4e 3d 22 96 da bf 2f b2 a4 3d
       0.31695244 0.050338525 -1.7077067 0.08041798
0003d0 8e 94 6b be 6d 9b a1 bd 95 6e ee be af 37 06 3f
       -0.23005888 -0.07890973 -0.46568742 0.52428716
0003e0 0e 73 91 bf 43 22 85 c0 43 7e f6 be de 78 b5 be
       -1.1363237 -4.1604323 -0.48143205 -0.35443777
0003f0 95 44 c5 3f 55 19 18 c0 16 03 a7 3e 1d 58 5f bf
       1.5411555 -2.3765461 0.32619542 -0.87243825
