FF_models/hours_since_2018_feature/2023_04_01-05_23_36_PM/epoch=35779,r2=0.8933,Invalids=0.pth (torch, 558519 bytes, 14 tensors)

0.weight f4 [512, 5]
0.9011444 1.0043931 -1.6087794 -1.6128223 -0.25868317 -1.27409 -2.458533 -0.1368444
0.37836617 -1.5695409 0.25050637 0.7350166 0.9588144 -2.973317 0.7600428 -1.0401638
0.679411 1.6432378 0.9135403 1.5549327 -0.46356112 -0.7954225 -1.0675957 3.2593894
0.12950073 0.09202568 0.11836955 -0.58844846 -0.12086818 0.0009785228 0.3816374 1.826443
-2.1082027 0.13344564 -0.661851 -0.011895162 0.1483431 -2.500905 -1.9268855 -0.043076266
0.33426794 1.5199643 1.4913176 2.0239336 -0.08474024 -1.0447137 0.4984596 1.9854435
-0.13746126 1.6569701 1.0948986 0.13068879 2.0991437 -1.5325106 0.38238838 1.0904939
-2.2341201 0.40668288 -0.6174422 0.4194325 -0.17779502 0.11388553 -4.455004 -0.7975412
0.71049255 -0.10470958 0.22726278 -2.26805 -1.6535503 0.03028822 -0.70957494 1.5418075
1.5573999 0.5454635 0.34149975 0.04751568 1.447506 2.3265932 0.095074646 -0.11424404
0.07346873 0.23089574 -3.4643207 0.98513883 0.0030013656 0.4594062 -1.8306024 1.5760703
0.28959957 0.52693486 -0.09505062 4.6610465 0.42071766 -0.32164314 -0.7864349 0.15599366
-1.663442 -0.8121714 -0.6699657 0.6404932 -0.3042624 0.07374755 6.628798 0.53759986
0.15945296 0.8376619 -0.9775441 -1.0713652 -2.1065598 0.77257407 0.49347872 0.12551899
0.23012306 -2.7077122 -1.8887519 -0.9325831 0.79713935 -2.0573921 -0.3111113 1.1939961
-2.0985296 0.44257045 0.5182255 -0.07807327 -1.6375911 -1.4288132 -0.30326894 -2.9050658
0.0073326244 0.5896446 0.7729217 0.12410393 2.9780345 -0.8311558 -0.47005367 -1.2595937
1.1893495 0.7622086 -2.687753 -0.1390474 0.102321416 0.38184285 -3.478969 0.79340553
0.008377916 -0.32663196 1.0405252 0.85236883 -2.8905847 -0.008638215 0.99963325 -1.2662655
-0.19707689 0.487223 -3.1615427 -1.2227739 -2.5539143 -0.16998342 0.3701052 -1.5948931
0.20540419 0.1843358 0.15768616 0.26044598 0.076772615 0.083962396 0.28771508 0.08872414
-0.06135492 -0.08944948 -1.2926675 0.9335964 1.8407958 0.72960633 -0.5397141 0.14463003
-1.2538896 -1.0235145 -0.8498727 1.8779523 -0.23154275 1.3032846 1.4447478 1.4649209
-0.8644318 1.1098149 -0.008801257 -1.9142646 -0.44313842 -0.3904754 0.19599405 0.3734968
-1.8555385 2.5754025 -0.5958331 -1.1197548 1.2928582 -0.5246547 0.36123928 -0.75205666
1.2103364 1.1787962 0.9871104 1.5147486 -0.92046094 -0.7442066 0.57157314 -2.4516807
-1.5231985 -0.047949694 -0.7427579 -0.33010903 5.1894526 0.22411788 -0.11663332 -1.3511513
-0.35748592 1.3532972 0.8226913 -1.2018758 0.95049906 -0.92131746 -0.19771467 2.4357593
0.17558347 -0.52106154 -2.4831662 0.9516193 0.11259864 -0.0823762 0.3048928 0.115291156
0.025580104 11.4891615 -0.16426991 0.22271617 0.54799765 -0.7356725 1.771511 -0.95707107
0.15845376 0.2139887 0.10054718 0.08999422 -0.013540317 0.17319007 1.2400547 -1.6055641
0.15800998 0.042438272 -1.1517289 1.1618208 -1.1925184 -0.05336502 0.5415929 -0.2030651
00000000: 66b1 663f f48f 803f 7cec cdbf f670 cebf
00000010: 1f72 84be 6215 a3bf 9b58 1dc0 f020 0cbe
00000020: 36b9 c13e b7e6 c8bf 5f42 803e 0c2a 3c3f
00000030: dc74 753f d34a 3ec0 2a92 423f 1624 85bf
00000040: e1ed 2d3f 9e55 d23f c7dd 693f 0908 c73f
00000050: e257 edbe cfa0 4bbf faa6 88bf d699 5040
00000060: d79b 043e f677 bc3d bc6b f23d 8fa4 16bf
00000070: bd89 f7bd c741 803a fa65 c33e e2c8 e93f
00000080: cbec 06c0 f9a5 083e 116f 29bf ede3 42bc
00000090: 41e7 173e d40e 20c0 2fa4 f6bf bd70 30bd
000000a0: 2b25 ab3e 318e c23f 7fe3 be3f 2188 0140
000000b0: 4a8c adbd 2eb9 85bf 1936 ff3e 0323 fe3f
000000c0: a5c2 0cbe 9917 d43f a325 8c3f 48d3 053e
000000d0: 5f58 0640 4f29 c4bf 69c8 c33e 4e95 8b3f
000000e0: d3fb 0ec0 bd38 d03e b110 1ebf dbbf d63e
000000f0: e60f 36be d13c e93d 658f 8ec0 a92b 4cbf
00000100: d7e2 353f fa71 d6bd 93b7 683e bb27 11c0
00000110: 89a7 d3bf 001f f83c b4a6 35bf f359 c53f
00000120: e158 c73f 7fa3 0b3f 0ed9 ae3e cd9f 423d
00000130: e047 b93f e7e6 1440 7fb6 c23d c7f8 e9bd
00000140: c676 963d ef6f 6c3e 6eb7 5dc0 0f32 7c3f
00000150: 8fb2 443b 4a37 eb3e 2e51 eabf acbc c93f
00000160: 6546 943e 34e5 063f e6a9 c2bd 4b27 9540
00000170: 4e68 d73e 69ae a4be cc53 49bf cdbc 1f3e
00000180: abeb d4bf 77ea 4fbf df82 2bbf 5df7 233f
00000190: 48c8 9bbe f508 973d 1d1f d440 25a0 093f
000001a0: a347 233e 0371 563f 5540 7abf 7f22 89bf
000001b0: e0d1 06c0 6ac7 453f 3ea9 fc3e 0d88 003e
000001c0: 61a5 6b3e 284b 2dc0 9fc2 f1bf c4bd 6ebf
000001d0: 5311 4c3f 50ac 03c0 fb49 9fbe ddd4 983f
000001e0: 4f4e 06c0 9898 e23e 6daa 043f e1e4 9fbd
000001f0: 969c d1bf 5ae3 b6bf 1146 9bbe 99ec 39c0
00000200: 8346 f03b f3f2 163f 32de 453f 342a fe3d
00000210: 1e98 3e40 a0c6 54bf e0aa f0be 5e3a a1bf
00000220: 9b3c 983f 1a20 433f 2504 2cc0 7162 0ebe
00000230: e48d d13d e880 c33e 6ea7 5ec0 a01c 4b3f
00000240: 8743 093c 4e3c a7be ee2f 853f d834 5a3f
00000250: 57ff 38c0 4d87 0dbc f7e7 7f3f fd14 a2bf
00000260: 86ce 49be 4b75 f93e b756 4ac0 db83 9cbf
00000270: 5573 23c0 2210 2ebe 6e7e bd3e 7525 ccbf
00000280: 7a55 523e 86c2 3c3e 7b78 213e 2d59 853e
00000290: f63a 9d3d 7af4 ab3d 644f 933e 00b5 b53d
000002a0: 4c4f 7bbd 4a31 b7bd 2176 a5bf 2c00 6f3f
000002b0: 329f eb3f 7bc7 3a3f b42a 0abf e519 143e
000002c0: 747f a0bf 8602 83bf 4291 59bf be60 f03f
000002d0: 8b19 6dbe 08d2 a63f 7fed b83f 8782 bb3f
000002e0: 674b 5dbf 6a0e 8e3f 2633 10bc 9f06 f5bf
000002f0: 0ae3 e2be 64ec c7be aab2 483e f93a bf3e
00000300: 4982 edbf 65d3 2440 8588 18bf 2054 8fbf
00000310: 617c a53f c54f 06bf 5bf4 b83e c986 40bf
00000320: 4eec 9a3f cbe2 963f 44b3 7c3f 48e3 c13f
00000330: 54a3 6bbf 5384 3ebf 9e52 123f 56e8 1cc0
00000340: 2bf8 c2bf e666 44bd 6225 3ebf 0d04 a9be
00000350: ff0f a640 287f 653e 73dd eebd 87f2 acbf
00000360: 6508 b7be d838 ad3f e69b 523f 11d7 99bf
00000370: e853 733f 76db 6bbf b775 4abe 7be3 1b40
00000380: 27cc 333e 4a64 05bf 32ec 1ec0 539d 733f
00000390: 1e9a e63d dab4 a8bd e91a 9c3e c51d ec3d
000003a0: 5e8d d13c 9bd3 3741 5f36 28be b50f 643e
000003b0: 9349 0c3f 0855 3cbf dfc0 e23f 9c02 75bf
000003c0: b441 223e db1f 5b3e aeeb cd3d e44e b83d
000003d0: 35d8 5dbc bd58 313e 1dba 9e3f 2083 cdbf
000003e0: 5ecd 213e c1d3 2d3d da6b 93bf 8bb6 943f
000003f0: 71a4 98bf 4795 5abd d5a5 0a3f 4cf0 4fbe

0.bias f4 [512]
-0.4509669 0.1414873 -0.68986905 -0.10937608 -0.33944842 -0.117291704 0.5140267 0.62065953
-0.16893151 -2.7679935 -0.49060142 -1.2060983 -1.1332426 0.98901784 -0.7052222 -0.80587363
0.62836456 0.8762153 -0.86379814 0.047504507 -0.5724769 -1.921114 -1.8624215 -1.0729711
-0.43687388 -2.3385935 3.646584 -2.7860298 -0.28048205 0.95292753 0.2136312 2.0357592
-0.3095276 -0.11593516 0.13922723 1.5856085 0.8280813 -1.5049373 -2.0703156 0.20647347
-1.5950799 0.06283598 0.09221467 -0.95972425 -1.1264929 -1.2029836 -0.50409865 -2.0477452
-0.12629834 -0.4927367 -0.20296878 -0.3957828 -0.96876955 0.27309698 0.118547365 -0.22322458
0.6516261 0.044303194 0.79148334 -1.9469131 -1.4177049 1.3187779 -1.3103355 0.06982042
-0.62283504 -0.52784574 -2.7097976 -1.5884619 1.379489 -2.1732635 1.1650844 -0.8877629
0.7699407 -0.2921236 0.8762414 -0.662364 1.224317 -0.6545563 -1.4755999 0.35130295
-2.1273544 -0.78711355 -0.7776158 0.8623839 -0.86949867 -0.87588954 0.82859963 0.9890324
1.4714199 -0.03258738 -0.06522337 -1.051507 1.1429478 -1.9383163 -1.1257337 0.41845253
-0.85728973 -1.261135 0.6314318 -0.48383886 -0.26794705 -0.7288071 -0.5571727 0.13703384
-0.5439812 -2.0375347 -0.28972962 1.1399512 0.35469815 0.44223398 0.14408463 -0.19450633
-0.045902535 -1.1807722 -0.5232227 -0.2955193 -0.75582767 1.4416896 -0.09957015 -0.8846498
1.2295712 0.3175252 1.425163 -2.0032985 0.86788297 -0.59528905 -1.1657201 -0.39793202
-0.8936931 -0.5756167 -1.1058681 1.6283492 0.2045738 1.0592632 0.8640441 -0.78448254
0.76200134 -0.43688512 -0.8479226 -2.1836026 -1.362475 -1.5471362 0.047656342 -0.037830226
-0.45446646 -1.8298246 -0.72713375 0.1618572 0.036964543 -1.7991738 -1.367709 -0.8186907
-0.8299142 1.3549658 1.0446318 -0.4021514 -1.2465765 0.32632542 -0.24204414 -0.15796725
-1.3734914 -2.2751536 -0.59545374 -1.9318116 0.79728425 -0.20059392 -0.20759769 0.97947794
-0.5186832 -2.8543825 -0.40674642 0.21282095 -1.6109481 1.4466076 1.8686385 1.7271657
0.42542875 1.8708571 -1.4078743 -0.34993374 -0.20038779 -1.2376356 -0.2830158 0.9950831
-0.80650395 -0.38930887 -1.7388723 0.11305139 -0.10554332 -2.362902 -1.7278976 -2.0608876
-0.7848751 0.41551295 -0.029132035 -0.11981225 -2.6700335 0.61430407 -0.9735801 -0.40984738
-0.880156 -0.93534887 -1.1030751 0.070353776 0.7677825 -0.33502793 -0.08090803 1.9188828
-0.9889843 -0.15777162 -1.5349404 -0.035614137 -1.3417177 -2.0919435 -1.4678106 0.83909965
-0.69195265 -0.6952844 0.9083415 -0.17065543 0.8552016 -0.21149565 -0.5175021 1.5312032
0.14144352 -2.2792525 1.5006242 -0.96303594 -0.5362476 0.4947781 -0.97195274 -1.799961
0.09685661 -2.1916509 0.19533409 0.9119104 -0.98136455 -0.537379 -1.083564 -0.638055
-2.0793264 -1.0664347 0.67105025 -0.7739658 -1.4398226 -0.21307415 -0.6150622 -0.49817517
-0.7877239 1.4115713 0.31733158 -1.3157388 1.7679176 0.9275246 -1.874064 -0.8502059
00000000: 22e5 e6be 0ce2 103e 429b 30bf 9100 e0bd
00000010: 2fcc adbe a236 f0bd 4197 033f 8be3 1e3f
00000020: 62fc 2cbe ce26 31c0 1c30 fbbe 6e61 9abf
00000030: 180e 91bf 4630 7d3f 7189 34bf bc4d 4ebf
00000040: 80dc 203f a54f 603f e021 5dbf 1694 423d
00000050: d98d 12bf 10e7 f5bf d463 eebf 1e57 89bf
00000060: efad dfbe 84ab 15c0 a261 6940 504e 32c0
00000070: 589b 8fbe 0ff3 733f 23c2 5a3e e149 0240
00000080: 677a 9ebe 6a6f edbd 9591 0e3e 38f5 ca3f
00000090: 23fd 533f c9a1 c0bf 0d80 04c0 c86d 533e
000000a0: 942b ccbf 26b0 803d 0bdb bc3d 7db0 75bf
000000b0: eb30 90bf 5efb 99bf 9c0c 01bf 420e 03c0
000000c0: 5a54 01be fc47 fcbe 0cd7 4fbe 0ba4 cabe
000000d0: 4801 78bf 5ed3 8b3e f6c8 f23d fc94 64be
000000e0: f8d0 263f 4477 353d a79e 4a3f 7334 f9bf
000000f0: 5b77 b5bf b7cd a83f 13b9 a7bf 02fe 8e3d
00000100: 1e72 1fbf e620 07bf 536d 2dc0 b852 cbbf
00000110: 1893 b03f c016 0bc0 7c21 953f 6e44 63bf
00000120: d51a 453f 3991 95be 5b51 603f b090 29bf
00000130: 6bb6 9c3f 0091 27bf 75e0 bcbf fbdd b33e
00000140: 9326 08c0 4680 49bf d411 47bf 31c5 5c3f
00000150: 7797 5ebf 4c3a 60bf 1b1f 543f 3a31 7d3f
00000160: 7d57 bc3f 587a 05bd d593 85bd c897 86bf
00000170: 1d4c 923f c01a f8bf 0b18 90bf 693f d63e
00000180: 5777 5bbf df6c a1bf 84a5 213f bab9 f7be
00000190: 5b30 89be 1a93 3abf dfa2 0ebf 9952 0c3e
000001a0: 5a42 0bbf f866 02c0 7157 94be ece9 913f
000001b0: ff9a b53e 7e6c e23e ec8a 133e ab2c 47be
000001c0: 4c04 3cbd 8b23 97bf ecf1 05bf 4e4e 97be
000001d0: ec7d 41bf 4989 b83f 6feb cbbd 6978 62bf
000001e0: 9762 9d3f aa92 a23e be6b b63f 0b36 00c0
000001f0: 942d 5e3f dd64 18bf 5136 95bf bfbd cbbe
00000200: 12c9 64bf 9e5b 13bf 168d 8dbf bf6d d03f
00000210: cb7b 513e f095 873f fe31 5d3f d9d3 48bf
00000220: 8512 433f 68af dfbe 7511 59bf 25c0 0bc0
00000230: 9565 aebf 8f08 c6bf 4c33 433d def3 1abd
00000240: d4af e8be b137 eabf 7025 3abf e5bd 253e
00000250: 2268 173d 544b e6bf 1711 afbf b795 51bf
00000260: 4275 54bf 856f ad3f 7fb6 853f cae6 cdbe
00000270: d28f 9fbf 2014 a73e 6bda 77be 2bc2 21be
00000280: 91ce afbf 1e9c 11c0 a86f 18bf 9a45 f7bf
00000290: d21a 4c3f 7e68 4dbe 7d94 54be 11bf 7a3f
000002a0: 6cc8 04bf 34ae 36c0 1141 d0be bced 593e
000002b0: 8c33 cebf 702a b93f 8c2f ef3f c413 dd3f
000002c0: ccd1 d93e 3f78 ef3f 3a35 b4bf 842a b3be
000002d0: 7532 4dbe d86a 9ebf 72e7 90be c4bd 7e3f
000002e0: 0b77 4ebf 7e53 c7be 5e93 debf 7d87 e73d
000002f0: 1927 d8bd c939 17c0 c02b ddbf 95e5 03c0
00000300: 93ed 48bf 1dbe d43e 4ea6 eebc 2060 f5bd
00000310: d4e1 2ac0 0843 1d3f 8c3c 79bf 84d7 d1be
00000320: e751 61bf 0673 6fbf 9131 8dbf a415 903d
00000330: 658d 443f c888 abbe 1cb3 a5bd f49d f53f
00000340: 132e 7dbf e28e 21be ed78 c4bf 21e0 11bd
00000350: 68bd abbf 67e2 05c0 38e1 bbbf 3ccf 563f
00000360: cf23 31bf 29fe 31bf 1289 683f 4cc0 2ebe
00000370: 7eee 5a3f 5192 58be 057b 04bf 77fe c33f
00000380: 92d6 103e 46df 11c0 7414 c03f 8689 76bf
00000390: 8647 09bf 8e53 fd3e e5d1 78bf 1f65 e6bf
000003a0: c25c c63d 0244 0cc0 a905 483e f672 693f
000003b0: b53a 7bbf ac91 09bf 3ab2 8abf 9357 23bf
000003c0: af13 05c0 ef80 88bf f3c9 2b3f 9f22 46bf
000003d0: 1b4c b8bf 1c30 5abe b774 1dbf d110 ffbe
000003e0: 46a8 49bf 5eae b43f 4979 a23e 216a a8bf
000003f0: 204b e23f 4172 6d3f 54e1 efbf 18a7 59bf

1.weight f4 [512]
0.6252998 0.24907732 0.49463433 0.86802566 0.63079965 9.195772e-05 0.45890227 0.62152684
1.2634132 0.9523783 1.1688925 0.39082062 0.15647721 0.1764079 1.0833234 0.80718565
0.7966424 0.3077512 0.6922391 0.783798 0.54591995 0.24813573 0.95944685 0.9759896
0.4093947 0.12467189 1.1035907 1.1893882 0.8333661 0.5007023 0.5376381 0.2319744
0.00526641 -0.0062965853 0.44321004 0.4627223 1.1328175 0.73050845 0.7066814 0.6873447
0.31950086 0.75092447 0.6209445 0.8999144 0.9640153 0.70328087 1.0115271 1.0865287
0.036329087 0.6890684 1.2664531 1.0142503 1.1405292 0.7512288 0.7514302 0.47640494
0.5482627 0.9162734 0.62505436 1.3112726 0.9331778 0.537163 0.8931775 0.005402043
0.79367644 0.6125661 0.9468106 0.8124982 0.71514064 0.6411175 1.0659009 0.8834032
0.4592643 1.3507096 0.9955376 0.5588319 0.40077808 0.37537593 1.0427465 0.17611615
0.32789195 1.4075054 0.120690145 0.7574069 0.84332675 0.76212573 0.50490475 0.5305083
0.707709 0.6108102 0.867022 0.9925594 1.392106 0.21934716 0.69867295 0.4156117
0.520846 0.47335586 0.83630604 0.5525442 0.3225511 1.0440537 0.61086345 0.63953215
0.5409617 0.5306412 0.79315597 1.0501143 0.9112847 0.7141176 0.63003296 0.63377434
0.7009694 0.5920234 0.97552466 0.7571221 0.53064 0.22710797 0.9758718 1.0414927
0.54220283 1.2633395 0.86693436 0.9156959 0.57620853 0.12600526 1.0380758 0.18641478
1.2473272 0.8685544 0.70720017 0.82818764 -0.001248097 1.2134947 0.9842588 1.0120738
0.89739954 0.5073956 1.0579965 0.22054963 0.66910684 0.35032675 0.6716957 0.0026322145
0.0031239213 0.6445655 0.6603569 0.843203 0.7258485 1.3961279 0.8117414 0.15710688
0.42532006 0.79174995 0.9236491 0.8843367 1.0140325 0.7108315 0.33974907 0.5013162
1.2511697 1.042308 0.30524155 0.85277295 0.7536546 0.25707567 0.14804332 1.4749397
0.51906794 0.5532391 0.68352467 0.007057488 0.9077779 0.79299897 0.5268622 0.30311534
0.76399875 1.1894269 0.4378905 0.17880732 0.57058954 0.75436187 0.62552786 1.0382292
0.14871174 0.41431203 1.0426275 -0.004075064 -0.008414074 1.0442841 1.0354292 0.98715425
0.897531 0.25397515 0.5635235 0.000823425 1.0313224 0.36671683 1.2371151 0.2990763
1.2037814 0.2333528 1.09615 1.0873833 0.993467 0.9695026 0.11134455 0.57650834
0.23160799 0.5337857 0.6224028 0.13053523 1.231413 1.0255055 0.85784894 0.8584559
0.38540068 1.1256881 1.3555093 0.007825819 1.1516278 0.004844968 0.73605883 0.4470658
1.289181 0.90437865 1.1243302 0.5122158 0.9847432 1.0669125 1.2176 0.39738753
0.98040473 0.6233107 0.8846096 1.6015034 1.1809229 1.0287459 0.80405766 0.4581152
0.8530256 0.9559192 1.0467585 0.930227 0.63569856 0.6413805 0.6549466 0.8503173
0.93533665 0.5519534 0.63792604 1.0334921 0.9321571 0.47785375 0.82491463 1.0069505
00000000: a613 203f 200e 7f3e b640 fd3e ee36 5e3f
00000010: 167c 213f 6dd9 c038 3df5 ea3e 621c 1f3f
00000020: 86b7 a13f 10cf 733f 459e 953f a419 c83e
00000030: 903b 203e 46a4 343e 57aa 8a3f b8a3 4e3f
00000040: c2f0 4b3f 9191 9d3e 9536 313f fca6 483f
00000050: 69c1 0b3f 4b17 7e3e 4f9e 753f 74da 793f
00000060: 2f9c d13e fa53 ff3d 7642 8d3f df3d 983f
00000070: 7b57 553f 072e 003f a7a2 093f b28a 6d3e
00000080: d991 ac3b 9653 cebb 6dec e23e f0e9 ec3e
00000090: 2a00 913f 9a02 3b3f 12e9 343f d2f5 2f3f
000000a0: 9e95 a33e 963c 403f 38f6 1e3f ca60 663f
000000b0: b5c9 763f 370a 343f b879 813f 5f13 8b3f
000000c0: cfcd 143d c966 303f 231b a23f f4d2 813f
000000d0: dcfc 913f 8850 403f bb5d 403f 59eb f33e
000000e0: f25a 0c3f e590 6a3f 9003 203f c8d7 a73f
000000f0: bee4 6e3f 8483 093f 48a7 643f 9f03 b13b
00000100: 612e 4b3f 22d1 1c3f 2e62 723f e2ff 4f3f
00000110: 7513 373f 4720 243f 716f 883f b626 623f
00000120: b124 eb3e 0de4 ac3f 8ddb 7e3f 9b0f 0f3f
00000130: c932 cd3e 4631 c03e b878 853f cb57 343e
00000140: 74e1 a73e 2329 b43f 652c f73d 6be5 413f
00000150: 43e4 573f ac1a 433f 7041 013f 64cf 073f
00000160: 6b2c 353f 0f5e 1c3f 27f5 5d3f 5f18 7e3f
00000170: 8830 b23f 8b9c 603e 3bdc 323f 0fcb d43e
00000180: 2a56 053f b35b f23e 2718 563f 8973 0d3f
00000190: 6b25 a53e 8da3 853f 8c61 1c3f 61b8 233f
000001a0: 777c 0a3f 1ad8 073f 450c 4b3f 256a 863f
000001b0: f449 693f 69d0 363f d749 213f 093f 223f
000001c0: bb72 333f d88e 173f fcbb 793f c1d2 413f
000001d0: 06d8 073f fe8e 683e bcd2 793f a24f 853f
000001e0: cecd 0a3f 1cb5 a13f 69ef 5d3f 0c6b 6a3f
000001f0: 6782 133f 8607 013e abdf 843f 84e3 3e3e
00000200: 6ba8 9f3f 9559 5e3f 120b 353f 1b04 543f
00000210: 3097 a3ba cb53 9b3f 62f8 7b3f a28b 813f
00000220: fabb 653f aee4 013f 6e6c 873f c3d7 613e
00000230: 964a 2b3f 075e b33e 40f4 2b3f 3b81 2c3b
00000240: b4ba 4c3b 3f02 253f 260d 293f 27dc 573f
00000250: 35d1 393f 52b4 b23f 49ce 4f3f a0e0 203e
00000260: 8dc3 d93e 20b0 4a3f 4474 6c3f e463 623f
00000270: d1cb 813f 0ef9 353f 97f3 ad3e 4256 003f
00000280: 5426 a03f 596a 853f 9f48 9c3e 544f 5a3f
00000290: 82ef 403f 6c9f 833e ab98 173e d3ca bc3f
000002a0: a3e1 043f 14a1 0d3f 79fb 2e3f 8042 e73b
000002b0: 2264 683f fb01 4b3f 71e0 063f ef31 9b3e
000002c0: 6c95 433f 243f 983f 2f33 e03e 4419 373e
000002d0: 2812 123f dc1d 413f 9822 203f b2e4 843f
000002e0: e447 183e b520 d43e d174 853f 1d88 85bb
000002f0: 2fdb 09bc 1aab 853f f288 843f 24b6 7c3f
00000300: 97c4 653f 0809 823e 1343 103f 1edb 573a
00000310: 5f02 843f 4fc2 bb3e ca59 9e3f 8720 993e
00000320: 8215 9a3f 09f4 6e3e a54e 8c3f 602f 8b3f
00000330: da53 7e3f 5331 783f 9d08 e43d 0d96 133f
00000340: a52a 6d3e 2ea6 083f ca55 1f3f 07ab 053e
00000350: f19e 9d3f c443 833f fd9b 5b3f c4c3 5b3f
00000360: 3d53 c53e 8c16 903f 5481 ad3f dd37 003c
00000370: 8a68 933f 8ac2 9e3b 5a6e 3c3f cfe5 e43e
00000380: e203 a53f 5c85 673f 0dea 8f3f 9320 033f
00000390: 2118 7c3f 9790 883f 51da 9b3f 6176 cb3e
000003a0: cefb 7a3f 4a91 1f3f c675 623f 10fe cc3f
000003b0: 7b28 973f f2ad 833f b9d6 4d3f 138e ea3e
000003c0: e35f 5a3f 1fb7 743f 2ffc 853f 5b23 6e3f
000003d0: 24bd 223f 8331 243f 95aa 273f 65ae 593f
000003e0: 3972 6f3f d14c 0d3f 1f4f 233f 7849 843f
000003f0: d9a1 6e3f 3fa9 f43e 9b2d 533f c1e3 803f

1.bias f4 [512]
-0.58432287 -0.100517586 -0.43737075 -1.2451081 -0.6558942 -0.014942993 -0.26244202 -0.56956476
-1.7879151 -1.4681343 -1.8579813 -0.38092682 -0.012371857 -0.041113857 -1.3283064 -0.75949645
-0.72338456 -0.28265116 -0.9788608 -0.9953005 -0.4220578 -0.18705212 -1.4504493 -1.1359701
-0.3992756 0.023020448 -1.6207504 -1.6468 -0.5970434 -0.43246868 -0.69160867 -0.10113233
-0.04069291 -0.014653209 -0.37811604 -0.48824975 -1.828801 -0.81012654 -0.7042478 -0.87367266
-0.31004536 -0.6554257 -0.5901471 -1.5299006 -1.3371553 -0.7031863 -1.1701133 -1.6617632
-0.148384 -0.48740786 -1.9241383 -1.2885188 -1.4696859 -0.67835236 -1.1192601 -0.5474517
-0.7749378 -1.3113922 -0.6498854 -1.6344011 -1.0315205 -0.42887214 -1.1410407 -0.028998371
-0.76250696 -0.5319241 -1.1990398 -1.12394 -0.6934549 -0.5093159 -1.2451473 -1.1174974
-0.4673081 -1.895757 -1.4048076 -0.4942918 -0.2219513 -0.16623366 -1.4922212 -0.18184789
-0.5010206 -1.5220722 0.020198101 -0.6695266 -0.880998 -0.56932515 -0.6179241 -0.44236073
-0.5693642 -0.75670326 -1.2265224 -1.5239775 -1.9665169 -0.16060616 -0.9740798 -0.37039074
-0.5051586 -0.51168793 -0.5957578 -0.49978605 -0.5038643 -1.5250678 -0.50884277 -0.5925763
-0.59658235 -0.5598914 -1.3303802 -1.2807606 -1.0286404 -0.5708823 -0.65710187 -0.581112
-0.56035787 -0.7004062 -0.97429967 -0.8042016 -0.42396468 -0.1463472 -1.0994856 -1.4003706
-0.54595155 -2.183825 -1.0282726 -0.9899734 -0.6668207 0.022100281 -1.3489251 -0.029249957
-1.618603 -1.0703602 -0.7366565 -1.1152222 -0.038535614 -2.070896 -1.1107934 -1.3422332
-1.1962253 -0.578507 -1.2652274 -0.16529185 -0.7792711 -0.25075984 -0.48995587 -0.007841343
-0.024390183 -0.72912854 -0.6138729 -1.2128568 -0.6142599 -2.6160815 -0.7210488 0.01651597
-0.39573944 -0.90168786 -1.4629025 -1.307937 -1.1742201 -0.5675276 -0.2516696 -0.48157573
-1.8918813 -1.4474882 -0.17557886 -0.97103274 -1.0034459 -0.1526451 0.016094124 -1.955813
-0.34872136 -0.47936562 -0.4939167 -0.027765023 -1.0459439 -0.7689876 -0.3437455 -0.18042317
-0.7861992 -1.3481877 -0.36688247 -0.102871634 -0.7035416 -0.81610537 -0.52821255 -1.1273409
0.028035088 -0.40998435 -1.4924964 -0.017303256 -0.018023038 -1.6618118 -1.3682388 -1.1490233
-1.6067802 -0.054149512 -0.659604 -0.0093013225 -1.6795874 -0.3712201 -1.8017795 -0.1939424
-1.5675545 -0.16938637 -1.071233 -1.5348237 -1.3451589 -1.2315668 0.016527323 -0.53354955
-0.13678572 -0.6830035 -0.51532966 0.023670182 -1.5079156 -1.9369534 -1.3451432 -1.2880406
-0.15887204 -1.6938233 -1.9488397 -0.022254653 -1.6236439 -0.0387752 -0.85862446 -0.45204252
-1.515612 -1.3656943 -1.6137061 -0.61985666 -1.5257964 -1.5137463 -1.6857905 -0.48998597
-1.2721 -1.0581943 -1.4563006 -1.9669877 -2.0237336 -1.2823066 -0.59032786 -0.25613382
-0.88862455 -1.1262082 -1.1424398 -1.2033927 -0.5674821 -0.5145857 -0.60721713 -1.517359
-1.2177628 -0.489837 -0.5177379 -1.5228214 -1.2568907 -0.5120673 -1.1271077 -1.0818951
00000000: 2f96 15bf 2adc cdbd 0fef dfbe b45f 9fbf
00000010: afe8 27bf 75d3 74bc cd5e 86be ffce 11bf
00000020: 67da e4bf d3eb bbbf 55d2 edbf d708 c3be
00000030: 54b3 4abc 0167 28bd f205 aabf 5c6e 42bf
00000040: bb2f 39bf a7b7 90be 9f96 7abf 03cc 7ebf
00000050: f617 d8be 978a 3fbe 53a8 b9bf 7867 91bf
00000060: da6d ccbe 6195 bc3c c074 cfbf 58ca d2bf
00000070: d6d7 18bf 896c ddbe 440d 31bf 781e cfbd
00000080: 9cad 26bd 0314 70bc 6d98 c1be dffb f9be
00000090: 2716 eabf 7464 4fbf 9549 34bf 03a9 5fbf
000000a0: 44be 9ebe fbc9 27bf e113 17bf c8d3 c3bf
000000b0: e827 abbf 0404 34bf 46c6 95bf a8b4 d4bf
000000c0: faf1 17be 868d f9be 2a4a f6bf 2fee a4bf
000000d0: ab1e bcbf 80a8 2dbf ea43 8fbf cb25 0cbf
000000e0: 5362 46bf b3db a7bf e45e 26bf 0e34 d1bf
000000f0: dd08 84bf 2195 dbbe 9f0d 92bf fe8d edbc
00000100: a833 43bf 2e2c 08bf 237a 99bf 44dd 8fbf
00000110: 4386 31bf 8762 02bf fd60 9fbf 280a 8fbf
00000120: 0243 efbe 2aa8 f2bf bcd0 b3bf d113 fdbe
00000130: 3447 63be 2839 2abe 1b01 bfbf 5536 3abe
00000140: e342 00bf 43d3 c2bf 7d76 a53c 1866 2bbf
00000150: 1689 61bf 4bbf 11bf 4630 1ebf 1b7d e2be
00000160: dac1 11bf 4eb7 41bf b0fe 9cbf b211 c3bf
00000170: d3b6 fbbf f175 24be 4b5d 79bf dba3 bdbe
00000180: 1352 01bf fbfd 02bf 9583 18bf f5e3 ffbe
00000190: 40fd 00bf 6c35 c3bf 8543 02bf 15b3 17bf
000001a0: 9fb9 18bf 0b55 0fbf e649 aabf f7ef a3bf
000001b0: 7daa 83bf 5825 12bf d437 28bf c2c3 14bf
000001c0: 9d73 0fbf d24d 33bf b46b 79bf 28e0 4dbf
000001d0: e611 d9be 0adc 15be f2bb 8cbf 583f b3bf
000001e0: 7bc3 0bbf cac3 0bc0 709e 83bf e66e 7dbf
000001f0: c3b4 2abf a60b b53c 94a9 acbf 9b9d efbc
00000200: 622e cfbf 9001 89bf 8595 3cbf 9abf 8ebf
00000210: 85d7 1dbd 8f89 04c0 7a2e 8ebf 4cce abbf
00000220: e91d 99bf 0919 14bf f9f2 a1bf 4442 29be
00000230: 507e 47bf 9863 80be 7fdb fabe fa78 00bc
00000240: eccd c7bc 2ba8 3abf c626 1dbf e43e 9bbf
00000250: 2340 1dbf e16d 27c0 a796 38bf 804c 873c
00000260: 5c9e cabe 04d5 66bf 6440 bbbf 7b6a a7bf
00000270: d84c 96bf 7d49 11bf d6da 80be 1891 f6be
00000280: 2b29 f2bf 4b47 b9bf f2ca 33be 9a95 78bf
00000290: ea70 80bf ff4e 1cbe d3d7 833c 1558 fabf
000002a0: 9b8b b2be 696f f5be a6e2 fcbe 7973 e3bc
000002b0: 7de1 85bf 5fdc 44bf 69ff afbe dac0 38be
000002c0: 5a44 49bf 6a91 acbf 05d8 bbbe 5dae d2bd
000002d0: 4d1b 34bf 48ec 50bf f038 07bf b54c 90bf
000002e0: d7a9 e53c 78e9 d1be 1f0a bfbf 8fbf 8dbc
000002f0: 0da5 93bc 40b6 d4bf 7322 afbf 3213 93bf
00000300: f9aa cdbf e1cb 5dbd cfdb 28bf 9364 18bc
00000310: b8fc d6bf 9010 bebe b6a0 e6bf d698 46be
00000320: a0a5 c8bf 9f73 2dbe 2a1e 89bf 1a75 c4bf
00000330: 2b2e acbf fba3 9dbf 4f64 873c b496 08bf
00000340: 8e11 0cbe 51d9 2ebf a5ec 03bf f8e7 c13c
00000350: 6103 c1bf 17ee f7bf a72d acbf 84de a4bf
00000360: 5aaf 22be 34cf d8bf 9473 f9bf 644f b6bc
00000370: 90d3 cfbf bed2 1ebd d0ce 5bbf 1e72 e7be
00000380: 93ff c1bf 12cf aebf ec8d cebf edae 1ebf
00000390: 4c4d c3bf 70c2 c1bf fcc7 d7bf 71df fabe
000003a0: 2cd4 a2bf e972 87bf 0f68 babf 41c6 fbbf
000003b0: da84 01c0 9f22 a4bf ba1f 17bf f923 83be
000003c0: e67c 63bf 9727 90bf 783b 92bf c608 9abf
000003d0: 8246 11bf e3bb 03bf 9572 1bbf d238 c2bf
000003e0: a7df 9bbf eacb fabe 798a 04bf d0eb c2bf
000003f0: cbe1 a0bf d816 03bf 1145 90bf 8a7b 8abf

1.running_mean f4 [512]
-0.46126464 0.1541956 -0.6762201 -0.0866107 -0.33637413 -0.11732333 0.50447375 0.62871385
-0.15636641 -2.7677903 -0.50962013 -1.1887965 -1.1338581 0.98384404 -0.69081265 -0.80218834
0.64332294 0.8877416 -0.8605429 0.05947526 -0.59027964 -1.9320694 -1.8575019 -1.0796206
-0.41622847 -2.3362281 3.63035 -2.7975094 -0.29662672 0.96590203 0.22226149 2.0490985
-0.30961105 -0.11596646 0.13998164 1.589121 0.8108124 -1.5047857 -2.0336735 0.20858856
-1.6011369 0.07130299 0.09297945 -0.96067804 -1.1297158 -1.1942837 -0.49628654 -2.0277975
-0.12633242 -0.49190807 -0.21212043 -0.39647827 -0.95783025 0.260684 0.14021577 -0.22230583
0.6396296 0.04729642 0.79616106 -1.9391613 -1.4155765 1.3446916 -1.3170921 0.069839254
-0.61437064 -0.52515775 -2.7159138 -1.6145049 1.3900719 -2.1754272 1.1764666 -0.9062241
0.7694013 -0.29880625 0.8762541 -0.68806624 1.2329863 -0.6344355 -1.4658151 0.3615745
-2.1162012 -0.7998854 -0.78442806 0.86858904 -0.8702686 -0.89389694 0.81865466 0.98486465
1.4870104 -0.047150802 -0.07873558 -1.072605 1.1348644 -1.9659656 -1.1204603 0.4237506
-0.8424546 -1.2397256 0.63871217 -0.47670227 -0.28418767 -0.7129357 -0.53489643 0.15514866
-0.54246944 -2.0316715 -0.28714854 1.1427563 0.35900593 0.46514383 0.11043714 -0.19347742
-0.032447267 -1.1751795 -0.5096165 -0.3100107 -0.75103605 1.4502667 -0.09954841 -0.88511896
1.2216878 0.29433712 1.4204443 -2.0038397 0.88509077 -0.5603497 -1.1405743 -0.41065267
-0.89381725 -0.56817484 -1.1190649 1.6408496 0.204629 1.0510267 0.85681987 -0.7518001
0.7357403 -0.41243723 -0.8289112 -2.1674197 -1.3709129 -1.5315145 0.0398069 -0.037840433
-0.45458895 -1.8160743 -0.71393 0.16927311 0.027557764 -1.8011178 -1.4005315 -0.8302327
-0.8195588 1.3704299 1.0485162 -0.39503014 -1.2327605 0.32500988 -0.2574248 -0.18282263
-1.3724984 -2.2604918 -0.60177636 -1.92738 0.79511344 -0.21248041 -0.20013162 0.9753266
-0.5266314 -2.878696 -0.40441123 0.21287832 -1.6073174 1.4250531 1.8701409 1.7288083
0.43732682 1.8924476 -1.3949198 -0.3541248 -0.20285583 -1.2594688 -0.29349357 0.99075335
-0.82577306 -0.36917287 -1.7449265 0.1130819 -0.10557181 -2.3508017 -1.7494955 -2.061402
-0.7904201 0.39867857 -0.042674847 -0.11984456 -2.6852872 0.6359679 -0.9686709 -0.4197483
-0.87531555 -0.9631038 -1.0815966 0.06411268 0.7732145 -0.33260158 -0.09163011 1.9133588
-0.98461163 -0.15008183 -1.5269862 -0.01898168 -1.3329526 -2.0929668 -1.4787846 0.8529511
-0.68786895 -0.702735 0.9195124 -0.17070143 0.8629526 -0.21155275 -0.5135931 1.5122011
0.14647338 -2.2809517 1.5011646 -0.969206 -0.53755224 0.49331582 -1.0050544 -1.7829763
0.09242606 -2.1851275 0.20445304 0.89654064 -0.97840875 -0.5158099 -1.0610144 -0.6284561
-2.068177 -1.068317 0.665423 -0.788093 -1.4299451 -0.21315199 -0.59297854 -0.49497437
-0.7681627 1.4249516 0.2931725 -1.3049496 1.7772377 0.92373735 -1.887639 -0.8556381
00000000: e12a ecbe 74e5 1d3e c31c 2dbf f360 b1bd
00000010: 3b39 acbe 3747 f0bd 3125 013f 64f3 203f
00000020: 841e 20be 7a23 31c0 7776 02bf 7c2a 98bf
00000030: 4322 91bf 34dd 7b3f 19d9 30bf 375c 4dbf
00000040: d0b0 243f 0943 633f 8a4c 5cbf 559c 733d
00000050: 911c 17bf 0d4e f7bf 9fc2 edbf 0231 8abf
00000060: e61b d5be c384 15c0 a857 6840 650a 33c0
00000070: 75df 97be 5b45 773f 8498 633e 6e24 0340
00000080: 5785 9ebe d37f edbd 5957 0f3e 5168 cb3f
00000090: 6791 4f3f d19c c0bf b527 02c0 3d98 553e
000000a0: 0ef2 ccbf 4d07 923d 036c be3d ffee 75bf
000000b0: 879a 90bf 4ade 98bf 4519 febe 6fc7 01c0
000000c0: 495d 01be 60db fbbe 1936 59be 33ff cabe
000000d0: 5d34 75bf 6078 853e b994 0f3e 24a4 63be
000000e0: c4be 233f e4b9 413d 36d1 4b3f 7036 f8bf
000000f0: 9c31 b5bf db1e ac3f 7996 a8bf e207 8f3d
00000100: 6547 1dbf bd70 06bf 88d1 2dc0 19a8 cebf
00000110: e0ed b13f 333a 0bc0 7596 963f 4dfe 67bf
00000120: 7cf7 443f 22fd 98be 3052 603f 1c25 30bf
00000130: 7fd2 9d3f 5d6a 22bf d49f bbbf 4b20 b93e
00000140: d76f 07c0 4ac5 4cbf 47d0 48bf da5b 5e3f
00000150: ecc9 5ebf 6ed6 64bf 5a93 513f 1720 7c3f
00000160: 5b56 be3f 3321 41bd 1f40 a1bd 1f4b 89bf
00000170: 3d43 913f c3a4 fbbf 3e6b 8fbf d7f5 d83e
00000180: 1bab 57bf 54af 9ebf a482 233f 5212 f4be
00000190: 0c81 91be f482 36bf f9ee 08bf 4adf 1e3e
000001a0: 47df 0abf e806 02c0 2205 93be d745 923f
000001b0: a0cf b73e 5527 ee3e de2c e23d f21e 46be
000001c0: 6de7 04bd 486c 96bf 3a76 02bf b9b9 9ebe
000001d0: e643 40bf 57a2 b93f 09e0 cbbd 2897 62bf
000001e0: 4460 9c3f 5bb3 963e 1ed1 b53f e93e 00c0
000001f0: 4f95 623f 1473 0fbf 57fe 91bf 1141 d2be
00000200: 35d1 64bf e873 11bf 853d 8fbf 5c07 d23f
00000210: 448a 513e 0b88 863f 8c58 5b3f f975 40bf
00000220: 7a59 3c3f f92a d3be 8633 54bf 01b7 0ac0
00000230: 137a afbf ab08 c4bf 8f0c 233d 92fe 1abd
00000240: e2bf e8be 1f75 e8bf 1ec4 36bf ee55 2d3e
00000250: d2c0 e13c 078b e6bf 9e44 b3bf 218a 54bf
00000260: 9bce 51bf 3f6a af3f c735 863f 6441 cabe
00000270: 19cb 9dbf b267 a63e 2fcd 83be db35 3bbe
00000280: 07ae afbf e6ab 10c0 040e 1abf 63b4 f6bf
00000290: 8e8c 4b3f 7794 59be 4eef 4cbe 01af 793f
000002a0: 51d1 06bf 8e3c 38c0 fd0e cfbe c6fc 593e
000002b0: 94bc cdbf 2468 b63f c760 ef3f 9749 dd3f
000002c0: 4de9 df3e b93b f23f bb8c b2bf d94f b5be
000002d0: 70b9 4fbe 4636 a1bf ca44 96be 03a2 7d3f
000002e0: dd65 53bf 3a04 bdbe c059 dfbf 7c97 e73d
000002f0: 0836 d8bd 8973 16c0 78ef dfbf 03ee 03c0
00000300: f958 4abf 991f cc3e d2cb 2ebd 1171 f5bd
00000310: bfdb 2bc0 cbce 223f d1fa 77bf 40e9 d6be
00000320: ae14 60bf f88d 76bf c271 8abf 824d 833d
00000330: 63f1 453f c14a aabe 91a8 bbbd f1e8 f43f
00000340: 820f 7cbf 0daf 19be 4974 c3bf 787f 9bbc
00000350: 319e aabf 2bf3 05c0 d048 bdbf 015b 5a3f
00000360: 2e18 30bf 71e6 33bf 2a65 6b3f 5bcc 2ebe
00000370: 76ea 5c3f 49a1 58be d67a 03bf ce8f c13f
00000380: 1efd 153e 1dfb 11c0 2926 c03f e21d 78bf
00000390: 069d 09bf e493 fc3e 9fa5 80bf 9138 e4bf
000003a0: e049 bd3d 21d9 0bc0 235c 513e b083 653f
000003b0: ff78 7abf 1e0c 04bf 52cf 87bf 80e2 20bf
000003c0: 035d 04c0 9dbe 88bf 2959 2a3f 76c0 49bf
000003d0: 7108 b7bf 8444 5abe 71cd 17bf 486d fdbe
000003e0: 50a6 44bf d064 b63f b51a 963e 9708 a7bf
000003f0: 867c e33f 0d7a 6c3f 289e f1bf 190b 5bbf

1.running_var f4 [512]
5.541089 11.993808 9.956537 6.134917 13.420529 0.32075426 6.8771105 10.027179
9.506319 5.8127747 9.317391 5.6044817 21.27946 8.102044 4.632461 8.19934
12.64059 6.3939757 22.775187 3.753821 42.568512 4.862235 14.134908 8.4801035
6.893483 15.0184145 12.635803 11.70547 12.324532 10.937919 11.49519 12.4616995
0.2575988 0.12859352 3.718548 5.345848 5.266464 3.092049 9.190819 3.399503
8.090086 11.170869 23.840645 3.5061262 8.885639 6.932783 132.15228 3.5399396
0.12177886 3.6222699 4.9690604 12.069339 21.536394 102.64569 5.9274616 5.4141703
5.7044616 9.417997 11.128208 10.544642 13.406772 43.928303 8.906531 0.37917876
8.037521 41.102303 18.282084 6.2655873 5.776716 19.415207 11.230163 8.79445
4.200043 10.82868 4.6597815 18.826841 9.232084 11.941227 16.533756 5.453687
5.5116267 5.680096 18.209846 6.6613283 8.49888 4.8907943 4.4283347 42.779976
31.113752 3.9651315 4.3918223 11.108146 5.152621 5.784338 6.5557246 7.731211
7.0605965 6.010647 13.3846 18.295626 5.509371 6.757644 25.401104 23.452988
12.073767 5.850589 3.3303158 12.3101845 10.262322 29.874481 14.56338 9.185866
28.284004 4.88707 4.4998827 13.199028 43.580177 5.7370386 23.96536 10.078075
9.085137 2.1229827 28.136751 15.92988 6.466142 18.577805 11.747169 12.329868
14.098914 3.9082446 32.637775 5.2679057 0.17929423 15.368369 24.303684 14.062616
9.6056 6.5740247 13.546284 5.604624 6.8108153 8.529506 3.505507 0.1311745
1.198577 6.6841655 3.3433683 4.4736032 31.451126 5.854061 8.702804 12.987565
10.025689 19.976599 7.2630954 9.664629 176.68044 28.739574 15.9906845 6.5099115
5.0783424 8.175961 6.7624197 8.465188 9.063145 5.596278 13.251223 7.4119687
3.258982 16.541195 3.5456705 0.19322908 32.8882 4.709176 3.4154375 6.732938
7.92232 8.965638 7.625752 4.684643 8.242011 10.620251 41.462505 7.8201857
13.086805 6.346599 9.349177 0.17963073 0.08220062 5.3506756 5.827684 173.192
3.9375226 7.4891586 8.248458 0.2077482 4.8635845 6.6402073 10.913294 6.256781
8.754512 5.8379784 4.7075686 31.334274 7.0126557 16.83824 15.578674 2.9703321
5.6648226 11.300914 43.040607 16.170687 12.558334 3.842668 6.8695273 6.785591
12.097853 5.955983 7.348712 0.15083857 8.853544 1.0211723 14.137453 8.948115
4.7675467 14.033803 14.831004 8.636757 11.48565 9.79664 7.1917877 12.634327
8.37375 9.342762 2.2594478 10.12322 2.9554377 11.637614 9.6079 6.6916246
8.329286 5.153811 7.8776436 8.213433 51.742527 22.494007 3.2262697 3.4543402
8.386278 16.94277 43.387867 14.62449 8.647852 13.450357 10.451242 7.3210707
00000000: 9a50 b140 a3e6 3f41 fa4d 1f41 3d51 c440
00000010: 7dba 5641 e739 a43e 4a11 dc40 536f 2041
00000020: e219 1841 4002 ba40 0914 1541 ea57 b340
00000030: 563c aa41 f9a1 0141 1f3d 9440 7f30 0341
00000040: db3f 4a41 739b cc40 9533 b641 9a3e 7040
00000050: 2846 2a42 6e97 9b40 9528 6241 81ae 0741
00000060: 6a97 dc40 6d4b 7041 402c 4a41 9b49 3b41
00000070: 4831 4541 b701 2f41 4cec 3741 1f63 4741
00000080: fde3 833e 05ae 033e b1fc 6d40 3011 ab40
00000090: e086 a840 21e4 4540 980d 1341 7591 5940
000000a0: fe70 0141 e1bb 3241 a4b9 be41 5f64 6040
000000b0: 942b 0e41 5cd9 dd40 fc26 0443 5f8e 6240
000000c0: 3267 f93d 45d3 6740 8b02 9f40 031c 4141
000000d0: 894a ac41 984a cd42 c4ad bd40 e240 ad40
000000e0: f38a b640 1eb0 1641 240d 3241 dbb6 2841
000000f0: 2382 5641 95b6 2f42 2781 0e41 b823 c23e
00000100: b099 0041 c268 2442 b541 9241 b17f c840
00000110: dcda b840 5852 9b41 bfae 3341 11b6 0c41
00000120: c166 8640 4642 2d41 ee1c 9540 5f9d 9641
00000130: 9eb6 1341 440f 3f41 2245 8441 9b84 ae40
00000140: 3f5f b040 59c3 b540 c4ad 9141 9a29 d540
00000150: 6afb 0741 6381 9c40 ebb4 8d40 b21e 2b42
00000160: f7e8 f841 b7c4 7d40 cf89 8c40 f7ba 3141
00000170: 45e2 a440 4c19 b940 7fc8 d140 1566 f740
00000180: 68f0 e140 3857 c040 5227 5641 715d 9241
00000190: c44c b040 9f3e d840 7635 cb41 b89f bb41
000001a0: 262e 4141 0638 bb40 e523 5540 84f6 4441
000001b0: 7932 2441 f0fe ee41 9b03 6941 4ff9 1241
000001c0: a445 e241 e162 9c40 0aff 8f40 382f 5341
000001d0: 1a52 2e42 d295 b740 0fb9 bf41 cc3f 2141
000001e0: b95c 1141 f3de 0740 1118 e141 cae0 7e41
000001f0: a3ea ce40 589f 9441 67f4 3b41 2447 4541
00000200: 2795 6141 ae20 7a40 158d 0242 af92 a840
00000210: e898 373e d7e4 7541 f26d c241 7a00 6141
00000220: 8ab0 1941 695e d240 94bd 5841 1459 b340
00000230: 33f2 d940 db78 0841 3a5a 6040 9c52 063e
00000240: f96a 993f afe4 d540 bff9 5540 c227 8f40
00000250: e89b fb41 7854 bb40 af3e 0b41 11cd 4f41
00000260: 3969 2041 13d0 9f41 476b e840 52a2 1a41
00000270: 31ae 3043 a6ea e541 d8d9 7f41 3251 d040
00000280: c881 a240 bcd0 0241 be65 d840 6971 0741
00000290: a402 1141 b614 b340 0205 5441 d92e ed40
000002a0: 2993 5040 5e54 8441 44ec 6240 d8dd 453e
000002b0: 848d 0342 92b1 9640 8796 5a40 3a74 d740
000002c0: a583 fd40 4173 0f41 2906 f440 98e8 9540
000002d0: 47df 0341 8cec 2941 9bd9 2542 f63e fa40
000002e0: 8e63 5141 5717 cb40 3b96 1541 1ef1 373e
000002f0: cc58 a83d bc38 ab40 637c ba40 2731 2d43
00000300: 5f00 7c40 30a7 ef40 aff9 0341 f2bb 543e
00000310: 7ca2 9b40 947c d440 da9c 2e41 8d37 c840
00000320: 7b12 0c41 b8d0 ba40 67a4 9640 98ac fa41
00000330: ad67 e040 b7b4 8641 4042 7941 ec19 3e40
00000340: 3a46 b540 8bd0 3441 9529 2c42 915d 8141
00000350: f0ee 4841 46ee 7540 2bd3 db40 9023 d940
00000360: ce90 4141 6a97 be40 a628 eb40 6d75 1a3e
00000370: 1ea8 0d41 c6b5 823f 0233 6241 7b2b 0f41
00000380: be8f 9840 758a 6041 cb4b 6d41 2830 0a41
00000390: 39c5 3741 0abf 1c41 2023 e640 3426 4a41
000003a0: e1fa 0541 f47b 1541 cb9a 1040 b6f8 2141
000003b0: e425 3d40 ab33 3a41 f5b9 1941 ca21 d640
000003c0: c144 0541 05ec a440 a815 fc40 396a 0341
000003d0: 59f8 4e42 baf3 b341 347b 4e40 e913 5d40
000003e0: 322e 0641 cb8a 8741 2d8d 2d42 e9fd 6941
000003f0: 9a5d 0a41 aa34 5741 4a38 2741 3646 ea40

4.weight f4 [256, 512]
-0.25776672 -1.0384917 0.65075606 0.014908129 0.90449786 -0.078156106 -0.4112199 0.95549047
-3.2329369 0.69666547 0.29518625 0.37355387 1.0947189 1.0093718 -1.1646459 0.23290679
-0.12292007 -0.07148752 -0.33305842 -0.5023454 0.13451476 1.6678658 1.029691 -0.60617
-0.56672174 1.2950488 0.9971231 0.6473354 -0.29069725 0.8937336 1.7227492 -0.5781723
-0.019435456 0.05660472 0.1688544 1.2348775 -4.383493 -0.38948122 -0.04328873 -0.48498613
0.05648023 -0.03649356 0.5632445 1.0422792 0.54607284 -0.64806837 1.7290409 -0.15144187
0.03123614 0.3655265 1.0335674 -0.20147537 -0.3624639 0.20967777 -4.818176 -0.17206326
0.75069857 -0.69391316 0.38234812 -1.5740813 -0.2125248 -0.2007767 -0.17568707 -0.0070540425
0.5867814 0.344213 -0.596237 1.276786 0.00063967647 -0.76008433 1.6078652 -0.13422969
1.8764509 3.6700172 1.2220145 -0.40590099 0.44710705 -0.1422019 3.0103266 0.09572819
-0.39075497 0.041728564 1.2536856 -1.27656 1.2977042 -0.15683278 -0.5309058 0.018794455
-0.7674583 0.96906704 -2.0225942 1.1793896 -0.027705092 -0.057598412 0.4964217 0.43990323
-0.5869889 0.888793 -0.0633637 0.45885146 -0.45564172 0.95444256 -0.8570823 -0.055558916
0.22687547 0.1723795 0.47231904 -7.37452 0.43743294 -0.807365 -0.7596591 0.6111178
-0.8538349 -0.65472364 0.5491996 0.8500474 -0.06273302 0.08611629 -0.2990886 3.5496762
-0.21113345 -0.47345892 1.3674228 0.5395851 -0.08756424 1.1249384 -9.834001 0.71381295
-0.070002586 -3.888957 0.40752593 0.72833866 0.096746676 0.28329778 -0.5866642 -2.0389204
1.7482623 1.21478 0.21762645 0.02278724 -0.45990568 -0.20221385 0.013124989 -0.0020059843
0.091076575 -0.014138652 -1.3964936 1.0387095 1.8717014 -0.40846834 1.0967016 1.1106685
0.8713005 0.8310035 -0.571908 0.24310188 1.4873596 -1.0298898 1.2765483 -0.1838121
1.1839228 1.2348095 -0.22640008 -2.3106008 0.36776915 -0.44600075 1.0645335 -2.6792943
-0.09684679 -0.20455559 -0.2127543 0.013082173 -0.4114715 0.7375066 -0.40385163 -0.16999869
0.06587895 0.10030598 0.6117846 -0.6188134 -0.13162045 0.19423266 0.39507338 -0.61354434
1.3097466 -0.022572847 -0.118459344 0.02247614 0.044613767 0.2876098 0.025513716 1.3963299
-5.9669194 0.014988198 -0.4471911 -0.033764806 1.3689743 1.4944667 -7.181163 -0.086965665
0.0012842161 0.24745867 0.745086 -0.23219931 0.110662 -0.66979915 0.91249967 0.36867782
0.472444 0.35694778 0.15554908 1.4673287 -0.23331429 -9.474137 0.5483937 -0.18199554
-0.11504497 0.07203948 -1.2151867 -0.01688595 0.31383482 0.16258813 1.1251682 -1.1787214
0.17598324 1.0756006 -1.2123499 0.3275652 -0.33343834 0.36319694 -0.090697944 1.1769345
1.0909797 0.041535854 -12.052739 -0.08472036 -3.6944706 1.126252 -0.29927707 0.085055694
0.97578675 0.32645088 -1.3172988 0.68697816 -0.25366652 -1.0730834 -0.78566176 -3.821133
0.69168586 -0.37385076 0.07634487 0.19617486 0.33852783 2.5245094 0.6117424 0.41114008
00000000: 00fa 83be 4ced 84bf f397 263f 3a41 743c
00000010: 2c8d 673f 4f10 a0bd 6a8b d2be 069b 743f
00000020: 70e8 4ec0 ab58 323f a722 973e 7442 bf3e
00000030: c01f 8c3f 1833 813f 1e13 95bf 1e7f 6e3e
00000040: 85bd fbbd 0d68 92bd a286 aabe b599 00bf
00000050: 3dbe 093e a07c d53f eacc 833f f52d 1bbf
00000060: ad14 11bf 29c4 a53f 7643 7f3f c6b7 253f
00000070: 45d6 94be bacb 643f 0c83 dc3f 1a03 14bf
00000080: 1b37 9fbc 5ada 673d 2be8 2c3e 7710 9e3f
00000090: 9345 8cc0 156a c7be 864f 31bd 1a50 f8be
000000a0: d057 673d 457a 15bd cb30 103f 6869 853f
000000b0: 6ecb 0b3f cfe7 25bf 3651 dd3f 9413 1bbe
000000c0: efe2 ff3c 4a26 bb3e f04b 843f 8f4f 4ebe
000000d0: de94 b9be c5b5 563e 7f2e 9ac0 5a31 30be
000000e0: c82d 403f 4ba4 31bf 22c3 c33e 7f7b c9bf
000000f0: 1aa0 59be 6898 4dbe 50e7 33be 9925 e7bb
00000100: 4e37 163f b03c b03e fda2 18bf b96d a33f
00000110: f6af 273a e394 42bf 87ce cd3f 8273 09be
00000120: 8b2f f03f 90e1 6a40 f96a 9c3f 41d2 cfbe
00000130: 37eb e43e 609d 11be 31a9 4040 240d c43d
00000140: 0911 c8be 92eb 2a3d c578 a03f 5166 a3bf
00000150: 2c1b a63f c698 20be 71e9 07bf d4f6 993c
00000160: 2678 44bf c714 783f 2f72 01c0 3df6 963f
00000170: caf5 e2bc 50ec 6bbd fc2a fe3e ff3a e13e
00000180: e844 16bf f087 633f d4c4 81bd 94ee ea3e
00000190: df49 e9be 5956 743f bf69 5bbf bf91 63bd
000001a0: 0b52 683e 4084 303e cdd3 f13e 11fc ebc0
000001b0: 36f7 df3e 79af 4ebf 0579 42bf 3772 1c3f
000001c0: ed94 5abf f89b 27bf 5898 0c3f b59c 593f
000001d0: 2b7a 80bd bd5d b03d 2422 99be e52d 6340
000001e0: 5e33 58be 3569 f2be b607 af3f 4022 0a3f
000001f0: e154 b3bd fbfd 8f3f 1158 1dc1 72bc 363f
00000200: 845d 8fbd ace4 78c0 3da7 d03e 6774 3a3f
00000210: 1f23 c63d 680c 913e a02f 16bf ac7d 02c0
00000220: 0fc7 df3f e97d 9b3f 78d9 5e3e 4eac ba3c
00000230: c278 ebbe 2611 4fbe 320a 573c d576 03bb
00000240: 5b86 ba3d cea5 67bc 4dc0 b2bf 6ff4 843f
00000250: e993 ef3f c322 d1be b860 8c3f 632a 8e3f
00000260: 8d0d 5f3f a5bc 543f 9068 12bf b3ef 783e
00000270: cd61 be3f 6ed3 83bf ef65 a33f 3d39 3cbe
00000280: c88a 973f 3d0e 9e3f 6cd5 67be e2e0 13c0
00000290: 3d4c bc3e 365a e4be a242 883f 8f79 2bc0
000002a0: 9c57 c6bd 0577 51be 43dc 59be 9c56 563c
000002b0: 64ac d2be 3ccd 3c3f a4c5 cebe 2314 2ebe
000002c0: 8beb 863d 396d cd3d ea9d 1c3f 8e6a 1ebf
000002d0: 83c7 06be ede4 463e 0f47 ca3e 3e11 1dbf
000002e0: c7a5 a73f b1ea b8bc d09a f2bd e21f b83c
000002f0: edbc 363d 9741 933e 2402 d13c f0ba b23f
00000300: 01f1 bec0 0f91 753c 3bf6 e4be f74c 0abd
00000310: 8d3a af3f af4a bf3f 16cc e5c0 0e1b b2bd
00000320: 2453 a83a ce65 7d3e f5bd 3e3f a8c5 6dbe
00000330: c2a2 e23d f577 2bbf 9499 693f 57c3 bc3e
00000340: 2ee4 f13e dcc1 b63e 4248 1f3e 6dd1 bb3f
00000350: f1e9 6ebe 1196 17c1 8863 0c3f 0a5d 3abe
00000360: b29c ebbd 6f89 933d 3d8b 9bbf 6754 8abc
00000370: f5ae a03e 817d 263e 8305 903f 58e0 96bf
00000380: f334 343e 48ad 893f 482e 9bbf a0b6 a73e
00000390: 6eb8 aabe f3f4 b93e d8bf b9bd caa5 963f
000003a0: 39a5 8b3f 8021 2a3d 05d8 40c1 de81 adbd
000003b0: 3572 6cc0 0729 903f d83a 99be ae31 ae3d
000003c0: 29cd 793f 9224 a73e 3f9d a8bf cddd 2f3f
000003d0: 94e0 81be cc5a 89bf 2121 49bf 718d 74c0
000003e0: 5312 313f 5e69 bfbe b35a 9c3d 10e2 483e
000003f0: 8553 ad3e 9091 2140 269b 1c3f f480 d23e

4.bias f4 [256]
1.5153816 -1.4986892 -0.48902902 -0.5934886 -0.45562363 -2.731154 -2.8523595 -2.0676343
0.29581767 -0.89313847 0.61215174 -3.0161512 0.42445073 -2.5857096 -1.3556894 -2.2981935
-0.7383448 0.5459612 0.22964065 -0.093502425 -1.095328 -1.3105472 -0.7769937 -2.0724194
-1.8958838 -4.0266924 1.739912 0.9360331 0.79270494 -1.6808051 -0.102258705 -1.4336357
-0.40226722 -2.1770914 -2.5372047 -1.1838325 -4.8214684 2.132295 -3.5156534 1.4129227
0.33825174 0.19336754 0.099411085 0.4539069 -1.8833036 0.68385816 -0.61045027 -0.4427132
-1.567365 -1.2633281 -1.0804075 -0.44290254 -0.29268873 -0.8362033 0.19958381 0.37695524
5.19782 -1.0944397 2.1307797 0.7371544 -3.6457307 -1.2637271 -0.5375418 1.0162888
0.5169932 -6.434051 -2.1498873 -5.191342 -0.7284229 -0.5078953 -0.3970834 0.54012465
0.7948269 1.5538011 -2.3678937 -1.1312542 -0.24045403 -0.71450067 0.83396435 -0.71829456
-1.0301323 2.1175125 0.1937174 -0.6278348 -2.212246 -1.3250414 1.1923072 0.038654596
0.1758438 -1.5265061 -1.9316024 -1.2207793 0.06542358 -0.18326977 0.9994492 2.6878526
-2.391187 0.59357995 -0.21537279 -1.4032525 -0.677073 -1.3696749 1.3103426 -3.6751506
0.28495318 0.79826313 -9.77581 -2.4472463 -1.2445644 0.47158018 0.5177733 1.2181188
-1.0284256 -2.2176716 0.95818365 0.16889699 3.7669654 0.750147 -0.6689513 -0.5410952
0.05266363 -0.8520603 -0.9879294 -0.5236085 -1.176674 -1.1712497 -0.18247373 -0.25145927
2.4025464 -1.2683936 -0.022181172 1.8712088 -0.067597196 -1.8703537 0.23095998 1.6647205
-0.5392085 -0.9716345 -0.112935334 1.0645515 -10.696734 0.5758227 -0.822979 -0.073208556
0.69161296 0.24956456 -1.1454475 -2.9060125 -0.9686908 -0.39059314 -0.3462 1.1148533
-1.2132199 -1.6282259 1.3358922 -0.6293712 -1.0797632 0.9389001 -1.3277242 -1.0552877
0.010208253 -0.66430175 -2.2590902 -1.8002557 1.3244072 -1.1301463 2.1368573 -2.378895
-2.3055832 -2.104154 0.96546763 0.068161555 -0.8396197 -1.3892064 0.83275473 -0.6824503
1.0519999 0.7059023 0.70850253 -1.0088605 0.74911255 -0.17925137 0.30770236 -1.4282861
-1.9371694 0.44509888 -1.7342255 -0.36819214 2.5002565 -1.4298464 -0.80803615 1.2374717
0.48216182 -1.0901535 1.4905772 -1.2298012 2.653778 -2.328712 -0.31222093 0.4337969
0.054881018 0.017248368 -5.2980204 0.30105957 -2.7116039 -3.3996933 -0.85158753 -3.085144
-1.8701799 0.27652788 -0.52892417 -2.018411 0.98822665 0.12452833 1.2117169 -2.8478441
-0.4996333 0.26590303 0.33239362 -0.8240839 -4.1056976 -1.4005054 2.1007142 -1.5889819
1.0008355 2.6000926 -0.26886758 0.5488967 -1.1446006 0.79193425 -6.5157895 0.3525072
-1.5772207 -2.310924 -2.5228918 -1.9343688 -1.3312225 -0.29745635 -3.509093 -4.707933
0.6464538 -2.1930459 -4.585636 -0.55711657 0.46467122 0.9655937 -1.2708966 -0.27157527
-2.7331781 0.28928655 0.8774599 -1.9794098 0.075285666 -2.887178 0.013792161 -1.0153906
00000000: 06f8 c13f 0cd5 bfbf 0362 fabe deee 17bf
00000010: 8047 e9be 3acb 2ec0 0f8d 36c0 1f54 04c0
00000020: 6a75 973e b9a4 64bf fab5 1c3f 9f08 41c0
00000030: 9b51 d93e 447c 25c0 3b87 adbf 9a15 13c0
00000040: 2a04 3dbf 1dc4 0b3f eb26 6b3e 337e bfbd
00000050: b533 8cbf 03c0 a7bf 0fe9 46bf 85a2 04c0
00000060: 52ac f2bf aada 80c0 70b5 de3f de9f 6f3f
00000070: b6ee 4a3f 9f24 d7bf 036d d1bd 6081 b7bf
00000080: f8f5 cdbe 7755 0bc0 9061 22c0 d387 97bf
00000090: 7849 9ac0 8577 0840 7700 61c0 a7da b43f
000000a0: 552f ad3e 2402 463e 0a98 cb3d 7c66 e83e
000000b0: 1810 f1bf 5411 2f3f 7846 1cbf 4eab e2be
000000c0: 6b9f c8bf bcb4 a1bf cb4a 8abf 1fc4 e2be
000000d0: 4cdb 95be 6b11 56bf b35f 4c3e 4700 c13e
000000e0: 8b54 a640 9a16 8cbf b25e 0840 27b6 3c3f
000000f0: a753 69c0 cfc1 a1bf 579c 09bf c015 823f
00000100: ab59 043f bfe3 cdc0 c197 09c0 791f a6c0
00000110: ec79 3abf 6d05 02bf 844e cbbe 9c45 0a3f
00000120: c779 4b3f f4e2 c63f 928b 17c0 f0cc 90bf
00000130: 9539 76be 84e9 36bf b07e 553f 27e2 37bf
00000140: 60db 83bf 5385 0740 db5d 463e c8b9 20bf
00000150: 7095 0dc0 f59a a9bf 869d 983f 4854 1e3d
00000160: 6610 343e 8d64 c3bf bf3e f7bf 7f42 9cbf
00000170: ccfc 853d 12ab 3bbe e7db 7f3f c705 2c40
00000180: 3509 19c0 dbf4 173f af8a 5cbe c79d b3bf
00000190: a854 2dbf 8251 afbf 4eb9 a73f ab35 6bc0
000001a0: 62e5 913e f95a 4c3f b869 1cc1 af9f 1cc0
000001b0: e34d 9fbf f572 f13e ca8c 043f 51eb 9b3f
000001c0: 73a3 83bf 55ee 0dc0 864b 753f 55f3 2c3e
000001d0: f615 7140 a209 403f 6440 2bbf 3785 0abf
000001e0: d2b5 573d a020 5abf f1e8 7cbf 350b 06bf
000001f0: 419d 96bf 83eb 95bf 65da 3abe 45bf 80be
00000200: 52c3 1940 b95a a2bf 4ab5 b5bc c583 ef3f
00000210: 6670 8abd c067 efbf c680 6c3e 9015 d53f
00000220: 9109 0abf 0abd 78bf a44a e7bd 3943 883f
00000230: d325 2bc1 1e69 133f c0ae 52bf 5eee 95bd
00000240: 8c0d 313f da8d 7f3e 069e 92bf 1cfc 39c0
00000250: 1ffc 77bf d3fb c7be 2041 b1be 83b3 8e3f
00000260: ca4a 9bbf b569 d0bf 84fe aa3f 791e 21bf
00000270: ae35 8abf c25b 703f def2 a9bf ab13 87bf
00000280: 8440 273c ae0f 2abf ef94 10c0 c76e e6bf
00000290: 2d86 a93f a2a8 90bf 45c2 0840 d13f 18c0
000002a0: ad8e 13c0 76aa 06c0 e328 773f 4998 8b3d
000002b0: 51f1 56bf 84d1 b1bf 6a2f 553f 10b5 2ebf
000002c0: efa7 863f 03b6 343f 6c60 353f 5722 81bf
000002d0: d7c5 3f3f ac8d 37be 2a8b 9d3e 14d2 b6bf
000002e0: 2bf5 f7bf 00e4 e33e 1afb ddbf ae83 bcbe
000002f0: 3404 2040 3505 b7bf 75db 4ebf 7965 9e3f
00000300: eadd f63e 268a 8bbf 3ccb be3f 206a 9dbf
00000310: 80d7 2940 9e09 15c0 6cdb 9fbe a11a de3e
00000320: ebca 603d 734c 8d3c 6289 a9c0 7b24 9a3e
00000330: eb8a 2dc0 9394 59c0 a401 5abf 0073 45c0
00000340: 0e62 efbf 1095 8d3e 9367 07bf a52d 01c0
00000350: 6cfc 7c3f b608 ff3d 8a19 9b3f 1443 36c0
00000360: f0cf ffbe 7124 883e 7f2f aa3e 2af7 52bf
00000370: e061 83c0 c343 b3bf 1a72 0640 c263 cbbf
00000380: 611b 803f eb67 2640 03a9 89be 7e84 0c3f
00000390: 4682 92bf 34bc 4a3f 5981 d0c0 d37b b43e
000003a0: 5ee2 c9bf 2ee6 13c0 0f77 21c0 6699 f7bf
000003b0: 8065 aabf 334c 98be fb94 60c0 63a7 96c0
000003c0: ff7d 253f dd5a 0cc0 88bd 92c0 319f 0ebf
000003d0: 63e9 ed3e 2631 773f bdac a2bf ea0b 8bbe
000003e0: 64ec 2ec0 5e1d 943e 36a1 603f 4d5d fdbf
000003f0: 5f2f 9a3d 86c7 38c0 84f8 613c 52f8 81bf
