MLP_ERCOT_2022_models/delta_CO2_round1/2023_10_31-04_31_15_PM/epoch=13020,r2=0.8356,Invalids=0.pth (torch, 692689 bytes, 20 tensors)

0.weight f4 [512, 5]
-0.08529984 0.17730288 0.053969454 0.15278594 -0.0005168782 -0.005712506 0.011981743 0.0060204295
0.30604264 -0.30276114 -0.068108164 -0.0012621649 0.7064969 0.08491871 -0.11952371 0.54825896
0.0032633217 0.082804285 -0.121956795 0.12831178 0.016638663 0.08383913 -0.5119081 0.2761609
-0.16740735 -0.08180078 -0.025171317 0.5790229 -0.22476979 0.20323515 0.004210527 0.0013328008
0.47308153 0.12989116 -0.33440298 0.0066615627 -0.042812474 0.5329263 0.021765688 -0.09046865
-0.092939846 -0.011377535 0.7109835 -0.08786482 0.01338619 0.025151497 0.4143715 -0.28736255
0.155199 -0.11893547 -0.03332879 0.061139114 -0.31420788 -0.16582786 0.23806769 0.31450063
0.061184213 0.05991346 -0.3311224 0.078299865 0.31050113 -0.12771775 -0.23793888 -0.02613552
0.3406212 -0.027541388 -0.014309451 -0.0044022715 -0.29103583 0.30377913 -0.0557046 0.0015419172
0.6025049 0.042030517 -0.0741575 0.06464567 0.0072450256 -0.042016637 -0.22858162 0.46338415
0.013399107 -0.015923755 0.46025303 0.21920073 -0.26361573 -0.14918949 -0.29875743 -0.21084197
-0.07425279 0.24473615 -0.14602618 -0.07435088 -0.34017846 0.2237376 0.05634839 -0.004342957
-0.010699674 0.8661133 -0.09965473 0.15953043 -0.07249829 0.031867266 -0.02740499 0.29968834
-0.28084737 0.3818136 0.11706951 -0.12089221 -0.07576796 -0.2552268 0.15461333 0.09909908
0.12898293 0.24361095 0.24142808 -0.025417812 0.10584955 0.100998685 0.35484222 -0.2744898
-0.0046313265 0.06260148 -0.0014815236 0.29851773 -0.28917927 -0.15346068 -0.25595278 -0.13789254
0.2904454 -0.26352426 -0.230576 0.1084322 0.017787099 -0.36874554 0.040201105 -0.074564695
-0.3358572 0.13705766 0.10426774 0.20554714 0.2958299 -0.028189603 0.17085384 0.41726625
0.06588356 0.16025649 0.3367662 0.2994057 0.117687285 0.0432609 -0.12530439 0.26132184
-0.41141483 0.04652637 -0.15431994 0.25883347 0.10116903 -0.21997629 -0.34823808 0.19990684
0.31859538 -0.19228663 0.28037983 -0.11570413 -0.1872119 0.19166791 0.28281876 -0.21350491
-0.1793341 -0.38253257 0.05399991 -0.15010878 -0.13411126 0.16539142 -0.30503696 0.019312812
-0.034505706 -0.079185866 -0.04408959 0.44939533 0.0023557178 -0.03490844 -0.027136749 -0.28333208
0.2932158 0.1295665 0.013463773 -0.44099623 0.03310773 -0.20463878 0.3692112 0.102985606
-0.09623233 -0.068338126 -0.2269753 0.24709919 0.07249029 -0.23319861 -0.1874101 0.07056937
-0.11645874 -0.06580069 -0.3425798 0.024348702 -0.18056388 -0.5335949 -0.1157336 0.01778953
-0.11735815 0.10772001 -0.009932844 -0.031119585 -0.16997848 -0.105889395 0.28153828 -0.41673535
-0.04443457 0.13802056 0.09861445 -0.061603755 -0.043374233 -0.46837646 0.07856791 0.008322902
-0.037059005 -0.15029716 -0.03877722 -0.46468636 0.089997046 0.10302185 -0.067067854 -0.0244491
-0.47056672 -0.008948053 0.16429767 -0.053622086 0.006758187 0.5393136 0.0134696495 -0.03721603
-0.017863862 0.15052311 -0.13999075 0.038163505 -0.4099826 -0.23758975 0.3513974 0.007832184
0.34653732 0.16358636 0.024039764 0.0094242925 0.6219278 -0.14786069 -0.07056611 0.19360375
00000000: afb1 aebd e38e 353e 130f 5d3d eb73 1c3e
00000010: 1c7f 07ba f92f bbbb 134f 443c 0647 c53b
00000020: 9fb1 9c3e 8203 9bbe 4b7c 8bbd 3a6f a5ba
00000030: fbdc 343f dce9 ad3d d9c8 f4bd b35a 0c3f
00000040: 74dd 553b 4b95 a93d 7cc4 f9bd 2a64 033e
00000050: ce4d 883c dab3 ab3d 690c 03bf f664 8d3e
00000060: d56c 2bbe 2b87 a7bd 1434 cebc d83a 143f
00000070: 0d2a 66be e01c 503e 76f8 893b 60b1 ae3a
00000080: be37 f23e 3002 053e de36 abbe 3d49 da3b
00000090: 225c 2fbd dc6d 083f f54d b23c a147 b9bd
000000a0: 3f57 bebd d768 3abc 0403 363f 79f2 b3bd
000000b0: c051 5b3c 830a ce3c 8028 d43e 2f21 93be
000000c0: 7dec 1e3e 7194 f3bd c583 08bd 026d 7a3d
000000d0: dbdf a0be c7ce 29be 04c8 733e 3a06 a13e
000000e0: 4c9c 7a3d d167 753d e088 a9be ae5b a03d
000000f0: 01fa 9e3e 71c8 02be 40a6 73be 281a d6bc
00000100: e765 ae3e 7a9e e1bc 3072 6abc ee40 90bb
00000110: a602 95be f088 9b3e 822a 64bd 281a ca3a
00000120: c33d 1a3f 3128 2c3d e3df 97bd f364 843d
00000130: ae67 ed3b a319 2cbd 4d11 6abe b040 ed3e
00000140: ee87 5b3c 8972 82bc 49a6 eb3e 2876 603e
00000150: a4f8 86be 21c5 18be bcf6 98be f5e6 57be
00000160: d911 98bd 1d9c 7a3e e387 15be 4645 98bd
00000170: df2b aebe 781b 653e 92cd 663d 5d4f 8ebb
00000180: af4d 2fbc 9ab9 5d3f c717 ccbd f25b 233e
00000190: fc79 94bd 4087 023d 6e80 e0bc c070 993e
000001a0: 3acb 8fbe 127d c33e 24c2 ef3d 5696 f7bd
000001b0: 3b2c 9bbd 16ad 82be f552 1e3e 75f4 ca3d
000001c0: 1a14 043e 2675 793e ec38 773e 0439 d0bc
000001d0: a6c7 d83d 66d8 ce3d e1ad b53e ed89 8cbe
000001e0: 62c2 97bb 3435 803d af2f c2ba 51d7 983e
000001f0: 4e0f 94be cc24 1dbe 3e0c 83be b433 0dbe
00000200: 42b5 943e a7ec 86be 1d1c 6cbe b411 de3d
00000210: 40b6 913c 37cc bcbe eaa9 243d 60b5 98bd
00000220: 7af5 abbe d858 0c3e 538a d53d f37a 523e
00000230: 0477 973e e2ed e6bc 4ff4 2e3e eca3 d53e
00000240: f6ed 863d 471a 243e 9f6c ac3e b44b 993e
00000250: 0806 f13d 5732 313d cb4f 00be facb 853e
00000260: f7a4 d2be 6f92 3e3d 0c06 1ebe d285 843e
00000270: b531 cf3d 7741 61be 434c b2be 61b4 4c3e
00000280: ef1e a33e c9e6 44be f28d 8f3e 49f6 ecbd
00000290: 7ab4 3fbe 9844 443e 9fcd 903e 08a1 5abe
000002a0: 5ca3 37be 4fdb c3be 022f 5d3d 1eb6 19be
000002b0: 7654 09be 5e5c 293e ce2d 9cbe e735 9e3c
000002c0: db55 0dbd 332c a2bd 4997 34bd 2517 e63e
000002d0: 6362 1a3b 27fc 0ebd e34d debc e710 91be
000002e0: 6220 963e 15ad 043e 2897 5c3c 42ca e1be
000002f0: f99b 073d d48c 51be 4009 bd3e 1eea d23d
00000300: 7515 c5bd dcf4 8bbd 376c 68be 9207 7d3e
00000310: ca75 943d 9ecb 6ebe 6fe8 3fbe ad86 903d
00000320: eb81 eebd 83c2 86bd 9f66 afbe ee76 c73c
00000330: bde5 38be ad99 08bf bd05 edbd 59bb 913c
00000340: 7859 f0bd 4f9c dc3d 5ebd 22bc 80ee febc
00000350: d70e 2ebe 8adc d8bd c925 903e 565e d5be
00000360: 0601 36bd 4355 0d3e 5ff6 c93d 3854 7cbd
00000370: 2ea9 31bd 0acf efbe 36e8 a03d c85c 083c
00000380: 2fcb 17bd 80e7 19be ddd4 1ebd 5feb edbe
00000390: 5f50 b83d 1ffd d23d df5a 89bd 7b49 c8bc
000003a0: 1fee f0be db9a 12bc a63d 283e d5a2 5bbd
000003b0: c873 dd3b 7510 0a3f ceaf 5c3c d66f 18bd
000003c0: 3c57 92bc bb22 1a3e bc59 0fbe 5651 1c3d
000003d0: 3de9 d1be ba4a 73be 5cea b33e 9052 003c
000003e0: 576d b13e 2f83 273e 0aef c43c 5968 1a3c
000003f0: a936 1f3f cb68 17be f784 90bd 1040 463e

0.bias f4 [512]
0.09809571 0.041640658 0.0131453 0.118310034 0.014296484 0.09714834 0.34422472 0.3989397
0.15095352 0.36840728 -0.16759604 0.123138346 -0.001837655 0.08637603 0.40116826 -0.032324933
-0.25704545 0.068548106 -0.113292806 -0.0054710475 0.065352865 -0.078439 -0.029315388 0.12330567
0.070506856 0.052507844 -0.15075634 0.12826872 0.08427955 0.014927737 -0.021497196 -0.2660408
0.18225951 -0.28516328 0.14480871 0.43828958 0.12733272 0.06823725 -0.21735919 0.42898163
-0.0272447 0.19266002 0.06364877 0.19004162 0.14172496 -0.119496815 -0.03184749 0.27238765
0.14502484 -0.014699999 -0.25995424 0.2241667 -0.18140835 -0.19794418 -0.09976505 -0.23225889
0.063242026 -0.059290864 0.14139035 0.18002675 0.33150348 -0.12633519 0.024100069 0.06766287
-0.18794282 0.19128327 -0.09403945 0.09755776 0.016760772 0.12320909 -0.16764557 0.0908316
-0.067051485 -0.053278092 -0.02288388 -0.16000438 0.26876724 0.12699208 -0.14513712 -0.01567413
0.03403591 0.24236852 -0.20822585 0.3732302 0.18549635 -0.28651604 0.006461618 0.10855424
-0.46354532 0.24053967 0.09646491 0.10914062 -0.022393754 -0.06128882 0.020929765 -0.06591926
0.28580996 0.00468573 -0.0662784 -0.033684976 0.13496064 -0.15062568 -0.059146132 -0.1533551
0.1759822 -0.10516214 0.1437515 -0.19448134 -0.14506589 0.45548522 -0.24553426 0.045322686
0.30548102 0.03407429 -0.17248094 0.09980917 0.08614943 0.09454627 0.14303896 -0.01747795
-0.18484777 0.3668451 0.28391293 -0.11599845 0.031273607 0.11964103 0.0055985176 -0.21120432
0.059729047 0.3066808 -0.059342057 -0.19819304 -0.035203613 0.0714349 0.28712013 -0.32151094
-0.11014794 0.24340549 0.310079 -0.19552946 -0.12254382 -0.15966941 0.018697461 -0.047230266
-0.24198127 -0.052026615 -0.1440239 0.097516716 -0.02297551 0.041138403 -0.19021238 0.13521817
0.18426742 -0.13441338 -0.035626378 -0.15111905 -0.06872451 -0.21952853 -0.17512167 0.04586231
-0.028954348 0.1284621 0.108210154 -0.18827029 -0.14861155 0.21103933 -0.3175186 -0.26118043
-0.1632388 -0.00983308 0.09109337 -0.18230483 0.25016552 -0.12691423 0.055682395 -0.14094055
0.1559177 -0.13326152 0.15738624 -0.3763495 -0.15258719 0.16729626 -0.14829187 0.004630303
-0.176623 0.0689645 -0.05362837 -0.1352428 -0.26095355 0.44652563 0.06672063 0.14959517
-0.02284392 -0.36140263 0.07144 0.20001629 -0.0010617685 0.31414422 -0.1440111 -0.18979242
0.35290217 0.12665522 -0.07685428 -0.03150894 -0.32275337 -0.1272347 0.057684317 0.34513292
0.13190925 0.19188285 -0.013120051 0.19459774 0.040429477 -0.18958975 0.15740474 0.25914508
-0.0153689375 0.07945058 0.018970568 -0.0021665874 0.05896306 0.04731351 -0.13235146 -0.09309572
-0.0712551 0.4609472 0.25598648 0.04963005 -0.31722412 -0.2573939 -0.13279194 -0.033266585
-0.21700314 -0.0415161 -0.08855201 -0.1689621 -0.06082753 -0.20911989 0.060251746 0.377225
0.19774291 0.122614115 0.18260045 0.13220663 -0.0813533 -0.2638762 -0.34575227 0.23683086
0.15869817 0.28906792 0.17910364 -0.19585457 0.14305921 -0.056106083 0.3048931 -0.07423957
00000000: 67e6 c83d 658f 2a3d 625f 573c 884c f23d
00000010: cd3b 6a3c b5f5 c63d 393e b03e d341 cc3e
00000020: 8f93 1a3e e19f bc3e 4c9e 2bbe f52f fc3d
00000030: 78dd f0ba ebe5 b03d ed65 cd3e 2667 04bd
00000040: 769b 83be f362 8c3d 0f06 e8bd 7946 b3bb
00000050: b9d7 853d a0a4 a0bd d326 f0bc af87 fc3d
00000060: e665 903d 7712 573d df5f 1abe e058 033e
00000070: c29a ac3d 7893 743c e31a b0bc 8036 88be
00000080: 3da2 3a3e ec00 92be bc48 143e 7e67 e03e
00000090: 8263 023e f9bf 8b3d 6893 5ebe 7ba3 db3e
000000a0: 4730 dfbc ab48 453e 495a 823d 459a 423e
000000b0: 5920 113e bfba f4bd 8472 02bd 6576 8b3e
000000c0: 6481 143e 44d8 70bc b918 85be f58b 653e
000000d0: 1cc3 39be e1b1 4abe 9e51 ccbd 46d5 6dbe
000000e0: 0985 813d fada 72bd a2c8 103e ef58 383e
000000f0: d3ba a93e 035e 01be 826d c53c d592 8a3d
00000100: 1574 40be c3df 433e c197 c0bd 5dcc c73d
00000110: e34d 893c 0c55 fc3d 48ab 2bbe eb05 ba3d
00000120: 4a52 89bd 213a 5abd fa76 bbbc 30d8 23be
00000130: dc9b 893e 360a 023e d39e 14be 0867 80bc
00000140: 3d69 0b3d 742f 783e 2839 55be 0718 bf3e
00000150: c1f2 3d3e 3bb2 92be fbbb d33b af51 de3d
00000160: d055 edbe 0850 763e 658f c53d 1e85 df3d
00000170: 1b73 b7bc fc09 7bbd e674 ab3c ad00 87bd
00000180: af55 923e c18a 993b f8bc 87bd 42f9 09bd
00000190: 1f33 0a3e 9e3d 1abe 3743 72bd 1f09 1dbe
000001a0: ae34 343e 405f d7bd 9833 133e 1e26 47be
000001b0: 278c 14be 5c35 e93e 556d 7bbe 48a4 393d
000001c0: 0268 9c3e 7c91 0b3d d89e 30be c068 cc3d
000001d0: 1d6f b03d 7aa1 c13d ce78 123e eb2d 8fbc
000001e0: bc48 3dbe 1fd3 bb3e 095d 913e 9890 edbd
000001f0: c118 003d 5b06 f53d c573 b73b f245 58be
00000200: 72a6 743d 4405 9d3e a810 73bd 1ef3 4abe
00000210: aa31 10bd 764c 923d 6901 933e 159d a4be
00000220: 3e95 e1bd 4a3f 793e adc2 9e3e e038 48be
00000230: 41f8 fabd 6180 23be 6b2b 993c 8674 41bd
00000240: f0c9 77be dc19 55bd 007b 13be d8b6 c73d
00000250: 2337 bcbc be80 283d 09c7 42be a276 0a3e
00000260: 99b0 3c3e a9a3 09be f7ec 11bd f4be 1abe
00000270: 70bf 8cbd 16cc 60be 1853 33be 1eda 3b3d
00000280: ab31 edbc 928b 033e 499d dd3d edc9 40be
00000290: a02d 18be b21a 583e cc91 a2be 71b9 85be
000002a0: 1228 27be ed1a 21bc 298f ba3d 1eae 3abe
000002b0: b215 803e cef5 01be 3913 643d b852 10be
000002c0: e4a8 1f3e b575 08be dc29 213e e2b0 c0be
000002d0: d13f 1cbe b64f 2b3e d3d9 17be ccb9 973b
000002e0: a9dc 34be 433d 8d3d 6ca9 5bbd 177d 0abe
000002f0: b49b 85be 029f e43e d3a4 883d 7a2f 193e
00000300: 2c23 bbbc c409 b9be 224f 923d 12d1 4c3e
00000310: 0a2b 8bba 83d7 a03e a577 13be f258 42be
00000320: 98af b43e e8b1 013e c765 9dbd 850f 01bd
00000330: ee3f a5be d049 02be 6446 6c3d 43b5 b03e
00000340: 3813 073e f07c 443e 7bf5 56bc a144 473e
00000350: 6199 253d d123 42be b52e 213e aaae 843e
00000360: ffcd 7bbc fcb6 a23d 2a68 9b3c 4efd 0dbb
00000370: 4083 713d d0cb 413d 2487 07be f8a8 bebd
00000380: 32ee 91bd 4501 ec3e a910 833e e148 4b3d
00000390: 336b a2be 22c9 83be 9cfa 07be 8b42 08bd
000003a0: 1236 5ebe c90c 2abd c25a b5bd 6704 2dbe
000003b0: 4a26 79bd 8623 56be 89ca 763d a323 c13e
000003c0: 1e7d 4a3e 1c1d fb3d 9dfb 3a3e 2d61 073e
000003d0: 8f9c a6bd c81a 87be 7106 b1be ca83 723e
000003e0: c681 223e b600 943e f266 373e 1a8e 48be
000003f0: 1d7e 123e 7ecf 65bd f31a 9c3e ea0a 98bd

1.weight f4 [512]
0.4090459 0.52117014 0.60298413 0.22134194 0.18491448 0.5485688 0.5280388 0.4766119
0.30014113 0.3833384 0.7544094 0.47554877 0.5154707 0.5308884 0.5863713 0.6190164
0.55049616 0.34508774 0.37029833 0.38917756 0.61099404 0.40128723 0.36160836 0.5237597
0.4594114 0.3486266 0.43293902 0.28319797 0.25085443 0.27896997 0.38107568 0.5288684
0.22427012 0.46217656 0.3028297 0.60174286 0.49497455 0.53413266 0.3877581 0.5410996
0.5168509 0.6206986 0.40891904 0.5013641 0.31159568 0.4345406 0.5071109 0.5879123
0.50427914 0.23815005 0.39538926 0.50797313 0.3122958 0.48229954 0.1577524 0.5074646
0.16341348 0.49658978 0.47269398 0.5168407 0.5198407 0.3845122 0.5400607 0.5748524
0.6588141 0.30110213 0.54648906 0.3353114 0.3236286 0.2002158 0.41989863 0.38840368
0.35322073 0.5410924 0.39794812 0.4975012 0.48720858 0.34472278 0.16046757 0.29091293
0.44907793 0.26088578 0.17456944 0.48128092 0.45867607 0.6030398 0.41258913 0.35827512
0.60776263 0.20415445 0.4461886 0.3917734 0.6371818 0.310535 0.50066596 0.37178782
0.36346024 0.5296515 0.45345873 0.49380848 0.3005416 0.5046372 0.43313792 0.4502045
0.21761218 0.417551 0.15526292 0.35328883 0.35316843 0.49386683 0.53065634 0.45055908
0.5158974 0.5355188 0.5234765 0.48243728 0.49696183 0.36984485 0.55238396 0.55076784
0.4443543 0.4987572 0.46078408 0.3841185 0.46426156 0.3478113 0.45743018 0.41389865
0.40559316 0.3787303 0.3307732 0.3322324 0.5608301 0.32217982 0.43119186 0.33258262
0.7466258 0.53619313 0.4016843 0.38516048 0.44467497 0.5494406 0.61735034 0.46792334
0.41167194 0.56661093 0.51386386 0.35656923 0.40695158 0.39832312 0.4666655 0.25137177
0.65562344 0.4943071 0.62437606 0.2700618 0.61074895 0.56320554 0.32168186 0.3735131
0.36812708 0.47737998 0.49102074 0.38033092 0.3368695 1.0260426 0.56085896 0.47423235
0.5604419 0.39857018 0.4863868 0.5654603 0.45687866 0.383344 0.4024359 0.20595835
0.20596477 0.5645936 0.38898703 0.4130412 0.33187333 0.40645787 0.12147464 0.30054227
0.57904845 0.2974145 0.5692385 0.3912754 0.42068675 0.5872298 0.3418811 0.48596618
0.4796859 0.44262478 0.5624692 0.46117422 0.62488085 0.47386777 0.49281812 0.5576372
0.48927072 0.5026208 0.5145379 0.5208865 0.5765542 0.44756293 0.3432426 0.6112451
0.5430471 0.42508537 0.4250817 0.43782845 0.219431 0.49194145 0.6943783 0.5520651
0.34113348 0.34898052 0.25092298 0.5085739 0.22077315 0.33134058 0.4099891 0.5046681
0.4304211 0.52382284 0.5972981 0.20625956 0.4166113 0.3261176 0.435921 0.36896354
0.31335804 0.54772043 0.3544459 0.19778354 0.42363203 0.62202567 0.2420692 0.45767093
0.49370602 0.34946156 0.1677268 0.27452224 0.5544913 0.14476986 0.31914586 0.42755222
0.40911788 0.5034796 0.51746404 0.25814703 0.47523054 0.50158983 0.49053723 0.25115976
00000000: 776e d13e 686b 053f 2b5d 1a3f 76a7 623e
00000010: 395a 3d3e 016f 0c3f 8d2d 073f 7a06 f43e
00000020: 19ac 993e ee44 c43e f920 413f 217b f33e
00000030: e3f5 033f 4de8 073f 6e1c 163f dc77 1e3f
00000040: 51ed 0c3f 57af b03e be97 bd3e 4842 c73e
00000050: 1b6a 1c3f 8575 cd3e bb24 b93e 1e15 063f
00000060: f937 eb3e 307f b23e 2faa dd3e 53ff 903e
00000070: fe6f 803e 27d5 8e3e 5a1c c33e eb63 073f
00000080: 11a7 653e 68a2 ec3e 7f0c 9b3e d20b 1a3f
00000090: 4e6d fd3e ebbc 083f 3b88 c63e 8185 0a3f
000000a0: 5750 043f 1ae6 1e3f d65d d13e 6659 003f
000000b0: 7889 9f3e 1b7c de3e 05d2 013f 6c81 163f
000000c0: 7018 013f 9bdd 733e 7670 ca3e 870a 023f
000000d0: 3ce5 9f3e f7ef f63e d889 213e 33e9 013f
000000e0: dd55 273e 0441 fe3e f204 f23e ac4f 043f
000000f0: 4814 053f c8de c43e 6b41 0a3f 8729 133f
00000100: 0aa8 283f 0f2a 9a3e b5e6 0b3f f0ad ab3e
00000110: a6b2 a53e 5f05 4d3e f4fc d63e d9dc c63e
00000120: 59d9 b43e 0885 0a3f dbbf cb3e 7ab8 fe3e
00000130: 6773 f93e 817f b03e 9c51 243e 8af2 943e
00000140: 8bed e53e d292 853e 55c2 323e 746a f63e
00000150: 97d7 ea3e d160 1a3f e23e d33e d66f b73e
00000160: 5596 1b3f dd0d 513e d572 e43e 8696 c83e
00000170: 591e 233f 72fe 9e3e a52b 003f f95a be3e
00000180: 7617 ba3e 3e97 073f be2b e83e 77d4 fc3e
00000190: 97e0 993e e72f 013f 41c4 dd3e 3481 e63e
000001a0: bad5 5e3e 3fc9 d53e 3efd 1e3e 46e2 b43e
000001b0: 7ed2 b43e 1ddc fc3e 18d9 073f aeaf e63e
000001c0: da11 043f c317 093f 8e02 063f 0502 f73e
000001d0: c871 fe3e 4e5c bd3e 0969 0d3f 1fff 0c3f
000001e0: 6882 e33e 1b5d ff3e e4eb eb3e 2eab c43e
000001f0: b1b3 ed3e 5314 b23e 4a34 ea3e 86ea d33e
00000200: e8a9 cf3e f0e8 c13e 1b5b a93e 5d1a aa3e
00000210: 9092 0f3f c1f4 a43e 2ec5 dc3e 4548 aa3e
00000220: de22 3f3f f443 093f 91a9 cd3e c133 c53e
00000230: 70ac e33e 24a8 0c3f ac0a 1e3f a693 ef3e
00000240: aac6 d23e 6a0d 113f 958c 033f 3e90 b63e
00000250: f55b d03e 02f1 cb3e c8ee ee3e cdb3 803e
00000260: f0d6 273f d215 fd3e 1cd7 1f3f 8a45 8a3e
00000270: 0b5a 1c3f 3d2e 103f 7cb3 a43e 1c3d bf3e
00000280: 277b bc3e 266b f43e 1267 fb3e bcba c23e
00000290: 297a ac3e 5d55 833f 7494 0f3f 95ce f23e
000002a0: 1f79 0f3f 6411 cc3e b107 f93e 02c2 103f
000002b0: 00ec e93e aa45 c43e 140c ce3e bfe6 523e
000002c0: 6ee8 523e 3589 103f 4f29 c73e 237a d33e
000002d0: 4deb a93e 3f1b d03e b2c7 f83d ade0 993e
000002e0: 853c 143f b746 983e 9db9 113f 4055 c83e
000002f0: 4164 d73e b154 163f 0a0b af3e 8fd0 f83e
00000300: 6499 f53e b79f e23e fbfd 0f3f 071f ec3e
00000310: 31f8 1f3f cc9e f23e a852 fc3e 50c1 0e3f
00000320: b181 fa3e c2ab 003f c1b8 033f d158 053f
00000330: 0e99 133f f826 e53e 7ebd af3e 8f7a 1c3f
00000340: 2205 0b3f caa4 d93e 4fa4 d93e 0d2b e03e
00000350: 85b2 603e c0df fb3e c7c2 313f 2354 0d3f
00000360: 0ca9 ae3e 93ad b23e fa78 803e e631 023f
00000370: 5b12 623e 79a5 a93e 17ea d13e ee31 013f
00000380: 2860 dc3e 4119 063f 87e8 183f b535 533e
00000390: 144e d53e e3f8 a63e 0a31 df3e cae8 bc3e
000003a0: 7770 a03e 6837 0c3f ef79 b53e c587 4a3e
000003b0: 4ce6 d83e 133d 1f3f fde0 773e d853 ea3e
000003c0: 09c7 fc3e a0ec b23e 93c0 2b3e 2e8e 8c3e
000003d0: 24f3 0d3f 8d3e 143e 1667 a33e 20e8 da3e
000003e0: e677 d13e 0ae4 003f 8678 043f d92b 843e
000003f0: 6b51 f33e 3168 003f b227 fb3e 0398 803e

1.bias f4 [512]
-0.24210277 -0.507156 -0.67932177 -0.12983525 0.002016507 -0.6733118 -0.6710592 -0.5225793
-0.24164036 -0.22357096 -0.39874867 -0.5284241 -0.36194465 -0.47773278 -0.6566457 -0.563032
-0.64164805 -0.13545963 -0.099763066 -0.34722853 -0.44074714 -0.3213045 -0.2977446 -0.44864962
-0.4400383 -0.1433333 -0.46644962 -0.2153084 -0.18650521 -0.22060084 -0.13097371 -0.43293384
-0.15696028 -0.32245854 -0.16255994 -0.5478141 -0.3577642 -0.25511438 -0.29885733 -0.42615157
-0.11609273 -0.35428098 -0.10612229 -0.3387685 -0.34588292 -0.07458579 -0.12978378 -0.6584581
-0.435386 -0.07935024 -0.48083302 -0.3483335 -0.049999945 -0.4250684 -0.0715453 -0.46814114
0.06054927 -0.4884342 -0.46479464 -0.6627304 -0.18049584 -0.4451214 -0.55548257 -0.603583
-0.45884454 -0.24874547 -0.4652478 -0.26515692 -0.26674396 -0.06980669 -0.17816561 -0.3383307
-0.24467851 -0.47690395 -0.19925237 -0.42490074 -0.5667567 -0.103308454 0.0941515 -0.24993223
-0.4063182 -0.1419738 -0.068340294 -0.099670626 -0.32006267 -0.584523 -0.2824865 -0.09379106
-0.521028 -0.026254773 -0.51202023 -0.43908846 -0.430895 -0.24313974 -0.32882372 -0.11645608
-0.3314707 -0.570907 -0.4128622 -0.51562965 -0.26494798 -0.2966142 -0.1172372 -0.5022374
-0.00825851 -0.4305749 0.08885029 -0.3445983 -0.20610926 -0.045624886 -0.670181 -0.27489448
-0.4513919 -0.23850411 -0.55142576 -0.53556573 -0.3726134 -0.14245866 -0.6301829 -0.6232274
-0.13841037 -0.50645137 -0.4796324 -0.24815953 -0.39451894 -0.30747056 -0.48395523 -0.22628854
-0.4912529 -0.34847385 -0.32211894 -0.053353176 -0.28524196 -0.18626426 -0.4146445 -0.23515752
-0.31093428 -0.24596003 -0.16305935 -0.2051834 -0.3553881 -0.48055574 -0.63970697 -0.4956669
-0.05688107 -0.46725166 -0.57742614 -0.2655586 -0.30139798 -0.34621188 -0.23057137 -0.09061293
-0.5441447 -0.4976094 -0.47412786 -0.21112119 -0.359355 -0.43067786 -0.12268594 -0.27043492
-0.1995838 -0.53997844 -0.45249677 -0.12711005 -0.14034991 -0.5373987 -0.4747193 -0.0649406
-0.45360416 -0.27727893 -0.2580468 -0.65333337 -0.40297565 -0.037989855 -0.40081155 -0.04635264
0.0044915015 -0.64847004 -0.08564045 -0.36186722 -0.1272693 -0.18158297 0.0069308667 -0.23948617
-0.5808279 -0.26589713 -0.56925225 -0.370792 -0.08937935 -0.3293203 -0.3998842 -0.3367258
-0.1993511 -0.28942692 -0.6473914 -0.07868608 -0.50606894 -0.30711582 -0.40545094 -0.21073881
-0.415637 -0.6539559 -0.18421222 -0.25983676 -0.6573395 -0.4524316 -0.2781963 -0.42126915
-0.5099298 -0.08436758 -0.4231692 -0.25461668 -0.11783855 -0.55569494 -0.51154613 -0.5487936
-0.07110457 -0.18377148 -0.15477383 -0.15367387 -0.121241815 -0.15050493 -0.07505788 -0.3573652
-0.39383334 -0.5989699 -0.40778527 -0.16764139 -0.2425152 -0.09964981 -0.60257614 -0.31991574
-0.19851096 -0.32245985 -0.33674923 0.02613782 -0.48853132 -0.44465262 -0.004512673 -0.3316158
-0.58928025 -0.105089106 0.016607372 -0.046173275 -0.12577069 -0.067198105 -0.054179344 -0.22111815
-0.18864761 -0.45929492 -0.33632904 -0.17426991 -0.3110369 -0.39526737 -0.2970111 -0.1266153
00000000: cae9 77be fad4 01bf 08e8 2dbf 88f3 04be
00000010: 6027 043b 2a5e 2cbf 89ca 2bbf c2c7 05bf
00000020: 9270 77be c9ef 64be c928 ccbe cd46 07bf
00000030: cf50 b9be 6499 f4be ef19 28bf dd22 10bf
00000040: 0c43 24bf eeb5 0abe 9450 ccbd f0c7 b1be
00000050: 9ca9 e1be 0682 a4be fb71 98be 67b5 e5be
00000060: b34c e1be f7c5 12be 7cd2 eebe ce79 5cbe
00000070: 39fb 3ebe 30e5 61be f91d 06be 81a9 ddbe
00000080: 32ba 20be 4919 a5be 1d76 26be 8b3d 0cbf
00000090: df2c b7be 5a9e 82be d403 99be 8a30 dabe
000000a0: 06c2 edbd 5164 b5be a556 d9bd 1173 adbe
000000b0: 9117 b1be 6fc0 98bd 0ae6 04be b690 28bf
000000c0: eaea debe 6182 a2bd bf2f f6be c558 b2be
000000d0: becc 4cbd 91a2 d9be 5886 92bd 32b0 efbe
000000e0: 8302 783d 0c14 fabe 90f9 edbe b3a8 29bf
000000f0: e7d3 38be f4e6 e3be 1b34 0ebf 6a84 1abf
00000100: aced eabe 22b7 7ebe f634 eebe a6c2 87be
00000110: aa92 88be cff6 8ebd 0c71 36be ae39 adbe
00000120: 018d 7abe c12c f4be d008 4cbe 978c d9be
00000130: f816 11bf 6293 d3bd 80d2 c03d 3cee 7fbe
00000140: f008 d0be 9461 11be fff5 8bbd 1d20 ccbd
00000150: 41df a3be 4da3 15bf 12a2 90be 8715 c0bd
00000160: 1762 05bf 4014 d7bc c213 03bf 34d0 e0be
00000170: 459e dcbe a0f9 78be 955b a8be 8680 eebd
00000180: 87b6 a9be f626 12bf ad62 d3be 4e00 04bf
00000190: 43a7 87be d1dd 97be 0f1a f0bd a192 00bf
000001a0: b44e 07bc 5074 dcbe 24f7 b53d 306f b0be
000001b0: 4e0e 53be 29e1 3abd fb90 2bbf f8be 8cbe
000001c0: d71c e7be 6c3a 74be 3d2a 0dbf d61a 09bf
000001d0: 2fc7 bebe afe0 11be ab53 21bf d58b 1fbf
000001e0: 73bb 0dbe cca6 01bf 6192 f5be 881d 7ebe
000001f0: 63fe c9be c86c 9dbe fbc8 f7be 2fb8 67be
00000200: 8085 fbbe 2a6b b2be c6ec a4be dc88 5abd
00000210: 3c0b 92be 0fbc 3ebe 494c d4be 22cd 70be
00000220: c732 9fbe f2dc 7bbe 08f9 26be 991b 52be
00000230: 6ef5 b5be 670b f6be d6c3 23bf 0dc8 fdbe
00000240: 20fc 68bd 9c3b efbe 33d2 13bf 4cf7 87be
00000250: d650 9abe af42 b1be e71a 6cbe 4693 b9bd
00000260: 114d 0bbf a9c6 febe e3c0 f2be 2730 58be
00000270: 61fd b7be cf81 dcbe c442 fbbd 7276 8abe
00000280: b25f 4cbe 073c 0abf a8ad e7be 2329 02be
00000290: e3b7 0fbe f692 09bf 680e f3be 94ff 84bd
000002a0: ce3e e8be 81f7 8dbe b61e 84be db40 27bf
000002b0: d352 cebe 409b 1bbd 2c37 cdbe 44dc 3dbd
000002c0: 722d 933b 2202 26bf 4364 afbd a946 b9be
000002d0: e252 02be e3f0 39be 531c e33b dd3b 75be
000002e0: 23b1 14bf ab23 88be 84ba 11bf 73d8 bdbe
000002f0: 850c b7bd ac9c a8be 9fbd ccbe 5367 acbe
00000300: b222 4cbe c42f 94be 71bb 25bf 2b26 a1bd
00000310: bc8d 01bf 493e 9dbe 4497 cfbe eacb 57be
00000320: 5fce d4be a769 27bf 21a2 3cbe 5309 85be
00000330: 6747 28bf 1da5 e7be bf6f 8ebe 97b0 d7be
00000340: c28a 02bf e9c8 acbd a2a9 d8be 1e5d 82be
00000350: 5655 f1bd 0642 0ebf b0f4 02bf bd7d 0cbf
00000360: 469f 91bd 972e 3cbe 087d 1ebe af5c 1dbe
00000370: a14d f8bd f71d 1abe f2b7 99bd 92f8 b6be
00000380: 86a4 c9be 1756 19bf 3bc9 d0be 2faa 2bbe
00000390: e855 78be 3315 ccbd 6e42 1abf ffcb a3be
000003a0: 7546 4bbe 7519 a5be 656a acbe fb1e d63c
000003b0: c720 fabe 82a9 e3be 0bdf 93bb 8cc9 a9be
000003c0: 12db 16bf f538 d7bd 2f0c 883c 3020 3dbd
000003d0: 08ca 00be 299f 89bd 29eb 5dbd cc6c 62be
000003e0: d72c 41be b428 ebbe 5233 acbe d073 32be
000003f0: 3b40 9fbe 7c60 cabe d711 98be 71a7 01be

1.running_mean f4 [512]
0.09620615 0.038718406 0.012959521 0.11687437 0.013051359 0.097722985 0.34566334 0.39925298
0.150656 0.3678815 -0.16630419 0.11859347 -0.0038545227 0.08581212 0.40228945 -0.033417303
-0.25507298 0.06711672 -0.113766775 -0.0046323114 0.06657225 -0.0792274 -0.028886646 0.12356039
0.07145405 0.05460327 -0.15133576 0.13021858 0.08593912 0.013813326 -0.021329295 -0.26367232
0.1813983 -0.28312162 0.14369401 0.43908805 0.12494273 0.06855149 -0.21730973 0.4297891
-0.027770182 0.1880696 0.06319904 0.18857402 0.14028664 -0.11718243 -0.03137771 0.27120134
0.1442822 -0.014376821 -0.26018238 0.22423005 -0.17999178 -0.19587505 -0.100642085 -0.23315461
0.06389388 -0.058654677 0.14000413 0.17891674 0.33336544 -0.12618479 0.022312274 0.06853461
-0.18686095 0.19147627 -0.093091965 0.09563303 0.020226512 0.12371741 -0.16822799 0.09061137
-0.068702936 -0.051928613 -0.022975367 -0.15867601 0.2706054 0.1261546 -0.14514118 -0.014663247
0.031948734 0.24308787 -0.20983747 0.37256452 0.18605801 -0.287653 0.0045588026 0.10799066
-0.46493983 0.23977058 0.096095055 0.10872517 -0.02377757 -0.05931238 0.01967382 -0.06605457
0.28463247 0.0042343177 -0.06546706 -0.032538008 0.13174377 -0.15131181 -0.060005054 -0.15268223
0.17811224 -0.10720671 0.14322998 -0.19508724 -0.144321 0.4579137 -0.24571922 0.046554502
0.30500132 0.033379562 -0.17329799 0.09756405 0.088792354 0.09415377 0.14229813 -0.014448306
-0.18369177 0.36856073 0.2825843 -0.11716926 0.02908934 0.119671755 0.006441433 -0.21199085
0.05929423 0.30672386 -0.06113575 -0.19889542 -0.03429111 0.06931218 0.28938666 -0.32172954
-0.10743683 0.24291871 0.3104534 -0.20100902 -0.124479435 -0.1600557 0.017789267 -0.046942603
-0.24352886 -0.05229469 -0.14182103 0.09612 -0.02049216 0.040560413 -0.19137026 0.13242213
0.18264285 -0.1342669 -0.036321424 -0.14882569 -0.07022227 -0.21979782 -0.17508487 0.045099635
-0.030559745 0.12925199 0.105623424 -0.1869854 -0.15170965 0.21187925 -0.3180555 -0.26052156
-0.16085827 -0.007357711 0.09275828 -0.18457183 0.2522621 -0.12774979 0.05681871 -0.13883987
0.15479387 -0.13380134 0.1559052 -0.37715957 -0.15282829 0.16745993 -0.14814062 0.004573063
-0.17611845 0.06832024 -0.05653687 -0.13673028 -0.26106998 0.44602773 0.0638917 0.15229227
-0.023989335 -0.36085996 0.07151139 0.20218605 -0.0013096364 0.31365165 -0.14613745 -0.19123717
0.35213444 0.12559614 -0.07844291 -0.031980585 -0.321146 -0.12844265 0.05649634 0.34501818
0.13168508 0.19288632 -0.01328027 0.19480322 0.040576834 -0.18577537 0.1568603 0.2611607
-0.01566424 0.07833615 0.01771776 -0.0020003265 0.058531594 0.046786048 -0.13238375 -0.093667336
-0.07225753 0.460293 0.2546081 0.049513716 -0.316809 -0.2591589 -0.13206922 -0.029218124
-0.21779409 -0.04171683 -0.089554206 -0.16814552 -0.060236946 -0.21036132 0.060174 0.37627822
0.19772662 0.123110294 0.18255642 0.1318676 -0.079247385 -0.2622252 -0.34538776 0.23735201
0.15959945 0.289722 0.17683154 -0.19637209 0.14413714 -0.054132946 0.30620286 -0.073698744
00000000: bb07 c53d 3197 1e3d 2c54 543c d45b ef3d
00000010: 5ed5 553c fd22 c83d c9fa b03e e36a cc3e
00000020: 9145 1a3e f75a bc3e a54b 2abe 22e1 f23d
00000030: 299c 7cbb 44be af3d e2f8 cd3e 95e0 08bd
00000040: ed98 82be 7e74 893d 8efe e8bd a5ca 97bb
00000050: 0857 883d fa41 a2bd b0a3 ecbc 3b0d fd3d
00000060: 8056 923d aea7 5f3d c3f7 1abe 0558 053e
00000070: d900 b03d 4a51 623c c6ba aebc 0f00 87be
00000080: 7ac0 393e 51f5 90be 8624 133e 26d0 e03e
00000090: f9e1 ff3d b964 8c3d 7186 5ebe 510d dc3e
000000a0: 4b7e e3bc 5195 403e 806e 813d 8c19 413e
000000b0: 4da7 0f3e 58fd efbd ea85 00bd e7da 8a3e
000000c0: b7be 133e c28c 6bbc a036 85be 909c 653e
000000d0: c44f 38be 7893 48be 701d cebd 15c0 6ebe
000000e0: cbda 823d e33f 70bd 3e5d 0f3e f335 373e
000000f0: e0ae aa3e 9636 01be 3bc8 b63c e05b 8c3d
00000100: 7a58 3fbe 5b12 443e 00a7 bebd 40db c33d
00000110: 12b2 a53c 8e5f fd3d f543 2cbe 7492 b93d
00000120: 20b4 8cbd 19b3 54bd d636 bcbc f77b 22be
00000130: ca8c 8a3e ac2e 013e e49f 14be 1e3e 70bc
00000140: addc 023d 07ec 783e a2df 56be c7c0 be3e
00000150: fe85 3e3e 4147 93be 0262 953b 352a dd3d
00000160: 980c eebe 6b86 753e 7ccd c43d 4dab de3d
00000170: 2ec9 c2bc 8af1 72bd fe2a a13c 9e47 87bd
00000180: 59bb 913e 08c0 8a3b 9813 86bd 9346 05bd
00000190: d7e7 063e 7cf1 1abe dcc7 75bd bb58 1cbe
000001a0: 0e63 363e 318f dbbd e1aa 123e f3c4 47be
000001b0: e2c8 13be aa73 ea3e d29d 7bbe efaf 3e3d
000001c0: 2229 9c3e 02b9 083d 0775 31be a9cf c73d
000001d0: c4d8 b53d b1d3 c03d 9ab6 113e 96b8 6cbc
000001e0: b219 3cbe feb3 bc3e e4ae 903e 70f6 efbd
000001f0: c44c ee3c 7716 f53d a812 d33b 2114 59be
00000200: 82de 723d e90a 9d3e 7b69 7abd 3eab 4bbe
00000210: d674 0cbd 8bf3 8d3d 7d2a 943e bcb9 a4be
00000220: d707 dcbd afbf 783e bff3 9e3e 4fd5 4dbe
00000230: 13ef febd a4e5 23be ccba 913c e346 40bd
00000240: a15f 79be f532 56bd 8839 11be 90da c43d
00000250: 2ddf a7bc ad22 263d 91f6 43be ab99 073e
00000260: ba06 3b3e 437d 09be c6c5 14bd c365 18be
00000270: b2d0 8fbd ae12 61be 7349 33be 65ba 383d
00000280: 6e58 fabc a25a 043e 1851 d83d 1a79 3fbe
00000290: c659 1bbe e0f6 583e 2cd8 a2be 1563 85be
000002a0: 08b8 24be f418 f1bb 0ef8 bd3d 6600 3dbe
000002b0: 7f28 813e d7d0 02be bcba 683d 0a2c 0ebe
000002c0: 4982 1e3e 3803 09be 9da5 1f3e 0f1b c1be
000002d0: 057f 1cbe 9e7a 2b3e 2db2 17be a2d9 953b
000002e0: 6558 34be 7beb 8b3d 3493 67bd 0603 0cbe
000002f0: f7aa 85be bf5d e43e a7d9 823d 81f2 1b3e
00000300: 4885 c4bc a3c2 b8be 9074 923d dc09 4f3e
00000310: 1ba8 abba f396 a03e 0ea5 15be add3 43be
00000320: f74a b43e 469c 003e ada6 a0bd 13fe 02bd
00000330: 406d a4be 7886 03be b568 673d 39a6 b03e
00000340: 74d8 063e fe83 453e 7d95 59bc 7f7a 473e
00000350: e533 263d e63b 3ebe fd9f 203e dbb6 853e
00000360: 4b52 80bc b46e a03d d624 913c e917 03bb
00000370: d3be 6f3d baa2 3f3d 9b8f 07be a9d4 bfbd
00000380: c2fb 93bd 86ab eb3e fe5b 823e e5ce 4a3d
00000390: ca34 a2be 7ab0 84be 273d 07be d95a efbc
000003a0: 6a05 5fbe 44df 2abd 3268 b7bd 572e 2cbe
000003b0: 04bb 76bd f568 57be 0379 763d 8aa7 c03e
000003c0: d978 4a3e 4021 fc3d 12f0 3a3e 4d08 073e
000003d0: 744c a2bd 6242 86be aad6 b0be 680c 733e
000003e0: 0a6e 233e 7156 943e 5413 353e c415 49be
000003f0: b098 133e 82ba 5dbd 9fc6 9c3e 5eef 96bd

1.running_var f4 [512]
0.046939142 0.00078509876 0.47301546 0.3393268 0.26934275 0.3122552 0.267525 0.2906303
0.47545722 0.23681302 0.11134947 0.18310502 0.24111934 0.0018910813 0.34527484 0.06272892
0.21825354 0.23883243 0.26240656 0.7494843 0.008056527 0.26068565 0.29580158 0.024247708
0.00409111 0.1389805 0.19120997 0.2627931 0.4042801 0.2940859 0.292729 0.11428063
0.31266904 0.5032135 0.049749486 0.17712314 0.002663136 0.20133767 0.22457743 0.09764186
0.18906239 0.30869743 0.06473022 0.1599895 0.22329555 0.32682645 0.27331918 0.27565172
0.20091718 0.33413658 0.44595125 0.08400814 0.18761384 0.18924621 0.25514144 0.037005175
0.0886489 0.01729129 0.13278964 0.22336793 0.076287754 0.17409617 0.0015784454 0.09575549
0.10625947 0.27293077 0.24038607 0.10716556 0.21429645 0.07237995 0.14694023 0.22600757
0.32830197 0.10377021 0.4559188 0.00046888416 0.13406385 0.30895293 0.19976242 0.32241642
0.007940794 0.09389227 0.12640649 0.4430908 0.03249991 0.1707417 0.07402669 0.27162516
0.35217762 0.16195369 0.0011746872 0.16245548 0.17927538 0.05693191 0.38294908 0.08304867
0.5582707 0.0006205188 0.7945308 0.20937349 0.12804689 0.16130076 0.3512362 0.47988603
0.28033516 0.072691 0.190653 0.33211538 0.21384247 0.3634238 0.36151272 0.14382824
0.22288236 0.12015375 0.21937524 0.5329848 0.021018999 0.46740738 0.49144673 0.776859
0.11259249 0.21045186 0.037046406 0.32610494 0.48581952 0.33642626 0.15830372 0.13530149
0.029341362 0.693159 0.22921918 0.16502997 0.056682415 0.011639439 0.46795756 0.21493696
0.4738396 0.24782766 0.28742027 0.16980973 0.04746253 0.039666034 0.19947276 0.0008122709
0.17928298 0.32520986 0.4101327 0.28239232 0.23019683 0.74740684 0.2222961 0.2608656
0.14053771 0.00091893575 0.21299408 0.24823357 0.7783467 0.28388554 0.32536957 0.09270884
0.13315493 0.17637287 0.8730512 0.16962324 0.33440447 0.63302135 0.10844887 0.23417847
0.06725638 0.029174207 0.20131816 0.5921211 0.13841575 0.23586255 0.8146988 0.08223161
0.1759166 0.7995316 0.11359927 0.3652001 0.058236334 0.10983976 0.27510378 1.122886
0.11639917 0.045814376 0.2313543 0.1203587 0.08389601 0.059562825 0.0018409475 0.0064735855
0.3138417 0.30188075 0.42871755 0.4526336 0.26709196 0.20876963 0.34783125 0.2619051
0.2533549 0.24453655 0.42115867 0.15895586 0.5535793 0.48596457 0.5667537 0.25562587
0.26244694 0.2393073 0.023615846 0.13212578 0.17204393 0.48143354 0.3182425 0.3221288
0.3363788 0.18306425 0.10479517 0.19010192 0.16704753 0.20331852 0.2869598 0.21872194
0.5422171 0.5429902 0.211057 0.19855218 0.03685298 0.095399015 0.2868485 0.6986889
0.43343863 0.114096954 0.28032923 0.35591844 0.0010039761 0.26065603 0.04404812 0.3853811
0.3003563 0.32387152 0.14685059 0.084540844 0.119158044 0.1849438 0.15474324 0.16299783
0.0041624727 0.21181186 0.17967795 0.12676004 0.08373591 0.0027999582 0.13800842 0.12128145
00000000: 4243 403d 16cf 4d3a 152f f23e 3ebc ad3e
00000010: 4be7 893e eadf 9f3e 09f9 883e 7fcd 943e
00000020: 216f f33e 1d7f 723e 310b e43d e27f 3b3e
00000030: fde7 763e 29de f73a ddc7 b03e 0578 803d
00000040: db7d 5f3e 7d90 743e 275a 863e 34de 3f3f
00000050: 86ff 033c 9778 853e 4e73 973e 21a3 c63c
00000060: b80e 863b e750 0e3e 8ccc 433e d18c 863e
00000070: cdfd ce3e 6d92 963e 93e0 953e f70b ea3d
00000080: 2816 a03e 9ad2 003f 1ec6 4b3d c55f 353e
00000090: 0288 2e3b 762b 4e3e a0f7 653e 75f8 c73d
000000a0: 9299 413e 970d 9e3e 4791 843d 4ad4 233e
000000b0: 97a7 643e cc55 a73e 7ef0 8b3e 3922 8d3e
000000c0: 3cbd 4d3e f313 ab3e b953 e43e 760c ac3d
000000d0: d81d 403e c2c9 413e e6a1 823e bd92 173d
000000e0: 8e8d b53d 77a6 8d3c 02fa 073e 90ba 643e
000000f0: c13c 9c3d 4446 323e d7e3 ce3a 741b c43d
00000100: 919e d93d 95bd 8b3e c427 763e 9e79 db3d
00000110: 8770 5b3e f03b 943d 8077 163e 876e 673e
00000120: 3217 a83e 7a85 d43d 306e e93e 91d4 f539
00000130: 0948 093e 142f 9e3e 858e 4c3e c413 a53e
00000140: 1b1a 023c 974a c03d b470 013e ccdc e23e
00000150: a01e 053d ead6 2e3e 4e9b 973d 7412 8b3e
00000160: a050 b43e 30d7 253e f6f7 993a bb5a 263e
00000170: f793 373e 6f31 693d e711 c43e 6c15 aa3d
00000180: d4ea 0e3f 50aa 223a 5f66 4b3f 0166 563e
00000190: b91e 033e 072c 253e 3bd5 b33e 9fb3 f53e
000001a0: 1788 8f3e 05df 943d 8a3a 433e 070b aa3e
000001b0: 85f9 5a3e af12 ba3e 3218 b93e b647 133e
000001c0: 463b 643e 2b13 f63d e7a3 603e b171 083f
000001d0: 0930 ac3c 0550 ef3e e89e fb3e 3be0 463f
000001e0: e496 e63d b180 573e f9bd 173d 3af7 a63e
000001f0: 56bd f83e 1040 ac3e 5f1a 223e 798c 0a3e
00000200: 4c5d f03c de72 313f 6fb8 6a3e 9efd 283e
00000210: d22b 683d 58b3 3e3c 2298 ef3e 6f18 5c3e
00000220: 1b9b f23e 89c6 7d3e c028 933e 9ae2 2d3e
00000230: 1268 423d da78 223d 9642 4c3e 94ee 543a
00000240: f595 373e e881 a63e eafc d13e ba95 903e
00000250: b8b8 6b3e 0e56 3f3f 97a1 633e 2d90 853e
00000260: 1ee9 0f3e bce4 703a 1f1b 5a3e f130 7e3e
00000270: bb41 473f 7259 913e d796 a63e 22de bd3d
00000280: c459 083e 179b 343e 4980 5f3f b7b1 2d3e
00000290: 1037 ab3e b00d 223f 711a de3d 7bcc 6f3e
000002a0: b7bd 893d bffe ee3c 5926 4e3e 4095 173f
000002b0: dcbc 0d3e f485 713e 1a90 503f 0c69 a83d
000002c0: 7b23 343e 1aae 4c3f bca6 e83d 82fb ba3e
000002d0: 3989 6e3d abf3 e03d 67da 8c3e baba 8f3f
000002e0: b062 ee3d dba7 3b3d 24e8 6c3e 9f7e f63d
000002f0: acd1 ab3d 26f8 733d f34b f13a 5f20 d43b
00000300: dcaf a03e 1d90 9a3e de80 db3e 97bf e73e
00000310: 47c0 883e b5c7 553e f016 b23e 6d18 863e
00000320: bcb7 813e ca67 7a3e 1ca2 d73e 53c5 223e
00000330: 5fb7 0d3f 59d0 f83e c516 113f 65e1 823e
00000340: 725f 863e f90c 753e 0576 c13c fb4b 073e
00000350: 492c 303e 757e f63e aef0 a23e 11ee a43e
00000360: d839 ac3e 3275 3b3e da9e d63d 14aa 423e
00000370: 820e 2b3e bb32 503e 65ec 923e a5f8 5f3e
00000380: bdce 0a3f 6801 0b3f 541f 583e 4351 4b3e
00000390: 26f3 163d 8f60 c33d cedd 923e 47dd 323f
000003a0: abeb dd3e aaab e93d 5087 8f3e f13a b63e
000003b0: d997 833a b574 853e cd6b 343d ac50 c53e
000003c0: 4dc8 993e 7dd2 a53e 0060 163e c023 ad3d
000003d0: 2209 f43d e861 3d3e 0375 1e3e e7e8 263e
000003e0: 5a65 883b 35e5 583e 7ffd 373e 62cd 013e
000003f0: bc7d ab3d 817f 373b 1452 0d3e 6962 f83d

4.weight f4 [256, 512]
0.00049793994 -0.2112424 -0.34826806 -0.0014142239 -0.079065405 -0.22534657 -0.3557164 0.04607688
0.0069357534 -0.18779546 -0.07247431 -0.013438643 -0.27787805 -0.169259 -0.33665293 0.051559784
-0.4191956 -0.022908954 0.034635548 0.017134981 -0.17044064 0.0015006929 0.026223391 -0.06774339
-0.16045417 -0.019497152 -0.0513557 0.013605796 0.0066985744 -0.020089846 -0.09617185 0.017047707
0.007297998 -0.1535464 -0.24042179 0.10840495 -0.14739014 -0.117536545 0.0094754975 0.027286708
0.03878376 -0.18154916 0.011444013 -0.061442655 0.0162129 -0.050952744 -0.13243744 -0.2479915
-0.04024249 0.019797646 -0.20530756 0.06251268 -0.015403074 0.011921275 -0.0006162341 -0.37989137
0.0085174935 -0.19006033 -0.004606291 -0.29594636 0.030691357 -0.017025419 -0.35627416 -0.0028431632
-0.094759606 -0.006511954 -0.19548088 0.017573914 -0.013234171 0.034587633 -0.25830537 -0.0042586904
-0.010547429 -0.15495075 -0.008414333 0.010212261 0.06773198 -0.05728366 0.0029157763 0.0018712645
-0.036195215 0.016103437 0.016714003 -0.05144265 -0.12426388 -0.23401393 0.011968632 -0.00046698764
0.034777354 -0.47259045 -0.0046486817 -0.017701184 -0.28421238 -0.00024819956 -0.23705697 -0.050412297
0.0015056679 -0.1974061 -0.004699603 -0.00952519 0.008911819 -0.12777531 0.03808447 0.049155686
0.008886055 -0.036090262 -0.0011382751 -0.017071255 -0.046011094 0.009362737 -0.25227487 -0.06333427
0.07974108 -0.09894459 -0.06485203 -0.1490683 -0.15282387 0.043363933 -0.41547936 -0.53561884
-0.35124815 -0.024013516 -0.032717403 -0.0234656 -0.14843005 0.0052719186 0.031348843 -0.055744924
0.11043521 -0.001143468 -0.128021 0.023873162 0.036128335 -0.2640742 0.010181955 -0.0067580915
-0.1002075 0.020133486 -0.15218973 0.06824156 -0.0784513 -0.115709126 -0.2328821 -0.08238126
0.04197166 -0.04029719 0.025565144 0.0064191157 -0.0019096346 -0.07449916 -0.06599657 0.017497255
-0.18105684 -0.17226273 -0.09898672 0.0031904907 -0.124948256 -0.03385874 -0.05074698 0.0039143134
-0.16582455 0.05435691 0.027133703 -0.06102411 -0.09385504 0.013920668 -0.15709774 0.021939429
-0.22628441 0.028631482 0.04363588 -0.5307727 0.007348534 0.04840026 -0.29111168 0.01444318
-0.020398509 -0.44596818 0.017654592 0.0052903485 0.024143627 -0.003507386 0.06888821 0.0057456493
-0.103827596 -0.0060990555 -0.2670655 0.030308694 -0.028965974 -0.45692965 -0.028968468 -0.026073316
-0.17427063 -0.18777037 -0.52730924 -0.045320906 -0.023468077 -0.07988276 -0.3312531 -0.1262174
0.027400697 -0.3565968 0.014161115 -0.12358755 -0.5181606 -0.068371676 0.02789048 -0.04589147
-0.2963063 0.06166557 0.019742949 -0.085767455 0.013882297 -0.051856454 -0.1712937 0.010280176
0.002876042 0.024217512 -0.011794111 -0.27160636 3.704493e-05 -0.11970901 -0.0406757 -0.13140441
-0.18890962 -0.29319644 -0.20409407 0.016091019 -0.22846407 -0.37632704 0.06404104 -0.16264464
-0.0368248 -0.028955827 0.052884057 -0.002775707 -0.026892718 -0.03998101 -0.00061912433 -0.029197335
-0.2514795 -0.065094486 0.0074727153 -0.3690937 -0.008141323 -0.0018304945 0.019099629 -0.09275227
-0.3374824 0.0058964975 -0.11567987 -0.008796119 -0.20715712 -0.11377018 -0.10456531 -0.013292573
00000000: 2f88 023a ed4f 58be 3150 b2be 7b5d b9ba
00000010: 0bed a1bd 40c1 66be 7620 b6be 1cbb 3c3d
00000020: 5145 e33b 744d 40be 696d 94bd c12d 5cbc
00000030: 0846 8ebe 3b52 2dbe c65d acbe 5a30 533d
00000040: cea0 d6be 8fab bbbc 01de 0d3d a95e 8c3c
00000050: fe87 2ebe e6b2 c43a 70d2 d63c 0cbd 8abd
00000060: 194e 24be 7eb8 9fbc 5b5a 52bd d8ea 5e3c
00000070: b77f db3b 7693 a4bc bff5 c4bd a2a7 8b3c
00000080: 0b24 ef3b 443b 1dbe 2131 76be 6a03 de3d
00000090: 71ed 16be 00b7 f0bd 1e3f 1b3c 6088 df3c
000000a0: b8db 1e3d 06e8 39be ab7f 3b3c 4bab 7bbd
000000b0: ead0 843c d3b3 50bd ae9d 07be 7cf1 7dbe
000000c0: 4fd5 24bd ac2e a23c 253c 52be a606 803d
000000d0: 2d5d 7cbc 7451 433c c58a 21ba 1f81 c2be
000000e0: f58c 0b3c 2d9f 42be 5ff0 96bb 4886 97be
000000f0: 716c fb3c e478 8bbc 9169 b6be 5d54 3abb
00000100: 5311 c2bd 3b62 d5bb 242c 48be 2bf7 8f3c
00000110: 23d4 58bc c3ab 0d3d 9a40 84be 7c8c 8bbb
00000120: 20cf 2cbc 69ab 1ebe 45dc 09bc 5451 273c
00000130: 10b7 8a3d 45a2 6abd 9c16 3f3b 3845 f53a
00000140: 6f41 14bd 5beb 833c ceeb 883c 87b5 52bd
00000150: 107e febd 59a1 6fbe 1518 443c 05d6 f4b9
00000160: b372 0e3d 60f7 f1be f853 98bb 1302 91bc
00000170: 4984 91be c820 82b9 10bf 72be 207d 4ebd
00000180: d559 c53a d324 4abe 21ff 99bb 8b0f 1cbc
00000190: e102 123c 88d7 02be 76fe 1b3d 7957 493d
000001a0: d196 113c 62d3 13bd 2d32 95ba 04d9 8bbc
000001b0: 2176 3cbd 2a66 193c 2c2a 81be 66b5 81bd
000001c0: 4b4f a33d 76a3 cabd 24d1 84bd 5ca5 18be
000001d0: dc7d 1cbe 619e 313d b6b9 d4be 511e 09bf
000001e0: ccd6 b3be feb7 c4bc af02 06bd ee3a c0bc
000001f0: 0cfe 17be 0fc0 ac3b a567 003d ca54 64bd
00000200: db2b e23d 6be0 95ba f017 03be a691 c33c
00000210: 4efb 133d bc34 87be 37d2 263c fb72 ddbb
00000220: 9739 cdbd fbee a43c a0d7 1bbe 3bc2 8b3d
00000230: 13ab a0bd e8f8 ecbd a578 6ebe 82b7 a8bd
00000240: 7aea 2b3d ab0e 25bd fe6d d13c 7257 d23b
00000250: b44c faba 0493 98bd 3629 87bd 6756 8f3c
00000260: f766 39be a465 30be 8db9 cabd 8d17 513b
00000270: dfe4 ffbd 76af 0abd 11dc 4fbd a443 803b
00000280: e9cd 29be 5aa5 5e3d 8047 de3c 6bf4 79bd
00000290: 1237 c0bd 8313 643c 3bde 20be 51ba b33c
000002a0: 1ab7 67be 928c ea3c 89bb 323d b8e0 07bf
000002b0: f9cb f03b 5a3f 463d 970c 95be 16a3 6c3c
000002c0: c61a a7bc f155 e4be 5da0 903c a95a ad3b
000002d0: dbc8 c53c 2cdc 65bb 4315 8d3d 0046 bc3b
000002e0: 90a3 d4bd 96da c7bb cfbc 88be f049 f83c
000002f0: 0d4a edbc aff2 e9be 484f edbc b597 d5bc
00000300: 0074 32be e046 40be bdfd 06bf 6aa2 39bd
00000310: 2040 c0bc 9399 a3bd 029a a9be 223f 01be
00000320: 6d77 e03c db93 b6be 0504 683c 781b fdbd
00000330: 2ca6 04bf 7306 8cbd 937a e43c b2f8 3bbd
00000340: 76b5 97be 0995 7c3d f7bb a13c d9a6 afbd
00000350: 9372 633c 6f67 54bd 9e67 2fbe 2f6e 283c
00000360: fa7b 3c3b ce63 c63c 163c 41bc fd0f 8bbe
00000370: b160 1b38 ff29 f5bd 909b 26bd e18e 06be
00000380: 8671 41be d81d 96be 09fe 50be 50d1 833c
00000390: 7cf2 69be f0ad c0be f327 833d 518c 26be
000003a0: 9ad5 16bd c534 edbc f49c 583d a3e8 35bb
000003b0: 1e4e dcbc 21c3 23bd bb4c 22ba 402f efbc
000003c0: ecc1 80be 4250 85bd aedd f43b d9f9 bcbe
000003d0: 2f63 05bc 34ed efba d376 9c3c e7f4 bdbd
000003e0: 7eca acbe 6837 c13b 91e9 ecbd 991d 10bc
000003f0: ff20 54be 5700 e9bd 5626 d6bd 18c9 59bc

4.bias f4 [256]
-0.089341365 -0.029850824 0.16543606 -0.042053074 0.19273987 0.09244533 0.1379685 -0.019882735
0.39146894 -0.01401881 -0.11004791 0.07800891 0.22364554 0.193687 -0.011061687 0.014412392
0.15661201 0.21161236 0.1553103 0.13362718 0.0801788 0.11243339 0.07233791 0.22799514
-0.010693186 0.0037775768 0.28217348 0.09488967 0.18409233 -0.025800103 -0.022375073 0.18921721
0.18228184 0.33620092 0.10694597 -0.07015871 0.28620663 0.1370487 0.057065222 0.24097107
0.041521292 0.037036143 0.17024674 0.024537345 -0.040638395 0.14109312 0.017199796 0.077314
0.13064949 0.12924333 -0.013414158 0.115125746 0.11025614 0.14777435 0.05295972 0.104192056
-0.03593113 0.08621081 0.42486545 0.0810407 -0.13601504 0.17738327 -0.035443027 0.10010035
0.13378263 0.0006898023 0.06206455 0.35517174 -0.0819131 0.015658207 -0.006117381 -0.031855684
0.095865756 0.26503065 0.016291441 0.050379466 0.16742006 -0.06048751 0.19380488 -0.15902086
-0.046887025 0.17099999 0.22450058 0.17046843 0.02338188 0.114570566 0.040871132 0.19787334
0.113603264 0.15056378 0.096824914 0.22034769 0.022527568 0.05685051 0.12918554 0.059490323
0.084631704 -0.15883166 0.20514108 0.29832414 0.14530171 0.04244339 -0.08345065 0.05100267
0.12327858 0.1987426 -0.005669229 0.18460338 0.099750265 0.018003345 -0.01540564 0.07906808
0.15564838 0.21552178 0.044323266 0.042021483 0.0684481 0.10239437 0.118141234 0.07726367
-0.097575575 0.012110077 -0.18468761 0.23852731 0.11871413 0.14381924 0.16915686 -0.15040088
0.061051395 -0.02053766 0.08240511 0.12714778 -0.00041362096 0.060444407 -0.11382224 0.014708217
0.19122313 0.042912442 0.19099918 0.14579453 0.0014223676 0.13068949 0.17788325 0.25065774
0.026425898 0.14341886 0.18120569 -0.1991991 0.008276673 0.04825915 0.11144352 0.19632487
0.17528374 -0.095016904 0.14875965 0.07554999 0.03792108 0.0798646 0.04038325 0.40804067
0.1834953 0.1528772 -0.038532723 -0.087986186 -0.03227946 0.12887345 0.16806197 0.06561489
0.15563111 0.18208158 0.2494113 -0.18035434 0.016895346 0.028205764 0.16323668 0.04599656
0.025869489 0.081557296 0.0755683 0.22729748 0.054996863 0.12797749 0.026995288 0.09698256
0.09117131 0.055603743 -0.13838246 0.13352922 0.09327777 0.10142656 0.05836518 -0.056729898
0.15611956 0.20275727 0.013893436 0.07344977 0.07504879 0.10225258 0.14456221 -0.03673877
-0.12921496 0.066299126 0.110038206 0.04722937 0.23320803 0.112567246 -0.026618605 0.24591783
0.1482407 0.21550305 0.2095416 0.15741384 0.10695403 -0.03293475 0.17684963 -0.09020807
0.11088004 0.14243968 0.032329146 0.15640554 -0.013969482 0.06997491 -0.21564251 0.17135656
0.07490697 0.22097728 0.1619563 0.15731823 0.09781294 0.07315777 0.26453373 0.20505153
0.08866782 -0.03389033 -0.020788662 0.10373277 0.09037878 0.094976574 0.17347416 -0.058374822
0.30637017 -0.20065586 0.046965826 -0.013810611 -0.047083348 -0.05337152 0.08314043 -0.04440159
-0.059906434 0.039966576 0.034241702 0.21794607 0.005326239 0.04723082 -0.07113031 0.049645845
00000000: 9bf8 b6bd b789 f4bc 1268 293e d83f 2cbd
00000010: 9a5d 453e fa53 bd3d 9d47 0d3e 1ee1 a2bc
00000020: 9e6e c83e 27af 65bc cc60 e1bd 23c3 9f3d
00000030: 5603 653e e355 463e 143c 35bc f421 6c3c
00000040: e65e 203e e9b0 583e aa09 1f3e 90d5 083e
00000050: c834 a43d 7a43 e63d e625 943d 8f77 693e
00000060: 7932 2fbc 3991 773b 0b79 903e 8455 c23d
00000070: b382 3c3e bd5a d3bc ee4b b7bc 28c2 413e
00000080: 17a8 3a3e 8722 ac3e 7d06 db3d 5faf 8fbd
00000090: ad89 923e 7f56 0c3e 39bd 693d 1fc1 763e
000000a0: 3b12 2a3d 36b3 173d 2955 2e3e 8b02 c93c
000000b0: 7274 26bd b77a 103e 96e6 8c3c cd56 9e3d
000000c0: fbc8 053e 5d58 043e 0ec7 5bbc 0cc7 eb3d
000000d0: f9cd e13d 2952 173e 4bec 583d a562 d53d
000000e0: 852c 13bd 4b8f b03d f787 d93e abf8 a53d
000000f0: 8747 0bbe f6a3 353e b52c 11bd 6a01 cd3d
00000100: 50fe 083e d9d3 343a 6637 7e3d 12d9 b53e
00000110: 0ec2 a7bd a445 803c 5074 c8bb 1b7b 02bd
00000120: 4455 c43d 19b2 873e a175 853c b35a 4e3d
00000130: 2a70 2b3e c0c1 77bd c974 463e 5dd6 22be
00000140: 9c0c 40bd 9f1a 2f3e 7be3 653e 478f 2e3e
00000150: 5b8b bf3c f9a3 ea3d 7d68 273d 4f9f 4a3e
00000160: d4a8 e83d 642d 1a3e 244c c63d d3a2 613e
00000170: bc8b b83c 15dc 683d 3749 043e 20ac 733d
00000180: 6353 ad3d c4a4 22be 8110 523e f1bd 983e
00000190: f9c9 143e 1fd9 2d3d 2de8 aabd 2de8 503d
000001a0: 7b79 fc3d 2e83 4b3e f1c4 b9bb ab08 3d3e
000001b0: de49 cc3d c07b 933c f067 7cbc 72ee a13d
000001c0: 4a62 1f3e beb1 5c3e 508c 353d b81e 2c3d
000001d0: 842e 8c3d 24b4 d13d 08f4 f13d 6a3c 9e3d
000001e0: b4d5 c7bd 5869 463c c01e 3dbe 8140 743e
000001f0: 6520 f33d 5a45 133e 7537 2d3e b002 1abe
00000200: 0711 7a3d 983e a8bc 03c4 a83d 0733 023e
00000210: 44db d8b9 8e94 773d a21b e9bd bcfa 703c
00000220: ffcf 433e f5c4 2f3d 4a95 433e 294b 153e
00000230: bd6e ba3a 77d3 053e 0727 363e 3656 803e
00000240: 207b d83c 65dc 123e fc8d 393e d9fa 4bbe
00000250: e29a 073c 63ab 453d 803c e43d 6309 493e
00000260: 957d 333e 3998 c2bd 7354 183e f4b9 9a3d
00000270: 2253 1b3d 0d90 a33d e868 253d b5ea d03e
00000280: 31e6 3b3e d78b 1c3e 7dd4 1dbd 1a32 b4bd
00000290: 7837 04bd 67f7 033e 7018 2c3e 1961 863d
000002a0: c35d 1f3e 9873 3a3e ad65 7f3e cfae 38be
000002b0: 1c68 8a3c c60f e73c 8427 273e e466 3c3d
000002c0: 40ec d33c 8307 a73d 8ec3 9a3d acc0 683e
000002d0: 6444 613d 880c 033e 3925 dd3c cb9e c63d
000002e0: 06b8 ba3d c0c0 633d 22b4 0dbe e2bb 083e
000002f0: 6a08 bf3d bab8 cf3d 5410 6f3d 9c5d 68bd
00000300: cedd 1f3e 9a9f 4f3e 4ba1 633c d56c 963d
00000310: 2eb3 993d cd69 d13d 1e08 143e 647b 16bd
00000320: ed50 04be d6c7 873d b65b e13d 9573 413d
00000330: 16ce 6e3e a889 e63d 430f dabc e2d1 7b3e
00000340: 69cc 173e d5ac 5c3e 1392 563e 1831 213e
00000350: b70a db3d 97e6 06bd 1218 353e 02bf b8bd
00000360: 1315 e33d b5db 113e 916b 043d c628 203e
00000370: 41e0 64bc 014f 8f3d 64d1 5cbe 1878 2f3e
00000380: d368 993d de47 623e dfd7 253e 0818 213e
00000390: 2752 c83d bed3 953d f770 873e 07f9 513e
000003a0: 7997 b53d 96d0 0abd fc4c aabc d971 d43d
000003b0: 8318 b93d 1483 c23d 36a3 313e 701a 6fbd
000003c0: 8ddc 9c3e bb78 4dbe 3d5f 403d e745 62bc
000003d0: 78da 40bd 189c 5abd 8845 aa3d 71de 35bd
000003e0: 7360 75bd feb3 233d 0741 0c3d 412d 5f3e
000003f0: bb87 ae3b 1b75 413d c5ac 91bd 7159 4b3d
