MLP_CAISO_2022_models/delta_NOx_round1/2023_10_31-03_59_01_PM/epoch=7279,r2=0.3862,Invalids=0.pth (torch, 692664 bytes, 20 tensors)

0.weight f4 [512, 5]
000000 fa 4c 42 3d e1 76 f1 3d 13 94 9e be 18 23 64 be
       0.04743669 0.117902525 -0.30972347 -0.22279012
000010 c3 a2 8a 3e ec 8b b1 3e 6a 56 84 be c7 3c 48 be
       0.27077302 0.34677064 -0.2584718 -0.19554435
000020 ae 31 42 3c 09 53 e4 bd 36 e6 c4 bd 24 19 0a 3e
       0.011852665 -0.1114865 -0.09614222 0.13486153
000030 29 ba c4 be 4c c9 fb 3d 45 64 b5 be 83 75 43 3e
       -0.3842328 0.12294254 -0.35428062 0.19087796
000040 ac 5c a9 3d c8 22 c6 3e 8d 81 c0 bd c4 b5 9e be
       0.08269629 0.3869841 -0.0939971 -0.3099805
000050 0c 02 be bd 7c cb 37 3e b2 bc b4 be 93 48 88 3d
       -0.09277734 0.17948717 -0.35300213 0.066544674
000060 c3 77 d4 be a1 64 36 be 71 22 ff bc 9c 88 f0 3d
       -0.4149762 -0.17811824 -0.031144353 0.11744806
000070 5b 53 17 be 9f b0 d5 be 8f b9 9c 3e 7e 82 81 be
       -0.14777891 -0.41736314 0.3061032 -0.2529487
000080 95 34 cf 3d 7c 07 b3 3d e2 61 7d bd 41 8f 13 3e
       0.10117451 0.08741662 -0.061860926 0.14410116
000090 f7 11 81 3e 2b bb d6 bd 4d 2b 13 3e ec 76 d9 3e
       0.2520902 -0.10484918 0.14371987 0.42473543
0000a0 bd b1 5a 3d bd bd 02 3e f2 29 a0 be f8 d6 6f be
       0.05339216 0.12767692 -0.31282002 -0.23421848
0000b0 89 52 90 3e 9b d5 0e 3d ef b7 08 3d 59 58 75 3e
       0.2818797 0.03487168 0.033378538 0.23959483
0000c0 e4 55 7f be a1 62 86 3e 61 8e b7 3b 0a d6 b6 3d
       -0.24935108 0.26247123 0.0056016897 0.089275435
0000d0 16 4e 93 be 97 ee f2 3d 38 88 22 3e a9 45 df be
       -0.28770512 0.11861914 0.15872276 -0.43607834
0000e0 23 45 00 3e 54 52 3c 3e ad 1f 43 be 51 37 b6 3d
       0.12526374 0.1839078 -0.19055052 0.088972695
0000f0 47 0b 14 3d ce f7 c4 be 48 3f 8a 3d 8b 7a 7f bd
       0.036143567 -0.3847031 0.06750351 -0.062372725
000100 1c 35 fc 3c 17 b8 13 3e 5d 49 dd 3d 1f c1 78 3e
       0.030787043 0.14425693 0.108050086 0.2429242
000110 81 1c 13 3e 5a ba 93 bd d5 22 9e bd d1 c3 88 3d
       0.14366342 -0.07213278 -0.077214874 0.06677974
000120 24 29 c5 3c 72 50 4d be 18 0c 8d 3e 1f 78 e6 bd
       0.024067469 -0.20050219 0.2754829 -0.1125338
000130 3d 18 b8 3e 5b b1 06 3e 4d e1 22 3e 3d 83 81 be
       0.35955992 0.13153593 0.15906258 -0.2529544
000140 68 1f 7d be 68 c5 94 3d 63 85 f5 3e 84 ea b0 3d
       -0.24719012 0.07264215 0.47953328 0.0863848
000150 d7 99 ed bc ee c2 93 3d 09 ff 50 3d 7d 29 26 3e
       -0.02900402 0.07214914 0.05102447 0.16226764
000160 4d e1 c2 3e c7 56 4b bd 35 00 4b 3e 96 1f 75 bd
       0.38062516 -0.049643304 0.19824298 -0.059844576
000170 89 aa 97 be 9f eb 93 3e f8 7c 86 3d 42 93 8a bc
       -0.29622295 0.28890702 0.06566805 -0.016915921
000180 52 03 6b 3d aa e9 40 be 7b 43 ee 3d 02 c2 9b be
       0.057376213 -0.18839136 0.11633965 -0.30421454
000190 80 5c ca 3e f7 88 ee 3d 4e f8 a2 be fe 55 14 be
       0.39523697 0.11647218 -0.31830066 -0.14485928
0001a0 2a 68 9b be bf 33 d0 3d 33 ac f9 3d fd d5 ea 3e
       -0.30352908 0.1016612 0.121910475 0.45866385
0001b0 78 a5 94 be 26 ed 2c bd 45 70 5f 3e 7d b4 fb bd
       -0.29032493 -0.04221835 0.21820171 -0.12290285
0001c0 0d 78 97 be 17 b1 27 be a2 46 c8 bc 61 78 c5 bd
       -0.2958378 -0.16376148 -0.024447743 -0.09642101
0001d0 25 8b 83 3d cc d4 a3 bb bd 94 ad 3e 9d cb 17 be
       0.06423024 -0.0049997326 0.3390254 -0.14823766
0001e0 d0 e6 9c 3c 0f d0 74 3d 9c 82 f7 3e 26 46 71 3e
       0.019153029 0.059768733 0.48341835 0.23561916
0001f0 cc 2f 79 be c4 e9 ac bd f2 22 f1 3d 02 7e d2 be
       -0.2433464 -0.08443025 0.117742434 -0.4111176
000200 96 0c 0f be 3e 14 10 be 79 d1 29 3e 63 3a b0 3d
       -0.13969645 -0.14070222 0.16583814 0.086048864
000210 97 d9 45 3d 75 43 a3 3d 92 e4 39 be a9 87 8d bd
       0.048303213 0.07971851 -0.18153599 -0.06910641
000220 93 72 0f 3e 46 d9 23 be 26 6a 5d 3c bf 1a c5 be
       0.1400855 -0.16000852 0.013514077 -0.38496968
000230 e4 9b 8b 3d fa b1 ab be e5 3b a3 3e 1b f8 65 be
       0.06816843 -0.33534223 0.31881633 -0.22457926
000240 c5 0b 4c 3e fe 65 9b 3d 35 17 7b 3d 4e 44 95 be
       0.19926365 0.07587813 0.06130143 -0.29153675
000250 66 38 14 3d 0a f1 04 bd aa 6f bb 3e 11 b8 aa 3d
       0.0361866 -0.032456435 0.3660863 0.08335889
000260 09 f2 bb bd 1e 8f 99 be d5 ea f3 3d f3 cd 80 3c
       -0.09177024 -0.29992002 0.11910025 0.015723204
000270 1e c3 9a 3d 9c b1 89 be 3a f0 90 bc 2e c5 64 3e
       0.07556747 -0.26893318 -0.017692674 0.22340843
000280 c9 c6 82 3e 32 1d 58 bd c5 b6 d5 bd 09 2c 9d bd
       0.25542286 -0.052762218 -0.10435251 -0.07674415
000290 ad 68 b0 3e ad 24 76 be 13 e7 25 3e 79 60 83 be
       0.3445486 -0.24037428 0.16201429 -0.2565954
0002a0 fd 62 5a 3e b7 52 02 3e f4 43 18 be 81 54 89 bc
       0.21326824 0.12726866 -0.14869672 -0.016763927
0002b0 9f 7c ee be a3 45 a5 bd ab a2 95 3e ac 7a b7 3c
       -0.46579453 -0.08069923 0.29225668 0.022397362
0002c0 4d df 98 3d b3 70 11 3f 92 8f 11 be d8 b6 9f bc
       0.07464466 0.5681259 -0.14214924 -0.019496366
0002d0 c8 bf a8 bd 2e 0a 7b 3e 77 1d 96 be 11 a4 73 bd
       -0.08239704 0.24515602 -0.29319355 -0.059482638
0002e0 3d d0 32 3d 73 20 ea 3d e8 8f d0 3d d3 b8 ee be
       0.043655623 0.114319704 0.10183698 -0.46625385
0002f0 6a 28 2c be 6a be 24 3e df ba 87 3e 75 0f ce 3d
       -0.16812292 0.16088262 0.2650976 0.10061542
000300 a3 a5 7a be f4 02 06 3d bf 0c a3 be 24 88 64 bd
       -0.24477248 0.03271766 -0.31845662 -0.055793896
000310 43 f9 50 be bb 13 d6 be 1b 0a d3 bc a1 d7 74 3d
       -0.20407586 -0.41811928 -0.025761655 0.059775952
000320 54 ee 51 3e 29 c5 8e 3e b8 f5 fa 3e 59 19 5e 3e
       0.20501071 0.27884796 0.49015594 0.21689357
000330 cc 12 56 be 09 13 a4 3c 28 d8 aa be a8 4b ed bc
       -0.20905608 0.020028608 -0.3336804 -0.02896674
000340 95 27 13 be 83 c2 02 3e 95 f8 68 3d 08 07 99 3c
       -0.14370568 0.12769513 0.05687769 0.01868011
000350 97 a2 c0 be 97 68 90 3e 1d 4d b6 3c 79 f4 6a be
       -0.37624046 0.28204796 0.022253567 -0.22944821
000360 ae b8 95 be 98 96 42 3d 17 79 94 3e 5b d6 6e be
       -0.29242462 0.0475069 0.28998634 -0.23323958
000370 16 85 41 bd 53 da 57 3e 82 5f 46 3e 72 ae cc 3e
       -0.04724606 0.21079378 0.19372371 0.3997684
000380 8a cd 3c 3e 48 10 f3 ba 76 07 00 3e 6a da b7 be
       0.18437782 -0.0018544281 0.12502846 -0.35908824
000390 3c 2b 5e be 1f 74 0f be 69 38 27 3e 4b 85 11 3e
       -0.2169618 -0.1400914 0.16330113 0.14211003
0003a0 08 42 76 bd 5a 99 bf 3d 88 65 b0 3e 63 86 10 bc
       -0.060121566 0.09355421 0.34452462 -0.008821103
0003b0 c9 5f ca 3d 4c 84 12 3f 80 61 44 be 72 13 58 3e
       0.09881551 0.5723312 -0.19177818 0.21101168
0003c0 a9 26 55 bd c5 a6 03 3e 85 c9 1a be 46 ea 90 3e
       -0.052038822 0.12856586 -0.15115936 0.28303736
0003d0 87 32 e2 3e bf 1e 4c bb 45 5d 39 3c ae 22 d7 be
       0.44179174 -0.0031146256 0.011313741 -0.42018646
0003e0 a0 e0 c5 3d 24 73 ce bd e6 c9 95 3e be bf b9 be
       0.096619844 -0.10080555 0.292556 -0.362791
0003f0 51 62 c8 3e df f7 c3 bd 24 cb a8 bd 45 0e 7b 3d
       0.3913751 -0.09568762 -0.08241871 0.061292905

0.bias f4 [512]
000000 b6 0f 62 3e aa 81 66 bd d7 5c 12 3e 81 dc 56 be
       0.22076306 -0.056276 0.14293228 -0.20982553
000010 49 ce 75 be 6a 9b 52 be 29 8b b9 39 39 84 9a 3e
       -0.24004473 -0.20567098 0.00035389632 0.30179003
000020 ec f9 2e 3e 05 b1 9c 3e 8b 5c ab 3e d2 70 0e be
       0.17087525 0.30603805 0.33469042 -0.13910225
000030 32 9e 51 be 8c e7 58 3e e3 09 7b 3d cf 3e 89 3c
       -0.20470503 0.21182078 0.061288726 0.016753582
000040 c3 5b 94 bc 9b aa 19 3d 79 0c 87 3e fe c5 5f 3e
       -0.018110162 0.037516218 0.26376703 0.21852872
000050 c0 6d 93 be da 45 03 3d 64 bf 1e bb d1 e8 27 be
       -0.2879467 0.032049038 -0.0024222964 -0.16397406
000060 ac 7b ac bd 06 79 cb be 02 6e 81 3e 67 18 8c be
       -0.08422026 -0.3974077 0.25279242 -0.27362368
000070 1e 5a 2b 3e 82 7d 9d be 9c 85 97 3e ff 2e 27 3e
       0.16733596 -0.30759817 0.29594123 0.16326521
000080 3b 67 00 be cc e9 5a bd 30 23 91 bd 5d 31 a7 3e
       -0.1253938 -0.053445622 -0.070867896 0.3265485
000090 bc 72 0f 3d ef aa 5b be 53 d2 03 be 29 e4 c5 3d
       0.03502153 -0.21451925 -0.12873201 0.09662659
0000a0 c5 6c 22 bd 48 4a 0d be 3e 99 f8 3c 44 97 3c 3e
       -0.039654512 -0.13797867 0.03034651 0.18417078
0000b0 98 4e e6 bc 23 d8 c6 bd 00 29 2a 3e d2 d3 33 3e
       -0.028113648 -0.097091936 0.16617203 0.17561272
0000c0 fe 4c 02 be 4d ed e9 3c d1 95 13 be b3 8c 35 bd
       -0.12724683 0.028555537 -0.14412619 -0.044323634
0000d0 d3 30 6e 3e ec 1d 85 be 84 67 1c be 0f 5c 5f be
       0.23260812 -0.2599939 -0.15273863 -0.21812461
0000e0 d5 4b 76 be 8d 52 47 3e d4 52 0b bc d1 22 c7 3d
       -0.24052365 0.19465084 -0.0085036345 0.097234376
0000f0 7c c1 d8 3d f6 18 cb 3c 08 59 63 bd 75 71 86 bc
       0.10583779 0.024792176 -0.05550483 -0.016411522
000100 8c 40 5d 3e 39 93 91 be c1 d3 d4 3e cb 5f a6 3d
       0.21606654 -0.28432634 0.41567805 0.0812374
000110 3a 51 bf b9 aa 79 3d 3e f7 ca d1 3d 86 16 6b bd
       -0.00036490877 0.18503442 0.102437906 -0.057394527
000120 8a 1b da 3e b4 05 2c be 98 c9 d2 bd 15 17 45 be
       0.42599136 -0.1679905 -0.10292357 -0.19247086
000130 a0 ea a3 bd ae e9 1e be 67 51 2b be 7e 39 45 3e
       -0.080037355 -0.15518829 -0.16730271 0.19260213
000140 c1 47 1e be 67 93 92 be 16 3f 51 be d3 69 58 bc
       -0.1545706 -0.28628084 -0.20434222 -0.013208824
000150 13 27 37 3e d3 bc 80 be c2 24 29 3e 4c 82 33 3e
       0.17886 -0.2514406 0.16517928 0.17530173
000160 fc f7 ef bc 52 81 9f 3d d7 42 35 3d ae 9e 93 3e
       -0.029293053 0.07788338 0.044253197 0.28832
000170 bd 94 57 be 96 51 6a be fb f1 ed 3d 19 ce 73 3e
       -0.21052833 -0.22882685 0.1161842 0.23809089
000180 a1 58 70 3e e7 52 4e 3e 3d d4 23 bd fe a0 1d 3e
       0.23471309 0.20148812 -0.039997328 0.15393445
000190 1c 9f 79 be 89 18 6b 3e ba bb ea bc 46 77 5f be
       -0.24377102 0.22958578 -0.028653968 -0.21822843
0001a0 7e 52 fb 3d 12 86 be be d0 5e 74 3e ca 73 8c 3e
       0.122715935 -0.37211663 0.23864293 0.2743209
0001b0 01 f1 9d 3e 11 5d a6 bd 15 d1 e1 3c 96 19 89 be
       0.30847934 -0.0812322 0.027565518 -0.26777333
0001c0 88 f0 9a 3e 4f a8 70 be 6a 7b 9a 3c 03 28 05 be
       0.30261636 -0.23501705 0.018857677 -0.13003545
0001d0 9c c9 3f 3e 29 da 47 bd a0 dc 34 bb b1 1d a3 bd
       0.18729252 -0.048792038 -0.0027597323 -0.079646476
0001e0 3a 9e f3 bd e2 1c ad be 60 b4 80 3c d1 2d 72 3e
       -0.11895414 -0.33811098 0.01571101 0.2365029
0001f0 b6 c5 f4 3d 9a ec 3d be 17 e4 8f bd 32 64 b4 3e
       0.11951773 -0.18547288 -0.070259266 0.35232693
000200 52 81 ae 3e 1b c4 ad 3e 68 75 99 3e aa a3 75 be
       0.3408304 0.3393868 0.29972386 -0.23988214
000210 02 09 a2 3d 48 59 c5 3d 97 b0 6a 3e 2d 90 09 3e
       0.07911874 0.0963617 0.22918926 0.13433905
000220 06 0b a8 3e 6f 81 b8 3c be 69 97 3e c1 bd b8 3e
       0.3282091 0.022522656 0.29572862 0.3608227
000230 e7 cf a8 3e 98 42 84 3e 30 40 21 be 62 7c 7a be
       0.32971117 0.25832057 -0.15747142 -0.24461511
000240 ba 43 19 3e 5d 50 53 3c f9 76 a0 3e 27 e8 6e 3e
       0.14967242 0.012897578 0.3134077 0.23330747
000250 52 b8 18 3e 44 e4 87 be 3a 3f a1 3e e9 78 76 3e
       0.14914063 -0.2654134 0.3149355 0.24069561
000260 ea 3a 94 be 64 98 50 3e f7 d4 30 be d5 c2 36 be
       -0.28951198 0.20370632 -0.1726874 -0.1784776
000270 cd 83 70 be b7 75 14 3e 19 20 91 3e 2e 00 a2 3e
       -0.23487778 0.1449803 0.283448 0.31640762
000280 0c a4 1e 3e 0d e8 11 3e fd c6 a2 3e 9d e9 d1 3d
       0.15492266 0.14248677 0.3179244 0.10249636
000290 b6 88 71 3d 7e a6 b9 3e 2a ab a1 3e 5f 67 9a bc
       0.05896827 0.36259836 0.315759 -0.01884812
0002a0 15 a2 84 bc b1 e0 9a 3e 42 09 5d 3d 56 ec 83 be
       -0.016190568 0.3024955 0.053963907 -0.25766248
0002b0 20 c8 31 be 06 cf c3 3c 01 0a ed bd 6d a3 0f 3e
       -0.17361498 0.023902427 -0.11574174 0.14027186
0002c0 55 a6 7b be 3e 09 4d 3e 75 6b 50 3e 99 0b 8a bd
       -0.2457517 0.20023057 0.20353492 -0.06740493
0002d0 ca ed ab be 29 ae d8 3c a3 f2 9e be 5e a8 1e be
       -0.33579856 0.026450234 -0.31044492 -0.15493914
0002e0 60 8d 8d be 7e d6 16 3e 1f 1e ba bc c9 f0 2d 3e
       -0.27646923 0.1473026 -0.022719441 0.16986383
0002f0 07 b4 6b be 52 8e f2 3d 23 53 03 bd d9 bb bd bd
       -0.23017894 0.11843552 -0.032061707 -0.09264345
000300 42 08 5b 3e a0 15 7b be 30 4b 3d 3d 4b 05 50 3e
       0.21389869 -0.24519968 0.046214283 0.20314519
000310 86 65 67 3d fc cf a5 3e fd 7e 8f 3e 2a d2 c2 3d
       0.056493305 0.32385242 0.28026572 0.09512742
000320 cd 19 6d 3e b0 15 a4 be 4e c3 7b bd e5 7d d8 3d
       0.23154373 -0.32047796 -0.061465554 0.105708875
000330 a7 02 92 be 17 f7 9a 3e c5 e8 7d be 0a 69 ce 3d
       -0.2851765 0.3026664 -0.24795826 0.10078628
000340 40 2a 50 3d 18 78 66 3d 85 17 b5 bc d1 1d a4 3e
       0.050821543 0.056266874 -0.022105942 0.32053998
000350 9b 49 d0 bb 7b 86 b1 3e c1 fa 87 3e 03 d6 a2 3e
       -0.0063564307 0.34672913 0.26558498 0.31803903
000360 dd 4b c5 3e f6 53 84 be c9 51 6a be c1 62 7e be
       0.38534442 -0.25845307 -0.22882761 -0.24842359
000370 20 7c 4f 3c 41 43 1f 3e 0c 8f 23 3e 69 54 0b be
       0.012663871 0.15552999 0.15972537 -0.13606419
000380 4e c6 4b 3e d3 01 96 bd 9e 05 4a be 21 e0 40 3e
       0.19899866 -0.07324567 -0.19728705 0.18835498
000390 89 34 30 3e 7c d3 28 3d 2f 5e 7e 3d 75 42 4b 3d
       0.1720754 0.041217312 0.06210154 0.049623925
0003a0 8a 83 16 3d 92 6b db 3e 88 2c ba 3e d7 d2 ae 3d
       0.03674654 0.42855507 0.363621 0.08536308
0003b0 2c 56 9e be 3b d1 77 be bd cb 67 be 92 54 77 3e
       -0.3092512 -0.24200909 -0.22636314 0.24153355
0003c0 52 4f ae be 35 17 03 be c9 47 f0 3b 9a 3d 05 3e
       -0.34044892 -0.12801822 0.007332776 0.1301178
0003d0 09 98 ab bd cf 4c 57 3e 03 8a 50 3e 86 28 a8 3e
       -0.08378608 0.21025394 0.20365147 0.32843417
0003e0 49 b9 59 be d1 64 b6 bd 90 ff 69 bb 70 88 6a 3e
       -0.21262087 -0.08905948 -0.0035705306 0.2290361
0003f0 49 dc 92 3e f5 fc 94 3c 08 c3 15 be 0e 19 81 3e
       0.2868369 0.018187026 -0.1462518 0.25214428

1.weight f4 [512]
000000 7a 9b 63 3f ab b8 3a 3f 27 2a 5c 3f 1f 3e 31 3f
       0.88909113 0.7293803 0.8600182 0.69235414
000010 15 ad 2f 3f 07 2b 00 3f 8a 2b 39 3f e2 a8 2e 3f
       0.6862348 0.50065655 0.7233206 0.68226445
000020 e8 ed 59 3f 33 3d 53 3f 60 f5 63 3f b4 26 44 3f
       0.8512864 0.8251526 0.8904629 0.76621556
000030 c1 bb 36 3f 87 54 3a 3f c2 28 39 3f 36 6c 49 3f
       0.7138024 0.7278523 0.72327816 0.7868074
000040 42 7c 46 3f 32 d3 28 3f f8 95 24 3f e8 a5 44 3f
       0.7753335 0.6594726 0.64291334 0.7681565
000050 da 25 36 3f c9 a4 2d 3f c2 7c 43 3f 3e 0f 35 3f
       0.71151507 0.6782957 0.7636224 0.7072638
000060 b5 a8 78 3f 85 48 46 3f 68 89 35 3f bb fe 14 3f
       0.97132427 0.77454406 0.7091279 0.5820119
000070 7b c0 40 3f fc 68 5d 3f fe 50 32 3f cc 4c 67 3f
       0.752937 0.8648832 0.69654834 0.9035156
000080 b4 4a 2b 3f 97 50 3d 3f 8d 18 40 3f fa d1 51 3f
       0.6691086 0.73951095 0.7503746 0.81961024
000090 cd cd 45 3f 51 6b 57 3f 1c bc 38 3f e5 e0 36 3f
       0.7726715 0.84148127 0.7216203 0.7143691
0000a0 a9 e0 36 3f 31 4c 4c 3f 24 7d 1a 3f 2b 6b 40 3f
       0.71436554 0.7980376 0.603472 0.75163525
0000b0 2b f5 1f 3f ed a8 4c 3f 25 d6 24 3f c1 28 87 3f
       0.6248347 0.7994526 0.6438926 1.0559312
0000c0 10 0e 25 3f 89 b1 55 3f 75 fd 31 3f 49 bd 38 3f
       0.6447458 0.8347402 0.6952737 0.72163826
0000d0 fd 54 1e 3f 74 58 48 3f 5f 77 52 3f df 89 37 3f
       0.6184843 0.7825997 0.82213396 0.7169475
0000e0 1d b1 32 3f 21 49 3a 3f f1 71 40 3f d5 ea 15 3f
       0.69801503 0.72767836 0.7517386 0.5856145
0000f0 bd 43 37 3f 61 01 3e 3f 26 ad 40 3f 39 e3 4e 3f
       0.71587735 0.74220854 0.75264204 0.80815464
000100 58 28 24 3f 3f 39 27 3f 24 99 81 3f 9d 1c 1f 3f
       0.6412406 0.65321726 1.012486 0.62153035
000110 e2 3d 4e 3f c6 70 39 3f 91 1c 37 3f 72 e9 26 3f
       0.80563176 0.72437704 0.71527964 0.6519996
000120 28 dc 67 3f 9f 9d 11 3f ae 73 3f 3f 8d e2 47 3f
       0.90570307 0.56881136 0.7478589 0.78080064
000130 71 11 6a 3f 38 08 35 3f 10 d0 37 3f 89 72 35 3f
       0.91432863 0.70715666 0.71801853 0.7087789
000140 df 94 1e 3f 3b 97 3b 3f 32 d5 43 3f 3f 5e 1c 3f
       0.6194591 0.73277634 0.76497185 0.6108131
000150 86 54 61 3f 74 04 41 3f 31 8c 5f 3f 7e c5 3c 3f
       0.880196 0.7539742 0.8732329 0.7373885
000160 dd 7e 40 3f 7d 92 55 3f 4f 13 60 3f 93 10 38 3f
       0.7519358 0.8342665 0.8752946 0.7190029
000170 00 7a 2b 3f 60 dc 3c 3f de 7c 4e 3f a3 78 26 3f
       0.6698303 0.73773766 0.8065928 0.6502783
000180 9c b6 23 3f 6e 73 29 3f 3d 5e 3c 3f 28 a2 2c 3f
       0.63950515 0.66191757 0.73581296 0.6743493
000190 7f a2 27 3f f2 e8 4a 3f bd 58 35 3f 4b 49 45 3f
       0.65482324 0.79261696 0.7083853 0.7706496
0001a0 0d 7b 45 3f 28 f5 59 3f 7b c0 1e 3f 8f 0d 4b 3f
       0.77140886 0.85139704 0.6201245 0.79317564
0001b0 06 e7 60 3f ff a9 2a 3f ae ef 3d 3f 76 61 28 3f
       0.87852514 0.66665643 0.7419385 0.65773714
0001c0 91 ce 5a 3f e6 1e 40 3f 11 6d 56 3f ed 7f 35 3f
       0.85471445 0.7504715 0.8376017 0.70898324
0001d0 f8 ee 46 3f 98 81 36 3f cd fc 4c 3f d2 75 3e 3f
       0.7770839 0.71291494 0.80073243 0.7439853
0001e0 bd 1e 41 3f 35 f7 3c 3f 9b 84 40 3f 80 b3 2c 3f
       0.7543753 0.7381471 0.7520234 0.67461395
0001f0 3a 42 1a 3f a6 a9 50 3f ca f8 54 3f d0 1e 37 3f
       0.60257304 0.8150886 0.8319212 0.7153139
000200 63 a1 34 3f 2e 7a 4b 3f 6d e5 22 3f 2c d7 32 3f
       0.70558757 0.79483306 0.63631326 0.69859576
000210 1f 6b 2b 3f 43 b2 3b 3f 7e 52 5e 3f 06 84 3d 3f
       0.6696033 0.7331888 0.86844623 0.74029577
000220 94 d9 45 3f 69 2d 5d 3f 34 c8 36 3f f2 bf 57 3f
       0.7728512 0.86397415 0.71399236 0.8427726
000230 ef 29 37 3f c4 06 1e 3f 96 5b 24 3f fa 7e 2d 3f
       0.7154836 0.61729074 0.6420225 0.67771876
000240 0b c2 4e 3f ef 72 1a 3f 1f b1 49 3f 03 9b 3d 3f
       0.80764836 0.60331625 0.7878589 0.74064654
000250 3e a4 4a 3f 4c 47 32 3f ed 91 29 3f a0 5e 3b 3f
       0.79156864 0.6964004 0.6623829 0.7319126
000260 55 d7 58 3f e4 e7 41 3f 5b fd 35 3f a5 1a 37 3f
       0.8470357 0.7574446 0.71089715 0.7152503
000270 14 80 2c 3f 71 a1 1d 3f 4e 66 37 3f 94 14 38 3f
       0.6738293 0.61574465 0.7164048 0.719064
000280 ae a2 30 3f de ac 45 3f 30 40 24 3f 19 ed 31 3f
       0.6899823 0.772169 0.6416044 0.6950241
000290 8e 4a 05 3f 63 0c 36 3f 83 66 22 3f da 08 60 3f
       0.52066886 0.7111265 0.6343767 0.87513506
0002a0 6a fd 40 3f 0f f3 e9 3e 46 e6 2c 3f 9f c0 2c 3f
       0.7538668 0.45693251 0.6753887 0.67481416
0002b0 22 59 07 3f 3a 6f 64 3f 03 8e 2d 3f 4f 68 3e 3f
       0.5287038 0.8923222 0.6779482 0.7437791
0002c0 0b 33 45 3f 32 39 35 3f 09 39 3f 3f b9 2a 58 3f
       0.7703101 0.707904 0.74696404 0.8444019
0002d0 d9 0d 38 3f 9b e4 28 3f 28 79 28 3f 93 a1 69 3f
       0.7189613 0.65973824 0.6580987 0.9126217
0002e0 c5 53 3f 3f 1b 18 37 3f 4e 54 38 3f d8 b5 28 3f
       0.747372 0.7152116 0.7200364 0.6590247
0002f0 2d 9e 3e 3f 61 99 30 3f e7 dc 30 3f b5 ed 3c 3f
       0.7446011 0.6898404 0.6908707 0.7380021
000300 bc a9 22 3f 27 2a 70 3f 0d 2c 33 3f b9 a5 46 3f
       0.63540244 0.9381432 0.6998909 0.7759662
000310 c2 c0 2b 3f 10 bb 30 3f 06 65 67 3f 37 8f 50 3f
       0.67091 0.69035435 0.90388525 0.8146853
000320 d4 6f 2a 3f 6c 07 45 3f 9f 71 30 3f b5 27 3c 3f
       0.66576886 0.7696445 0.6892337 0.7349809
000330 74 03 57 3f ac 48 32 3f 4d ac 24 3f 70 71 38 3f
       0.83989644 0.6964214 0.6432541 0.7204809
000340 a3 3a 33 3f 5b 32 48 3f ca 8f 35 3f 71 32 6d 3f
       0.7001135 0.78201836 0.7092253 0.9265509
000350 64 e5 40 3f 3d ed 5c 3f 58 47 47 3f 29 e6 f4 3e
       0.7535002 0.86299497 0.77843237 0.47831848
000360 79 53 62 3f 6f 29 50 3f a5 b3 2a 3f 3b 84 22 3f
       0.8840862 0.8131322 0.66680366 0.6348302
000370 6a de 30 3f 6f 1d 58 3f ef 46 39 3f 62 1e 25 3f
       0.69089377 0.8441991 0.7237386 0.64499485
000380 80 15 3b 3f 47 25 37 3f 52 e9 5a 3f d8 39 32 3f
       0.7307968 0.71541256 0.8551227 0.6961951
000390 8f 03 48 3f a8 13 5b 3f d2 18 1c 3f 17 fe 4c 3f
       0.7813043 0.8557687 0.6097537 0.8007521
0003a0 f6 87 5f 3f 66 d7 56 3f 71 c8 29 3f e4 fa 1a 3f
       0.87316835 0.8392242 0.66321474 0.6053908
0003b0 da cd 4c 3f 5d b1 1b 3f 2a 2e 39 3f 2a 73 21 3f
       0.80001605 0.6081751 0.72336066 0.6306635
0003c0 bd 7c 3c 3f f9 08 28 3f 84 ae 3b 3f 8f b7 3f 3f
       0.73627836 0.6563869 0.73313165 0.74889463
0003d0 db 94 64 3f bc 20 38 3f 46 72 3c 3f 4e e7 24 3f
       0.89289635 0.7192495 0.7361187 0.6441544
0003e0 af 94 34 3f 70 b1 0d 3f 57 26 4a 3f 81 2f 32 3f
       0.70539373 0.55348873 0.7896475 0.69603735
0003f0 a3 9e 22 3f 3c 26 3c 3f c7 b4 1c 3f ab e8 28 3f
       0.6352331 0.7349584 0.61213344 0.65980023

1.bias f4 [512]
000000 49 e0 d6 be 33 95 87 be 9f 66 0b bf 6f 59 c6 be
       -0.4196799 -0.26481017 -0.5445346 -0.38740107
000010 44 94 88 be 2d 4b d2 be 6c 79 04 be a1 61 d7 be
       -0.26675618 -0.4107298 -0.12936944 -0.42066672
000020 4e b0 c5 be e6 f9 ca be f8 ad 8d be 62 68 76 be
       -0.38611072 -0.39643782 -0.2767179 -0.24063256
000030 81 f5 ac be 75 55 0b be bc 81 32 be 0d 47 27 be
       -0.33781055 -0.13606818 -0.17432302 -0.16335697
000040 43 91 eb be 91 5b f0 bd 62 b8 86 be fa de 8c be
       -0.46009263 -0.11736215 -0.26312548 -0.27513868
000050 1d 35 6a be a4 02 9a be 25 ec 43 be 7f 92 2e be
       -0.22871824 -0.3008014 -0.1913305 -0.17048071
000060 3f cf fc be 08 07 ff bd 11 da 95 be 06 9b dc be
       -0.49376866 -0.12452513 -0.29267934 -0.43087023
000070 23 1d 72 3d 52 66 ec be 14 37 3c be b6 ed 37 be
       0.05910982 -0.46171814 -0.18380386 -0.17961773
000080 17 55 ae be d2 6b b4 be e6 eb 13 be 6e 8e 9a be
       -0.34049293 -0.3523851 -0.14445457 -0.3018679
000090 b6 c9 ad be 13 7b de be 50 8c 7c be 39 7f 1f bf
       -0.33942956 -0.43453273 -0.246629 -0.623035
0000a0 13 8b dc bd ce 23 eb be d1 f4 70 bd e0 95 8c be
       -0.10768714 -0.45925754 -0.058827225 -0.27458096
0000b0 d3 54 db bd f6 cb 93 be 6e 4b c6 be 71 67 1b bf
       -0.10709538 -0.28866547 -0.38729423 -0.60704714
0000c0 47 ac fb bd 8f b5 99 be 8f d0 31 be 2d 44 9f be
       -0.12288719 -0.3002133 -0.17364715 -0.31106701
0000d0 b4 c2 a6 be bb e6 a4 be ce 34 60 be 19 09 09 be
       -0.32570422 -0.32207283 -0.21895143 -0.13382377
0000e0 e5 db a9 be 70 d6 95 be 3b 1f 6c be d5 f5 f8 be
       -0.3317558 -0.29265165 -0.23058788 -0.48625055
0000f0 0b df 7f be 3a 44 a1 bd 99 07 f9 be 7b 45 0f be
       -0.24987428 -0.07874341 -0.4863861 -0.13991348
000100 17 3f bf bc 53 31 0a be 16 a5 22 bf c8 01 2f be
       -0.023345513 -0.13495378 -0.6353315 -0.17090523
000110 ba 47 67 be 86 8c 16 be 35 f8 98 be b6 a5 83 be
       -0.22585955 -0.14702043 -0.29876867 -0.25712365
000120 03 73 f7 be 48 4b e1 bd f8 4d ca 3c 4b 24 82 be
       -0.48329934 -0.11000687 0.024695382 -0.25418314
000130 45 3d a5 be 09 45 55 be b5 9d 9e be 9e c2 80 be
       -0.32273307 -0.20827116 -0.30979696 -0.2514848
000140 6d db 85 be b8 fb 1b bf 80 6b 15 be b6 04 8f be
       -0.2614397 -0.6093097 -0.14591789 -0.27933282
000150 2f 9f d3 be 37 ee 17 be 94 f6 4e be 75 43 6b be
       -0.41332385 -0.14836966 -0.2021125 -0.22974952
000160 24 58 9e bd 40 97 e3 be 9f 70 df 3d 5d 5c b1 be
       -0.07731655 -0.44451332 0.10910153 -0.3464078
000170 c4 64 cb be 7b 00 a0 be bd d3 61 bf ce 02 1b bf
       -0.39725316 -0.31250367 -0.8821371 -0.60551155
000180 4e db 16 be be 42 6d be 2f 6d a7 be f1 9e 8c be
       -0.14732096 -0.23169991 -0.32700488 -0.27465013
000190 8f 2a 8c be 74 c4 9b be 13 c9 d1 be ab ff 1e be
       -0.2737622 -0.3042332 -0.4097372 -0.15527217
0001a0 42 a3 86 be 18 8f 4c be e0 f7 90 be 75 e1 89 be
       -0.2629643 -0.19976461 -0.28314114 -0.26929823
0001b0 46 87 d0 be 47 cb 2f be ed fc 6f be e5 8c fe be
       -0.40728205 -0.17167388 -0.23436327 -0.4971687
0001c0 e0 10 bc be 2c f1 be bd 77 65 a1 be b1 79 7b be
       -0.36731625 -0.09323344 -0.31522724 -0.2455814
0001d0 f4 2f 58 be 25 19 2d be 6b ec 71 be 12 99 a2 be
       -0.21112043 -0.16904123 -0.23625343 -0.31757408
0001e0 f8 bd 89 be 91 11 2c be 40 48 76 be 8d a2 2b be
       -0.26902747 -0.16803576 -0.24050999 -0.16761227
0001f0 e1 9b 83 be 53 12 30 be d5 1a f9 be 56 20 a9 be
       -0.25704864 -0.1719449 -0.48653284 -0.33032483
000200 f1 95 bb be cb 72 91 be 80 a8 ef bd 58 50 a1 be
       -0.36637834 -0.28407893 -0.11702061 -0.3150661
000210 2e 88 55 be 86 af b2 be 94 77 03 bf 7b 3f 99 3d
       -0.2085273 -0.3489954 -0.51354337 0.07482811
000220 4f c6 a1 be fe 78 14 be 14 f7 ab be dd e8 69 be
       -0.3159661 -0.1449928 -0.33586943 -0.22842737
000230 25 04 a4 be c6 a0 55 be 25 f0 c7 bd 4b a2 22 be
       -0.32034412 -0.20862111 -0.09762601 -0.15882222
000240 a7 0b 8b be a6 ee a9 bd 80 1a a5 be 9c 8d 44 be
       -0.27157328 -0.08297472 -0.3224678 -0.19194645
000250 78 44 b9 be da 49 7f be 1d 5d d9 be fd 62 14 3d
       -0.3618505 -0.24930516 -0.42453852 0.036227215
000260 84 f9 b5 be d1 ae cb bd d1 f5 be be 18 ad b9 be
       -0.35541928 -0.09945453 -0.37296918 -0.36264873
000270 51 76 72 be 82 43 49 be aa 29 c1 be 79 b8 ad be
       -0.23677947 -0.19654658 -0.377271 -0.33929804
000280 48 50 8b be b7 03 c5 be 0f e8 b3 be 2c 55 eb bd
       -0.27209687 -0.38479397 -0.35137984 -0.114908546
000290 2d d8 27 be 19 53 79 be 2e 7f 4a bd eb 05 0c be
       -0.16391058 -0.24348105 -0.049437694 -0.13674133
0002a0 45 35 05 be 2d 34 ab 3c c2 3e 5e be 21 f6 cc be
       -0.13008602 0.020898903 -0.21703628 -0.4003153
0002b0 b0 0f 80 be 70 a6 32 be a7 a0 15 be 32 ff 4e be
       -0.2501197 -0.17446303 -0.14612065 -0.20214537
0002c0 92 1f 1e be d2 4b c7 bd be 8e 70 be ef dd 0e bf
       -0.1544173 -0.097312585 -0.23491952 -0.55807394
0002d0 82 9c 4c be 23 f0 6e be 22 60 07 bf 1a b6 f3 be
       -0.19981578 -0.23333792 -0.5288106 -0.4759987
0002e0 74 ef 6e be 36 cd c7 bd 10 7d 49 bd 59 e4 33 be
       -0.23333532 -0.09755938 -0.049191535 -0.17567576
0002f0 0e c2 fa bd 6b ff 2c be 6c 39 d3 bd 7a 5d b0 be
       -0.12244044 -0.16894309 -0.10313687 -0.34446317
000300 59 d7 9f be 05 f9 ea be 77 62 0f be a8 32 08 be
       -0.31218985 -0.45893112 -0.14002405 -0.13300574
000310 ba fb 42 be 3d 30 e1 be dc 27 eb be 94 83 35 be
       -0.19041339 -0.43982115 -0.45928848 -0.17725974
000320 38 a8 9c be 65 12 27 3e 65 61 e8 bd ab 70 48 be
       -0.3059709 0.1631561 -0.113467015 -0.1957423
000330 33 d9 b2 be e4 36 5f be 86 07 97 be 1b d9 a2 be
       -0.34931335 -0.21798283 -0.29497927 -0.31806263
000340 d4 2d 9b be 97 c2 99 be 18 a1 4e be 8f d4 f2 be
       -0.30308402 -0.30031273 -0.2017864 -0.47427794
000350 6f 56 c7 3c 38 96 f6 be 08 df 1c be 95 fd 97 be
       0.024333207 -0.48161483 -0.15319455 -0.29685655
000360 ec 69 e4 be 4d 6d f5 be 24 20 9a be 57 b8 90 be
       -0.44612062 -0.47934952 -0.30102646 -0.2826564
000370 64 19 c8 be 4f f3 a2 be 21 40 b0 be 0f c9 d7 bd
       -0.39081872 -0.31826255 -0.34423926 -0.10536396
000380 e5 c8 10 be 8d 79 d1 bd 72 f3 e6 be 33 3a e4 be
       -0.14139135 -0.10228262 -0.4510761 -0.44575652
000390 69 d7 b0 be 68 53 de be 32 45 b0 be 4c d2 1b bf
       -0.34539345 -0.4342301 -0.34427792 -0.6086776
0003a0 10 c4 f6 be 33 52 11 bf 6e 8d d0 bd c0 bd 56 be
       -0.4819646 -0.5676605 -0.101832256 -0.20970821
0003b0 e1 7e 7f be ee b3 8d be 9e da 61 be a9 75 50 be
       -0.24950744 -0.27676338 -0.22056052 -0.20357384
0003c0 e0 ef 27 be cd 91 54 be e4 17 1f be cb 86 85 be
       -0.16400099 -0.20758744 -0.15536457 -0.260794
0003d0 10 03 9a 3d b9 c3 b4 bb c2 ed 06 be 20 25 c3 be
       0.075201154 -0.005516496 -0.13176635 -0.38114262
0003e0 d1 e6 51 be 0d 78 21 bd 38 c3 8d be e0 2a 70 be
       -0.20498206 -0.03942113 -0.27688003 -0.23453856
0003f0 c3 d4 7c be b4 e3 43 be 75 69 8a be b7 f7 9f bc
       -0.24690537 -0.1912983 -0.27033582 -0.0195273

1.running_mean f4 [512]
000000 1b 7b 61 3e 64 f1 61 bd 6c 9b 12 3e bf 67 5a be
       0.22019617 -0.05516185 0.14317101 -0.21328638
000010 3d 9d 74 be f3 4f 53 be ae d5 6b 39 b8 41 9a 3e
       -0.23888107 -0.20635967 0.00022490948 0.30128264
000020 73 00 30 3e 39 7a 9b 3e 2d 66 ab 3e 9b f8 0d be
       0.17187671 0.30366686 0.3347639 -0.13864367
000030 7d b4 53 be 09 27 59 3e 94 09 80 3d d2 db a3 3c
       -0.2067432 0.21206297 0.06251827 0.02000228
000040 40 62 85 bc e5 1e 18 3d 6d e1 86 3e ad 93 5f 3e
       -0.0162822 0.03713884 0.2634386 0.21833678
000050 6a 81 92 be a6 02 f7 3c f5 50 b8 bb 15 4b 29 be
       -0.2861436 0.03015263 -0.005624885 -0.16532548
000060 19 6a ae bd b1 5e ca be 0e 34 82 3e ad 72 8c be
       -0.0851633 -0.3952537 0.2543034 -0.2743124
000070 6c df 28 3e 69 81 9d be 0a 0b 98 3e f4 7d 28 3e
       0.16491479 -0.30762795 0.29695922 0.16454297
000080 97 32 00 be 04 7e 55 bd 97 f8 91 bd 1f 20 a7 3e
       -0.12519298 -0.05212213 -0.07127493 0.32641694
000090 aa 1f fc 3c 68 66 5b be e9 17 05 be cd 14 c8 3d
       0.030776817 -0.21425784 -0.12997402 0.097695924
0000a0 0f b0 1f bd 13 89 0d be ca a8 e5 3c 68 e5 3c 3e
       -0.038986262 -0.13821821 0.028034586 0.18446887
0000b0 27 6c ea bc a4 35 c0 bd 66 76 2b 3e 67 ac 35 3e
       -0.028616024 -0.09385231 0.16744384 0.17741548
0000c0 ed e9 03 be 58 14 df 3c 6f 3e 12 be 28 13 31 bd
       -0.12882204 0.02723138 -0.14281629 -0.04323116
0000d0 38 30 6b 3e 9f a3 85 be 3f ee 1c be 8f 57 5f be
       0.22967613 -0.26101395 -0.15325259 -0.21810745
0000e0 33 a4 76 be 20 f1 49 3e ce 99 15 bc 2c c5 c9 3d
       -0.24086075 0.19720888 -0.009130908 0.09852061
0000f0 87 4b d9 3d 72 07 c8 3c 28 0b 69 bd 2f de 77 bc
       0.10610109 0.024417613 -0.056895405 -0.015128656
000100 c3 79 5d 3e 3e 56 91 be cf 57 d5 3e a1 e0 a8 3d
       0.2162848 -0.2838611 0.41668555 0.082459696
000110 f8 bf 84 bb 88 43 3d 3e f2 b7 d2 3d 64 02 69 bd
       -0.004051205 0.18482792 0.10288991 -0.056887046
000120 de 9a da 3e 83 4b 2a be e1 8e d5 bd 12 54 45 be
       0.4269628 -0.16630368 -0.104276426 -0.19270352
000130 60 ca a0 bd 00 03 1e be 00 d4 28 be b9 d8 44 3e
       -0.078511 -0.15430832 -0.16487122 0.19223298
000140 ae a7 1d be 63 6d 93 be 60 9d 53 be 5e 82 4e bc
       -0.15395996 -0.28794393 -0.20665503 -0.012604324
000150 2e 20 38 3e c2 67 80 be 89 d9 28 3e 28 1d 35 3e
       0.17981026 -0.2507916 0.16489233 0.17686903
000160 c1 7d e8 bc f4 2b 9b 3d 78 0d 2f 3d fb 7f 94 3e
       -0.028380277 0.07576743 0.042737454 0.2900389
000170 85 be 57 be bd 0d 6b be 89 f2 f0 3d 94 d7 75 3e
       -0.21068771 -0.2295446 0.1176501 0.24008018
000180 b9 f6 70 3e fb 9a 4c 3e 21 b1 29 bd ef 8a 20 3e
       0.23531617 0.19980995 -0.04142869 0.15677999
000190 49 19 7a be 25 1c 69 3e e0 0e f9 bc 6b 09 5e be
       -0.24423708 0.22764643 -0.0304026 -0.2168328
0001a0 d7 56 00 3e 9e 8f be be b5 bd 75 3e 0c 4b 8d 3e
       0.12533127 -0.37218946 0.23998149 0.2759632
0001b0 d0 a3 9d 3e 19 b7 a5 bd 3a d9 e5 3c 82 8d 88 be
       0.30789042 -0.08091564 0.028057683 -0.26670462
0001c0 c5 a2 9a 3e 22 4f 70 be 3c 6e ca 3c 4b 29 05 be
       0.30202308 -0.23467687 0.024710767 -0.13004033
0001d0 0d b5 41 3e 59 3f 43 bd be 20 9c bb 82 0f a0 bd
       0.18916722 -0.047667835 -0.0047646454 -0.07815458
0001e0 74 12 f6 bd 1f 43 ad be 97 cf 72 3c 18 c0 71 3e
       -0.120152384 -0.33840272 0.014820001 0.23608434
0001f0 33 2c f9 3d 9a 0d 3d be 0f 16 8f bd 9e fc b4 3e
       0.121666335 -0.1846222 -0.06986629 0.35348982
000200 5c 9c ae 3e 53 0c ae 3e a8 71 99 3e ad 1b 76 be
       0.34103668 0.33993778 0.29969525 -0.24033995
000210 24 1b a5 3d 1d c3 c4 3d 90 99 67 3e d9 a4 08 3e
       0.08061817 0.096075274 0.22617173 0.13344134
000220 c0 8b a8 3e 76 35 cf 3c aa 98 97 3e 0c ec b7 3e
       0.3291912 0.025294047 0.2960866 0.35922277
000230 e0 ba a7 3e e6 61 84 3e 52 4c 23 be 6d af 7a be
       0.32759762 0.2585594 -0.15947083 -0.24480982
000240 00 e1 18 3e 48 46 6b 3c 16 ae a0 3e e6 26 71 3e
       0.1492958 0.014360018 0.31382817 0.23549995
000250 f3 0f 17 3e f8 09 88 be 15 fa 9e 3e d5 1d 79 3e
       0.14752178 -0.26570106 0.31050172 0.24327786
000260 08 02 95 be 3e 5a 53 3e 60 af 2f be a7 9e 36 be
       -0.29103112 0.20639893 -0.17156744 -0.17833959
000270 f1 21 6f be 6a 6c 15 3e 95 41 91 3e 7a 9f a1 3e
       -0.23352791 0.14592138 0.28370348 0.31566983
000280 b8 97 1e 3e 99 90 12 3e 67 95 a2 3e 96 ec d1 3d
       0.15487564 0.14312972 0.3175461 0.10250203
000290 9a 07 69 3d 4f 51 b9 3e 6a 50 a0 3e 8d 49 a7 bc
       0.056892015 0.36194846 0.3131135 -0.020420814
0002a0 7c b4 75 bc b0 73 9a 3e db e3 62 3d 14 3e 84 be
       -0.014996644 0.30166388 0.05539308 -0.25828612
0002b0 3e 31 33 be c5 e4 c6 3c 59 e8 ed bd 77 7a 0f 3e
       -0.17499253 0.024279008 -0.116165824 0.1401156
0002c0 7e 3b 7d be 00 56 4c 3e fa 91 50 3e b9 a0 8d bd
       -0.24729726 0.19954681 0.20368186 -0.06915421
0002d0 c4 a5 ac be 75 51 d4 3c a6 a9 9f be 08 05 21 be
       -0.3372022 0.025917748 -0.3118412 -0.15724576
0002e0 0b 81 8c be 4f 3e 17 3e 4c d1 b0 bc 61 99 2f 3e
       -0.27442202 0.14769863 -0.021584176 0.17148353
0002f0 fc ca 6c be 6c 3d f4 3d 40 94 07 bd f4 54 bb bd
       -0.23124307 0.11925778 -0.033100367 -0.09147063
000300 d6 66 5a 3e 04 fe 78 be f2 b2 43 3d 5f 95 51 3e
       0.21328291 -0.2431565 0.047778077 0.20467137
000310 83 eb 59 3d 5a 45 a7 3e ff 8c 8c 3e b6 54 ca 3d
       0.053203117 0.326701 0.2745132 0.098794386
000320 f5 fe 6b 3e 7e 77 a5 be 81 85 77 bd 5e c8 d6 3d
       0.23046477 -0.32317728 -0.060430054 0.10487436
000330 f5 38 92 be a7 58 9a 3e 0f 28 80 be f0 a7 cf 3d
       -0.2855908 0.3014576 -0.25030562 0.101394534
000340 e2 64 4d 3d 48 25 5b 3d 95 71 b2 bc eb 3c a3 3e
       0.050145037 0.05350235 -0.021782676 0.31882414
000350 b2 77 eb bb d6 19 b3 3e ac 8a 88 3e 06 bb a1 3e
       -0.0071858997 0.3498065 0.26668298 0.31588
000360 ea 9a c4 3e 80 3d 85 be 32 0c 69 be dc 3f 80 be
       0.3839944 -0.26023483 -0.22758558 -0.2504872
000370 d7 f0 7f 3c c5 83 1f 3e 7c c3 26 3e 67 b5 0c be
       0.015621386 0.1557761 0.16285509 -0.13741075
000380 27 3c 4c 3e 6c 4a 95 bd 80 e0 49 be ea ed 42 3e
       0.19944821 -0.072895855 -0.19714546 0.1903607
000390 e9 53 33 3e c2 0d 28 3d 0f 61 82 3d ea e5 4a 3d
       0.17512478 0.041028745 0.06366169 0.04953567
0003a0 af ad 17 3d 7c 4a db 3e 91 94 bb 3e 30 0f ae 3d
       0.037030872 0.42830265 0.36636785 0.084989905
0003b0 7c a5 9e be 24 05 77 be 8b 4d 67 be 42 5c 77 3e
       -0.3098563 -0.24123055 -0.22588174 0.24156287
0003c0 5d 53 ad be bf c3 04 be 85 e0 2c 3c 20 7e 06 3e
       -0.33852664 -0.12965296 0.0105515765 0.1313405
0003d0 e2 84 a6 bd 86 af 55 3e 22 bb 50 3e 58 6c a7 3e
       -0.08130814 0.20867738 0.20383886 0.32699847
0003e0 ba 56 59 be a5 e9 b2 bd 43 56 9b bb 6e 1d 6b 3e
       -0.2122449 -0.087359704 -0.004740508 0.22960445
0003f0 16 03 93 3e 02 99 97 3c 9b 4a 13 be d0 aa 80 3e
       0.28713292 0.018505577 -0.14383928 0.2513032

1.running_var f4 [512]
000000 ac c3 b6 3d b0 8a 1b 3e 2a ed 7c 3e d8 26 cc 3e
       0.0892404 0.15189624 0.24699846 0.39873385
000010 3e 75 9e 3e 6e 51 cc 3e 15 5a 29 3e 7e 00 dc 3e
       0.30948824 0.39905876 0.1653827 0.42969126
000020 50 2e bd 3d 1b 6d 95 3d 58 6e 1c 3e 89 d6 4f 3e
       0.09237349 0.07296201 0.15276468 0.20296682
000030 e8 26 10 3e f2 2b 15 3e fd 64 34 3c 07 e3 31 3e
       0.14077342 0.14567545 0.011010406 0.1737176
000040 94 03 4f 3e ea ab 2c 3e 1e 7d 81 3e 1d 63 9a 3d
       0.20216209 0.16862455 0.2529077 0.075384356
000050 3c 28 90 3e 4d 87 cc 3e 16 08 e9 3d ff ac 18 3d
       0.28155696 0.39946976 0.113784954 0.037274357
000060 7d 56 83 3e c2 48 94 3e 20 3a 5a 3d fd fa 50 3e
       0.25651923 0.2896176 0.05327809 0.20408244
000070 45 8b 3d 3e 00 e7 91 3d a0 e6 02 3e f3 e1 de 3d
       0.18510158 0.07124138 0.12783289 0.1088294
000080 75 b6 27 3e 59 6d 75 3e 24 af a8 3e 3e 6d c4 3e
       0.16378196 0.23967494 0.32946122 0.38364595
000090 f4 9a 0d 3e 97 a5 39 3e 5b b4 06 3e 6b 79 8e 3e
       0.13828641 0.18129574 0.13154738 0.2782701
0000a0 d8 5f 04 3f 8d e9 e7 3d 8c 60 68 3e e1 1a 15 3e
       0.51708746 0.11323843 0.2269308 0.14561035
0000b0 ee c5 cd 3e 29 33 85 3e 05 bf 89 3e b7 86 b6 3e
       0.4019007 0.26015595 0.2690355 0.35649654
0000c0 89 c3 08 3f ca 2a 33 3e 2d 45 be 3e 1d bc 6a 3e
       0.5342336 0.17496791 0.37162152 0.22923322
0000d0 59 37 5c 3e 24 0c b7 3e 11 04 cb 3d 6b 3c ff 3d
       0.21505488 0.3575145 0.09912885 0.12462696
0000e0 eb c9 a6 3d 6d ad 38 3e 32 de f0 3d 78 8f 24 3e
       0.081439815 0.18034907 0.117611304 0.16070354
0000f0 d7 d3 36 3e c2 a6 42 3e df ef 9d 3d 1d fa 64 3d
       0.17854248 0.19008926 0.077117674 0.05590259
000100 b7 b6 30 3e d5 33 d8 3e 10 f9 45 3e df 89 e2 3e
       0.172572 0.42227045 0.19333291 0.44245812
000110 e8 96 69 3d a4 1c c9 3d 4f 24 4a 3e 88 27 65 3e
       0.05702868 0.09819916 0.19740413 0.22378361
000120 1b e0 02 3e c4 19 85 3e c6 ad d7 3d 74 f6 a7 3e
       0.12780802 0.2599622 0.105311915 0.32805216
000130 7e 4a 55 3d 79 e7 2b 3e b0 39 82 3e 9b 72 bf 3c
       0.052072994 0.16787519 0.25434637 0.023370078
000140 09 5f 51 3d 16 2a 03 3e f9 e3 f0 3d af b7 0c 3f
       0.051116023 0.12809023 0.11762232 0.5496778
000150 0e d4 8e 3d 5e 83 0a 3e 2e 6e 1f 3e a9 a3 70 3e
       0.0697404 0.13526675 0.15569374 0.23499931
000160 5e e3 fd 3d c9 c7 10 3e 58 b2 1b 3e 76 c1 a6 3e
       0.123968825 0.14138712 0.15204751 0.32569474
000170 f3 ff 7b 3e a4 e9 98 3e 22 4e 85 3e dc 2f 17 3f
       0.24609356 0.29865754 0.26036173 0.590574
000180 e9 30 f8 3e f9 f1 a8 3e fd 86 bc 3d 70 73 1a 3e
       0.48474815 0.3299711 0.092054345 0.15083098
000190 c6 8a e9 3d 5a bd 64 3e a7 4b a7 3e 0e f6 95 3d
       0.11403422 0.22337857 0.32674906 0.07322322
0001a0 ab ff af 3d 1a 9d e1 3d 29 2a 76 3e 35 1a 36 3e
       0.08593687 0.11016293 0.2403952 0.17783435
0001b0 7f d6 bb 3e 68 de 8f 3e c2 b5 fe 3d ed fa e6 3e
       0.36687085 0.2809937 0.12437011 0.45113316
0001c0 a8 70 09 3b 1a 6f 67 3e 29 50 cc 3d 7c aa e2 3d
       0.002097169 0.22600976 0.09976227 0.110676736
0001d0 73 a6 3b 3e a9 12 57 3e 0e 3c 8a 3e 94 ee 67 3e
       0.18325214 0.21003212 0.26998943 0.22649604
0001e0 5c 52 a1 3c 5b 28 4a 3e f9 df 2e 3d bf 03 7a 3e
       0.019692592 0.19741957 0.042694066 0.24415492
0001f0 bd 88 a5 3e 9d e4 d6 3d c4 39 1a 3e e4 03 51 3e
       0.32330886 0.10492823 0.15061098 0.2041164
000200 58 3d 35 3e 86 f2 eb 3d 8a ec 03 3f 18 92 d7 3e
       0.17699182 0.11520867 0.51532805 0.42103648
000210 2d 62 df 3d 96 4a 28 3e f3 87 0d 3e 08 4b 18 3e
       0.109073974 0.16434702 0.13821392 0.14872372
000220 cf 92 e7 3d 29 92 6f 3e 75 94 81 3d c7 9c 03 3e
       0.113072984 0.233956 0.06327144 0.12852775
000230 94 01 61 3e 2d c2 b0 3d ed 8c 3c 3e a2 2d bd 3e
       0.21973258 0.08630786 0.18413134 0.36948878
000240 e3 b2 c4 3d f8 4a 9a 3e 3a 48 3c 3e 8b ca 75 3e
       0.096044324 0.30135322 0.18386927 0.24003045
000250 86 a8 f5 3d d7 fe ab 3d 0d ef ac 3e b2 c1 34 3e
       0.11995034 0.08398216 0.3377613 0.17652014
000260 91 61 94 3e a0 9a 84 3d b7 10 6b 3e ab 7c b4 3e
       0.28980687 0.06474805 0.22955595 0.35251364
000270 99 76 13 3d 87 be 1c 3e 70 61 12 3e 7b a0 f2 3d
       0.036001775 0.15307055 0.14294982 0.118470155
000280 25 ac 06 3f 30 82 50 3e b7 1a 34 3e 91 9a 15 3e
       0.5260642 0.20362163 0.17588316 0.14609744
000290 07 b1 36 3f 43 6e 80 3d b0 11 10 3f 75 a6 19 3e
       0.7136387 0.06271031 0.5627699 0.15004905
0002a0 1a 2a 2d 3e fe 70 cf 3e d7 c4 d5 3e cf 2d dd 3e
       0.16910592 0.40515894 0.4175174 0.43199012
0002b0 b5 30 5c 3e 29 e2 d0 3c af a6 1b 3e f2 cf 09 3e
       0.21502955 0.025498467 0.15200303 0.13458231
0002c0 f0 39 85 3e 04 d1 30 3d a7 da 84 3e 1d bc 2f 3d
       0.26020765 0.043168083 0.25948068 0.04290401
0002d0 45 11 0a 3e 46 0a 9f 3e 9b 74 84 3e ba 84 43 3e
       0.1348315 0.31062526 0.25870213 0.190936
0002e0 7d 60 78 3d a4 59 96 3d 92 08 d0 3d a8 74 bd 3e
       0.060638893 0.07341316 0.10157885 0.37003064
0002f0 1a 33 4a 3e 22 f1 8f 3e 5a dc e7 3d 14 49 31 3e
       0.19746056 0.28113657 0.113213256 0.17313033
000300 66 a0 a3 3d b8 c4 b9 3d 6f 30 c9 3d 6c b5 7b 3e
       0.07989578 0.09070724 0.09823691 0.24580926
000310 62 f8 c6 3d 22 9e ae 3e f2 db ec 3d a8 3d 1d 3e
       0.09715344 0.3410502 0.11565389 0.15355551
000320 ab 4f 46 3e cd e3 93 3c f6 f9 c7 3d 15 84 b7 3e
       0.19366328 0.01805296 0.09764473 0.35842958
000330 2d 07 7c 3e f5 5d 30 3e 60 41 8f 3e 8b 0f da 3e
       0.24612112 0.17223342 0.27979565 0.42589983
000340 c1 d0 dd 3d 82 ac d2 3e ef e0 7d 3e 48 5d 97 3d
       0.10830832 0.41147238 0.24792837 0.07390839
000350 44 7f 1e 3e 71 2b d3 3e ac 3b cc 3c 14 8c 04 3e
       0.15478235 0.4124408 0.024930798 0.1294406
000360 47 d7 df 3d 28 70 20 3d 26 41 86 3e ec c6 e2 3e
       0.10929733 0.03916946 0.2622158 0.4429239
000370 62 68 b2 3e 5d b0 36 3e d4 07 87 3e a1 59 b0 3e
       0.34845263 0.17840715 0.2637316 0.3444338
000380 bd 61 1f 3e d4 1d 75 3e b9 c7 cc 3d 31 40 70 3e
       0.15564628 0.2393716 0.099990316 0.23461987
000390 0d 63 0d 3e 3a 9f c4 3d 42 f8 06 3f e8 3c 47 3e
       0.13807316 0.096006826 0.5272256 0.19456828
0003a0 35 b4 e8 3c f3 9b 40 3e 7a 17 f6 3e 7f 82 4a 3e
       0.028406242 0.1880949 0.48064786 0.19776343
0003b0 ad 3c 32 3c a0 8d 35 3d 59 7b 1a 3e 93 8c 15 3f
       0.010878724 0.044324517 0.15086116 0.58417624
0003c0 1e 4e 53 3e 04 4f 8a 3e 0d 46 c1 3d 1e dc 97 3d
       0.20635268 0.2701341 0.09437189 0.07415031
0003d0 36 c4 18 3d 6e 5a 39 3e 8e f4 4e 3e 2b 4e 13 3f
       0.037296496 0.18100902 0.20210478 0.5754115
0003e0 55 39 93 3e 30 59 8c 3e 89 50 92 3d 6b b4 bd 3e
       0.28754678 0.27411795 0.07144267 0.3705171
0003f0 4b bb 1e 3f a6 6b 70 3e 71 fe d2 3d ba 72 ae 3e
       0.62004536 0.23478565 0.10302437 0.34071904

4.weight f4 [256, 512]
000000 bb d6 d6 bc 81 04 45 3b b9 f6 bc 3c e9 b3 aa bd
       -0.026225438 0.00300625 0.023066865 -0.083350964
000010 ed 26 60 bc 4d 7a 01 bc 93 98 5d 3b 7d 47 1b 3b
       -0.013681156 -0.007902694 0.0033812865 0.0023693733
000020 13 b6 e5 3c f2 b1 d6 3a 76 a1 8e bb e6 f5 0d bb
       0.028040921 0.0016379936 -0.0043527437 -0.002166146
000030 b7 08 2b bd 44 c8 0a 3c c8 f7 d7 3b df bd 6f 3a
       -0.041756358 0.008470599 0.006590817 0.00091454195
000040 91 bd 07 3d 97 f9 84 bc 05 cb 98 3b 1a 68 49 bc
       0.03313977 -0.016232295 0.0046628737 -0.012292886
000050 1e 18 52 bb eb 38 32 bd d3 ab 00 bb 54 b9 fa 3b
       -0.0032057832 -0.043511312 -0.0019633665 0.0076514874
000060 e0 1f d0 bd 58 bd 8d bb bb 3b ba 3b ab ac a2 bb
       -0.1016233 -0.00432555 0.00568339 -0.0049644313
000070 4a 77 11 bd a8 17 86 bd 65 a5 7d 3c d5 47 05 bd
       -0.035514154 -0.06547481 0.015481328 -0.032539207
000080 dc 7d bb 3c d6 ce dc b8 d9 3a 45 bd 5c 29 c2 bd
       0.022887163 -0.00010528944 -0.048151825 -0.09480545
000090 76 5a 33 3d 0b 31 fa 3c 25 69 12 3c 3c 08 50 3d
       0.043787442 0.030540964 0.008936201 0.050789103
0000a0 30 9e e7 37 34 58 96 bb 96 ff 21 bc 2a 3e 94 3b
       2.7611008e-05 -0.0045881514 -0.009887597 0.004524012
0000b0 3d d6 94 3c e0 aa bb 3c 14 53 a6 3c 2b 58 4f bd
       0.018168563 0.022908628 0.020303287 -0.050621193
0000c0 f0 b6 5c bb 62 a5 d2 bb 36 c4 a6 bb a8 85 b5 3c
       -0.0033678375 -0.0064284066 -0.005089308 0.022158459
0000d0 a0 9f 47 3c a8 d9 3a bd 3a 00 2f bd fb 2b 23 bd
       0.012184054 -0.04561773 -0.042724825 -0.039836865
0000e0 57 f1 05 3d 9c 82 9f bb ba c6 04 3c 16 90 92 bb
       0.032700863 -0.004867865 0.008104021 -0.004472743
0000f0 f8 b7 ef bc 61 36 b1 bb 1a 42 6a bc eb 30 1b ba
       -0.029262528 -0.005408094 -0.014297986 -0.000592007
000100 40 60 40 3c 4a 5b 9d bb a1 a8 86 bc 00 58 31 3c
       0.011741698 -0.0048021423 -0.01643783 0.0108242035
000110 17 4d 6e 3b 27 10 2c bc f9 bf 59 3c 0a 54 dc bc
       0.0036361867 -0.010501898 0.013290399 -0.026895542
000120 0c b2 b7 bc 15 d8 77 3c e8 38 42 bd 3d fc 8f bb
       -0.022423767 0.015127202 -0.04741755 -0.004394083
000130 c7 66 0b 3d 1c b1 94 3c f3 d6 3a bb 3c d0 7f bc
       0.034033563 0.018150859 -0.0028509467 -0.015613612
000140 6b fd 35 3c 9a c4 12 3c f9 f8 e2 bc 64 7b e1 3b
       0.011107783 0.008958006 -0.02770661 0.0068811644
000150 b8 23 89 3c d6 73 bc ba 11 b0 d0 3b bb 6d df 3c
       0.016740665 -0.0014377784 0.006368645 0.027274003
000160 96 4d 08 3d a3 fc f2 bc bf 28 71 3c 87 b5 70 3c
       0.033277117 -0.029661482 0.014719187 0.014691717
000170 ca 8c 22 3c a5 13 80 bd 48 c8 fc 3c b6 35 be bb
       0.009921262 -0.06253747 0.03085722 -0.0058047427
000180 76 db a6 3c 11 d6 b2 3c 02 bb a1 bb fb 77 d4 3b
       0.020368319 0.02183059 -0.004935623 0.0064840293
000190 1a 10 1c 3d 9f 6e 1a bd e3 fd d7 bb 5c d2 e6 3b
       0.038101293 -0.037703153 -0.006591545 0.0070441198
0001a0 a0 91 01 3c 34 c2 ef bc 82 a3 02 3c ae 1c 47 3c
       0.007908255 -0.029267408 0.007973554 0.012152834
0001b0 46 9f 5b bb a4 79 0b bc 9b c4 44 3a 53 03 1b bd
       -0.0033511682 -0.008512888 0.0007506103 -0.037844967
0001c0 eb 5f 4f 3d 6d 23 a0 3b c2 56 14 bd ae 8c 84 3c
       0.050628584 0.0048870356 -0.03621555 0.016180363
0001d0 04 ed e9 3c bb c2 b8 3c f3 10 ab bc d4 9f a2 3c
       0.0285554 0.022553792 -0.020882105 0.019851603
0001e0 cd 6c 7a 3c 05 26 2d bc 61 af d6 3c d2 ec db 3b
       0.015284729 -0.010568147 0.026206674 0.006711581
0001f0 7b 38 8e 3c ab da 86 3c 00 67 07 3d 5a 4b cc bc
       0.017360916 0.01646169 0.033057213 -0.024938274
000200 69 73 e0 3b 6e 42 f1 bc c1 d1 b0 3c 01 1c 3d bb
       0.0068496955 -0.029450621 0.021584393 -0.0028855803
000210 25 87 c0 bc 65 6c da bc f5 6d 51 3d 48 3b 63 bd
       -0.023501942 -0.026663015 0.051130254 -0.055476457
000220 d2 2e 6a 3c 5e 9d 06 bb a3 aa d5 3b 6f 36 2b bd
       0.014293389 -0.0020540575 0.0065205856 -0.04179996
000230 c3 67 a0 39 ea 60 e9 bb 24 3b c4 bb 57 10 c5 3b
       0.00030594887 -0.0071221488 -0.0059884954 0.0060139108
000240 e8 4a 18 bd 02 1e 0a bc a8 37 32 3c fd 20 4f 3a
       -0.03718081 -0.008430006 0.010877527 0.0007901339
000250 7c 9d da bc da 13 f8 bb cc 9a 39 bb fb 20 02 bd
       -0.026686423 -0.007570726 -0.0028321026 -0.031769734
000260 67 9d 30 3c 2e 5b 0f bb 0e bd 2c bc 38 c5 93 3c
       0.010779715 -0.0021874416 -0.010543121 0.018038377
000270 59 3a 90 bb a1 19 eb 3b 98 aa e3 3c 61 5c 38 bd
       -0.004401487 0.007174686 0.027791306 -0.045009974
000280 72 35 a6 bb 6d 28 77 3c 26 50 ab bc b4 84 bf bc
       -0.005072289 0.015085322 -0.020912241 -0.023378707
000290 95 8c ac bc 2b 30 e4 3b 33 90 92 3b 1b 33 38 3d
       -0.021063128 0.00696375 0.0044727563 0.044970613
0002a0 b8 c7 83 bb 7c 33 d8 3b cb e9 1b 3c 4e e1 da 3c
       -0.004021611 0.0065979343 0.00951619 0.026718762
0002b0 f5 4d 04 bb 3f 3a 65 3a 5d c3 bc bc 24 42 62 bc
       -0.0020188068 0.0008744336 -0.023042375 -0.0138097145
0002c0 57 9e b5 3c c0 84 ce ba a7 96 fc bb e4 96 ff 3b
       0.022170229 -0.0015756115 -0.007708389 0.00779997
0002d0 4d 0f 35 3d 78 ba e0 3b e9 f8 1c bd 17 ee 0e bc
       0.044204045 0.0068581663 -0.038323317 -0.008723757
0002e0 2c 1c 40 3c 3c b9 b0 bb 58 09 02 bc c8 be 6f 3c
       0.011725467 -0.0053931754 -0.007936798 0.014632888
0002f0 c3 d9 ec bc 83 b2 b7 bc 31 b9 40 bc 07 ac b4 bc
       -0.02891243 -0.022423988 -0.011762903 -0.022054685
000300 3b 16 63 bd c3 b2 e3 ba 37 c2 a1 3b 79 56 e5 3b
       -0.055441123 -0.0017372001 0.0049364823 0.0069988337
000310 94 5c 56 bd a0 75 41 bd 43 b2 e6 ba ad 30 7a 3c
       -0.052334383 -0.047231317 -0.0017600734 0.015270394
000320 27 06 b6 bb ec 07 e7 3b b0 4e 9e bb c7 c9 cb 38
       -0.0055549326 0.007050505 -0.0048311576 9.717378e-05
000330 41 9f 13 be a0 c5 97 ba ea 6d 51 3c ae cf 67 bd
       -0.1441622 -0.0011579283 0.012782553 -0.056594543
000340 75 f4 d3 3c cd 81 d0 bc 4c 2e ef 3a 89 e9 bd bc
       0.025873402 -0.025452519 0.001824805 -0.023182647
000350 8b cb e0 bc 2b 4e b6 bc d5 0f 87 bb 08 88 2c bb
       -0.027440807 -0.02225407 -0.0041217604 -0.0026326198
000360 e2 8b bd bd 1b 6b a0 bd c7 38 a1 3d 17 f6 55 3c
       -0.09255196 -0.07832929 0.078721575 0.013059161
000370 d5 d2 a4 bc 7b 25 f1 3c d8 0f f2 bb 5a 45 8d 3c
       -0.020120064 0.029436817 -0.0073871426 0.017244983
000380 1d 14 0c 3c 61 b1 80 3b d6 a1 09 3c b5 35 c0 bc
       0.008549717 0.003927395 0.008400401 -0.02346311
000390 b6 9c 95 ba 96 52 75 bb a5 36 36 3c 60 00 83 bc
       -0.0011414501 -0.0037433258 0.011121427 -0.01599139
0003a0 12 9c e5 bc ce e6 46 ba b1 a9 f0 3c 80 a9 e9 3b
       -0.028028522 -0.0007587493 0.02937779 0.0071308017
0003b0 38 0a 9d 3c 48 d1 81 bb 15 46 f3 bb bc c7 e7 3c
       0.019169912 -0.003961716 -0.007424126 0.028293483
0003c0 df 9a 41 bd 68 7f 71 bc c9 dd 9b bc 55 86 19 bc
       -0.047266837 -0.014739849 -0.019026654 -0.009370406
0003d0 7d 18 96 bc 9f 89 40 bc ce 10 a6 3b 09 53 96 3b
       -0.018322224 -0.011751561 0.0050679212 0.0045875353
0003e0 85 28 a3 bc 98 86 20 bc e5 ff c8 3c e7 c8 00 3c
       -0.019916782 -0.009797715 0.024536083 0.007860399
0003f0 43 72 8f 3c 9d 49 15 bd 8e 1f 4f bc 66 1c bc 3c
       0.017510539 -0.036447156 -0.012641801 0.02296276
