MLP_ERCOT_2022_models/delta_NOx_round1/2023_11_01-10_50_00_AM/epoch=10164,r2=0.6349,Invalids=0.pth (torch, 150967 bytes, 14 tensors)

0.weight f4 [256, 5]
0	0x3edc5ec1	0.43041041
1	0x3dedf3ea	0.116187885
2	0xbeb52879	-0.3538244
3	0x3d4a99d3	0.049463104
4	0xbe70d7f7	-0.23519884
5	0x3e70a421	0.2350011
6	0xbc6ff389	-0.014645466
7	0x3f0f7bb1	0.56048113
8	0x3d9d3267	0.07675629
9	0xbca4971e	-0.02009159
10	0x3e9c65f9	0.3054655
11	0xbd9cd0c7	-0.076570086
12	0xbe936f31	-0.2879577
13	0x3e7bbeaa	0.24584451
14	0xbf2da162	-0.67824376
15	0xbfaf9b0f	-1.3719195
16	0x3eba4471	0.36380342
17	0x3c32bf4c	0.010909867
18	0x3e149f62	0.14513925
19	0x3d8cdf79	0.068785615
20	0xbd9545fe	-0.072887406
21	0x3f2bf8f2	0.67176735
22	0x3e8c7670	0.2743411
23	0x3ef89630	0.48552084
24	0xbe668ef5	-0.22515471
25	0xbeb4ccd2	-0.35312515
26	0x3efbe51b	0.4919823
27	0x3f0f836e	0.5605992
28	0x3dd5c2ba	0.10437532
29	0xbe34363b	-0.17598812
30	0xbfab4916	-1.3381679
31	0x3eacea2a	0.33772403
32	0x3d462200	0.04837227
33	0x3e818d73	0.2530323
34	0x3dc12ed2	0.094327584
35	0x3e45584b	0.19271962
36	0x3eb325be	0.34989733
37	0xbe91a3b1	-0.284452
38	0xbf56b913	-0.8387615
39	0xbd59c771	-0.053168718
40	0xbc7585d9	-0.014985525
41	0x3a3bc3a5	0.0007162637
42	0xbce4c8eb	-0.027927836
43	0xbe8e39f6	-0.27778596
44	0x3dadcc9e	0.08486293
45	0x3eb23c53	0.3481165
46	0x3cbc4e10	0.022986442
47	0x3f46e9f9	0.77700764
48	0x3ebeb588	0.37247872
49	0x39a8688e	0.00032121356
50	0x3e2b0302	0.16700366
51	0xbd4e0470	-0.0502972
52	0x3d1d1caf	0.038357433
53	0xbf38ff24	-0.72264314
54	0x3ecf34b1	0.40469888
55	0x3ec40a91	0.38289312
56	0x3dd38e3c	0.103298634
57	0xbdaed123	-0.085359834
58	0x3f528f19	0.822496
59	0x3d9fa35d	0.07794831
60	0x3f373708	0.71568346
61	0xbf1a11bb	-0.60183305
62	0xbeaabf17	-0.33348915
63	0xbe17dbc3	-0.14829926
64	0x3e12fb47	0.14353667
65	0x3e0ab731	0.13546444
66	0xbd7ea4e9	-0.06216899
67	0x3d25d982	0.040490635
68	0xbf381420	-0.7190571
69	0x3ee6acc9	0.450537
70	0x3eb9b80d	0.36273232
71	0xbe9eab6b	-0.30990157
72	0xbe50da26	-0.20395717
73	0x3d7d4408	0.061832458
74	0x3d6d9a6e	0.058008604
75	0xbdc7377c	-0.0972738
76	0x3e109e5c	0.1412291
77	0x3f668ede	0.9006175
78	0x3e525a31	0.20542218
79	0xbe19b07b	-0.15008728
80	0x3f30170d	0.6878517
81	0xbe75b839	-0.23996057
82	0xbeb10b11	-0.34578755
83	0x3ea311a2	0.3184939
84	0xbdaac43e	-0.083382115
85	0x3d816d33	0.06319656
86	0x3da4abf0	0.08040607
87	0xbd815065	-0.06314162
88	0xbf11e1a3	-0.5698492
89	0x3f47ae25	0.780001
90	0x3e06e150	0.13171887
91	0xbd0ced09	-0.03440574
92	0x3dcd6fdf	0.10031103
93	0xbb0fe1b1	-0.002195459
94	0x3cd580f1	0.02606246
95	0xbcff4870	-0.03116247
96	0xba826e8f	-0.0009951162
97	0x3f1cc2fe	0.61235034
98	0x3dde65ef	0.10859286
99	0xbd880e2e	-0.066433296
100	0x3f4f75a5	0.81038886
101	0xbe9742c9	-0.2954314
102	0xbe56e1cd	-0.20984574
103	0x3eb59c2c	0.35470712
104	0xbe846628	-0.2585919
105	0x3e27ca71	0.16385819
106	0xbe808676	-0.25102586
107	0x3e92fb39	0.28707293
108	0x3f2f29bd	0.6842306
109	0x3f33e755	0.7027486
110	0x3e9f491b	0.31110463
111	0xbe662b43	-0.2247744
112	0x3ded8fcf	0.11599695
113	0xbf2a9ffe	-0.6665038
114	0xbda03b5a	-0.078238204
115	0x3f3445ab	0.70418805
116	0xbe9325d7	-0.28739807
117	0xbe8ddf23	-0.27709302
118	0x3da19b1f	0.07890915
119	0x3d23f46e	0.04002803
120	0x3dbc8836	0.09205668
121	0xbe500d93	-0.20317678
122	0xbc3cbcb4	-0.0115196
123	0xbc47ef4b	-0.012203048
124	0xbe1d76c3	-0.15377335
125	0x3f525025	0.8215354
126	0xbe881829	-0.26580933
127	0x3f027ebd	0.5097464
128	0x3ebb9da3	0.36643705
129	0xbc2de937	-0.010614685
130	0xbd11a7ae	-0.035560302
131	0xbe3236ba	-0.17403689
132	0xbdff1c8c	-0.12456617
133	0x3ebe703f	0.37195012
134	0xbef1ace2	-0.47202212
135	0x3dfb85c8	0.12281376
136	0xbc117dd1	-0.008880095
137	0xbce5162f	-0.02796468
138	0xbf8c16af	-1.0944422
139	0x3f27f706	0.656113
140	0xbe00eb6f	-0.12589811
141	0x3e235e51	0.15953948
142	0xbf00b762	-0.5027982
143	0x3eb28167	0.3486435
144	0x3f15b74c	0.58482814
145	0xbda0b94b	-0.07847842
146	0x3e52e80f	0.20596336
147	0xbc29751b	-0.0103428615
148	0xbee482d3	-0.4463106
149	0x3f0c1233	0.5471527
150	0xbdb7ea7b	-0.089802705
151	0x3e47d528	0.19514906
152	0x3def07f4	0.11671439
153	0xbf998967	-1.1995057
154	0xbf1bc441	-0.60846335
155	0xbfde269f	-1.7355536
156	0x3c9e9d65	0.019362161
157	0xbdbea4dd	-0.09308789
158	0xbe5cd57b	-0.21565811
159	0x3d3c82a2	0.04602302
160	0x3ce83cc8	0.028349295
161	0xbcadb84e	-0.021206047
162	0x3b2ff13d	0.002684667
163	0xbd7bd75b	-0.061484676
164	0xbd881d80	-0.06646252
165	0xbe48457b	-0.19557755
166	0x3e0a0b38	0.13480842
167	0xbeaed6c2	-0.34148222
168	0x3eb1e500	0.34745026
169	0xbf23ac7c	-0.63935065
170	0x3d00c096	0.031433664
171	0xbc94e950	-0.018177658
172	0x3c963e3b	0.01834022
173	0xbd04c054	-0.03240998
174	0x3d886a92	0.06660952
175	0x3e91806b	0.28418288
176	0xbf71078c	-0.9415214
177	0x3dd10336	0.102056906
178	0x3ea404ac	0.32034814
179	0x3d877aa5	0.066151895
180	0x3e38dfbe	0.18054101
181	0xbdf6a875	-0.120438494
182	0x3f439edf	0.76414293
183	0xbee2f862	-0.44330126
184	0x3e7c46a9	0.2463633
185	0xbe905299	-0.28188017
186	0x3e2caeaf	0.16863512
187	0x3eb5207d	0.3537635
188	0xbea7a592	-0.32743508
189	0x3f1ee4af	0.62067693
190	0xbf0e373b	-0.55553025
191	0xbd194ea1	-0.037428502
192	0xbd053566	-0.032521628
193	0xbef9c4f2	-0.4878307
194	0x3edf288e	0.43585628
195	0x3e19c44b	0.15016286
196	0xbe3428e9	-0.17593731
197	0x3f04e5b0	0.51912975
198	0x3ebc3de2	0.36765963
199	0x3f2784bf	0.6543693
200	0x3d84ba1b	0.06480809
201	0xbe9bf0b7	-0.30457088
202	0x3c09d6ef	0.008413061
203	0xbe5c1e4d	-0.21495934
204	0x3fa5c241	1.2949907
205	0xbc1553c9	-0.009114214
206	0x3d61cb68	0.055125624
207	0x3f5c7ce3	0.8612806
208	0xbe92cca9	-0.28671768
209	0xbe98f2ed	-0.29872838
210	0xbf00c6b7	-0.50303215
211	0xbe553124	-0.20819527
212	0xbf1f7147	-0.6228222
213	0x3e3577fa	0.17721549
214	0xbe3479db	-0.17624609
215	0x3c99a94c	0.018757485
216	0xbcc3d09a	-0.02390318
217	0x3cb2657a	0.021776903
218	0x3d70199f	0.058618184
219	0x3dcdd84f	0.10051023
220	0xbdaf4f88	-0.08560091
221	0xbd05821b	-0.03259478
222	0x40186ea5	2.3817532
223	0x3ea8124b	0.32826456
224	0xbe674165	-0.2258354
225	0xbdb6a37f	-0.08917903
226	0x3d0cc17d	0.034364212
227	0x40013117	2.0186212
228	0xbb693ec3	-0.0035590387
229	0x3dc505e8	0.09620267
230	0xbea78e93	-0.32725963
231	0xbd756f3b	-0.05992053
232	0xbf1a5bba	-0.60296214
233	0xbe1629e8	-0.14664423
234	0x3eef7c95	0.46774736
235	0x3d20eb04	0.03928663
236	0xbdb25536	-0.08707659
237	0xbffa1bc6	-1.9539726
238	0xbe844885	-0.25836578
239	0x3ec6ce1b	0.3882912
240	0x3f199c2e	0.60003936
241	0x3eaeb903	0.34125528
242	0xbe981e52	-0.29710633
243	0xbb21a3ca	-0.0024664276
244	0x3eb9874e	0.36236042
245	0x3e29a943	0.16568474
246	0xbef8ea5b	-0.486163
247	0xbe490f2d	-0.19634695
248	0xbf27b4cf	-0.65510267
249	0x3e587e57	0.21141945
250	0x3d05485a	0.032539703
251	0xbc485238	-0.012226634
252	0x3ce3609c	0.027756028
253	0xbca52145	-0.020157466
254	0x3cfe8ec9	0.031073945
255	0x3d75a771	0.059974138

0.bias f4 [256]
0	0xbe605430	-0.21907115
1	0xbd9d947e	-0.07694338
2	0xbe4e1da1	-0.2012849
3	0x3e927d18	0.28611064
4	0x3eef0192	0.46680886
5	0x3f22332f	0.6335935
6	0xbe61aca7	-0.22038518
7	0x3a4ced98	0.00078173866
8	0x3d102ef7	0.03520104
9	0x3ea0920b	0.31361422
10	0xbe1611e7	-0.14655267
11	0x3ec52434	0.38504183
12	0x3eff9fdd	0.49926654
13	0xbe1f0f2d	-0.15533133
14	0xbd54e914	-0.051980093
15	0x3f126696	0.57187784
16	0xbe5093f1	-0.20368935
17	0x3d6618f1	0.05617613
18	0xbe0ba23b	-0.13636105
19	0xbd3afcf9	-0.04565141
20	0x3e097715	0.13424332
21	0xbdb99709	-0.09062011
22	0xbe90fc3a	-0.28317434
23	0xbe694c1d	-0.22782941
24	0x3d2ab30c	0.04167466
25	0x3e8542dd	0.26027575
26	0x3b274e1a	0.002552873
27	0xba98d97c	-0.0011661495
28	0x3e81d927	0.25360987
29	0xbca29e7c	-0.019850962
30	0xbebd3423	-0.3695384
31	0xbdb37d41	-0.08764125
32	0x3c8711ee	0.016488042
33	0xbe38abe0	-0.18034315
34	0x3ba86e96	0.005140136
35	0x3f036ab3	0.51334685
36	0x3ebd42f8	0.36965156
37	0x3d54e034	0.05197163
38	0x3f32f399	0.6990295
39	0x3ecc7fed	0.3994135
40	0xbeefb11f	-0.4681482
41	0xbf11a108	-0.5688634
42	0xbea28f13	-0.31749782
43	0xbc31ba04	-0.010847572
44	0xbdf3eca0	-0.11910367
45	0xbf11ff32	-0.5703002
46	0xbdaac01d	-0.08337424
47	0x3eef0628	0.46684384
48	0xbc4cd84f	-0.012502744
49	0xbd97873f	-0.07398843
50	0x39b6b6cc	0.0003484994
51	0xbca8d0de	-0.020607408
52	0x3c0ae7a4	0.008478079
53	0x3e43abfe	0.19108579
54	0x3e3eb5c0	0.1862402
55	0x3e91050f	0.28324172
56	0xbd02b7cb	-0.03191356
57	0x3eecb941	0.46235088
58	0x3e8fed9f	0.28110978
59	0x3ea51a0d	0.32246438
60	0xbda8588a	-0.082200125
61	0xbe17a150	-0.1480763
62	0xbc64a1cf	-0.013954594
63	0x3c85b90c	0.016323589
64	0xbe7e3739	-0.24825753
65	0x3d8076ba	0.06272645
66	0x3e5adb82	0.21372798
67	0xbe4bfa01	-0.19919588
68	0x3ca12ec9	0.01967563
69	0xbec924cf	-0.39285895
70	0xbf02573b	-0.50914353
71	0xbedc99dc	-0.43086135
72	0x3f908442	1.1290362
73	0x3eeb9fa3	0.4602023
74	0x3ed02a78	0.406574
75	0x3cb086ca	0.021548647
76	0x3e30084b	0.17190664
77	0xbe952609	-0.2913058
78	0x3f9fe751	1.2492467
79	0x3e1737fe	0.14767453
80	0xbea33cff	-0.31882474
81	0x3eacd987	0.3375971
82	0xbf63fbc8	-0.8905606
83	0x3eca8da8	0.395612
84	0xbe377f5c	-0.17919677
85	0x3eaf16aa	0.3419698
86	0xbe5b12f6	-0.21393952
87	0xbebab0c0	-0.36462975
88	0xbd5a6a9f	-0.053324338
89	0x3f0009a9	0.5001474
90	0xbeb71798	-0.35760188
91	0xbea1839b	-0.3154572
92	0xbebec1bf	-0.37257192
93	0x3e9c8e5a	0.30577356
94	0x3ee88d42	0.4542027
95	0x3e28d216	0.16486391
96	0xbd7ae871	-0.06125683
97	0x3f3748f9	0.7159572
98	0x3ee6827a	0.4502142
99	0xbe088e1b	-0.13335459
100	0x3d5c9b09	0.05385879
101	0xbd21d64d	-0.039511014
102	0x3d918e9d	0.071072794
103	0xbf338c1a	-0.70135653
104	0x3dc4db09	0.0961209
105	0xbdb83a62	-0.08995511
106	0x3eaf9aee	0.3429789
107	0x3ed0a676	0.40752
108	0xbec74e94	-0.38927138
109	0xbee2fd14	-0.44333708
110	0x3e6b4049	0.22973742
111	0xbf05c221	-0.5224934
112	0x3f05703f	0.521244
113	0x3ece4c40	0.4029255
114	0x3eef4ace	0.4673676
115	0xbdd91cf7	-0.10601228
116	0x3e9893fa	0.29800397
117	0x3e0f7d79	0.14012708
118	0xbe821676	-0.2540776
119	0x3bf8106b	0.0075703165
120	0x3dcc7e0e	0.099849805
121	0xbd5e847c	-0.054325566
122	0xbda33527	-0.079691224
123	0xbe003d65	-0.1252342
124	0xbed43fa7	-0.41454813
125	0x3e273f7a	0.16332808
126	0xbda52b31	-0.08064879
127	0xbc96d0cc	-0.018410109
128	0xbe9b1cac	-0.30295312
129	0xbf296f55	-0.66185504
130	0xbdfb3d58	-0.1226756
131	0xbc6014bc	-0.013676818
132	0xbd890508	-0.06690413
133	0x3e090034	0.13378984
134	0x3eb23a2c	0.34810007
135	0x3f37cbe8	0.7179551
136	0x3b099345	0.002099232
137	0xbea2d75b	-0.31804928
138	0xbf0ca0e3	-0.54932994
139	0x3e262ea4	0.1622873
140	0x3e0df515	0.13863023
141	0xbeab697c	-0.33478916
142	0xbdadbc7a	-0.08483215
143	0xbed619b1	-0.41816476
144	0x3c23f8b8	0.01000803
145	0x3eb914f1	0.3614879
146	0x3f03e883	0.5152666
147	0xbd60eda8	-0.054914147
148	0x3ea17411	0.31533864
149	0x3da883ea	0.082282856
150	0xbe5441a3	-0.20728163
151	0xbdea3786	-0.114363715
152	0x3e2c0ec7	0.16802512
153	0xbf3ac710	-0.72959995
154	0xbed1b07c	-0.4095496
155	0x3f7b7ff0	0.9824209
156	0xbd6da770	-0.05802101
157	0xbece5dd0	-0.40305948
158	0x3f07051b	0.52742165
159	0x3f160884	0.58606744
160	0xbf46a899	-0.7760101
161	0xbca49679	-0.020091282
162	0xbef0544d	-0.46939316
163	0xbec2ddad	-0.3805975
164	0xbcce220b	-0.025162717
165	0x3f07466a	0.5284182
166	0x3e53269d	0.20620199
167	0x3f7aaa49	0.97916085
168	0xbd96f57e	-0.07371043
169	0xbea25308	-0.31703973
170	0x3e4563d0	0.19276357
171	0xbe844308	-0.2583239
172	0xbc893cec	-0.016752683
173	0xbdb50397	-0.08838575
174	0x3e0d005e	0.13769671
175	0xbf0e4dac	-0.5558727
176	0xbb877583	-0.0041338815
177	0x3ba003a5	0.004883247
178	0xbe8883a2	-0.26662928
179	0xbef58f60	-0.4796095
180	0x3e1e5b08	0.15464413
181	0x3de3edc5	0.11129335
182	0x3d5926eb	0.05301563
183	0xbedce55b	-0.43143734
184	0x3e83222d	0.25612012
185	0xbf0ed431	-0.5579253
186	0xbdd8b438	-0.10581249
187	0xbe76969d	-0.24080892
188	0xbf624855	-0.8839162
189	0xbd08c1e2	-0.033388026
190	0xbd043795	-0.03227957
191	0xbd2559c0	-0.040368795
192	0x3f0dd0b5	0.55396587
193	0x3d0523f9	0.03250501
194	0x3ec3eddd	0.38267413
195	0xbe13c6e6	-0.14431342
196	0xbdbf7556	-0.09348552
197	0xbd88b940	-0.06675959
198	0x3e48c18e	0.19605085
199	0xbd0f99fc	-0.03505896
200	0x3e797f47	0.24364959
201	0xb838f52b	-4.409735e-05
202	0x3eba85d8	0.3643024
203	0x3e8a01cb	0.26954493
204	0x3c82fb61	0.015989007
205	0x3e9c2f92	0.30505043
206	0x3d8d5808	0.06901556
207	0x3cff2d8f	0.031149654
208	0x3dd4e942	0.10396053
209	0xb8f38880	-0.00011612568
210	0x3ee05649	0.4381583
211	0x3e967790	0.29388094
212	0x3f49d729	0.78843933
213	0x3e859a2d	0.2609419
214	0x3e8e4b3c	0.27791774
215	0x3e978976	0.29597062
216	0x3b6da713	0.0036262914
217	0x3e8935e5	0.2679893
218	0x3edb6e12	0.42857414
219	0xbac430ee	-0.0014968195
220	0xbec3dca6	-0.3825428
221	0xbd99b3b6	-0.0750498
222	0x3d286693	0.041113447
223	0xbdc2a70c	-0.09504518
224	0x3e46d8a5	0.19418581
225	0x3ead121b	0.33802876
226	0xbe5f2fb3	-0.2179554
227	0xbe23b1f3	-0.15985851
228	0x3cabcf75	0.020972947
229	0x3e60a690	0.21938539
230	0x3e973a65	0.2953674
231	0xbd6a6b89	-0.05723146
232	0xbe86d017	-0.26330635
233	0xbdbf9def	-0.09356295
234	0x3eab4d15	0.33457246
235	0x3e1edea3	0.15514617
236	0x3db7e433	0.089790724
237	0x3ece8bf1	0.40341142
238	0x3e99087f	0.29889295
239	0x3f25c894	0.6475918
240	0xbbe0c477	-0.006859358
241	0x3e20243c	0.15638822
242	0x3ede8b4e	0.43465656
243	0x3ee0af84	0.43883908
244	0x3c83e7e4	0.016101785
245	0xbd6cce37	-0.05781385
246	0xbd079918	-0.033104986
247	0xbf0680bd	-0.5254019
248	0x3d124e21	0.03571904
249	0x3f1b4d3f	0.60664743
250	0xbf199505	-0.5999301
251	0x3ef80d38	0.48447585
252	0xbe1be4a6	-0.15223941
253	0x3f19f267	0.601355
254	0x3e796269	0.24353947
255	0x3f47d302	0.7805635

1.weight f4 [256]
0	0x3e2d77ac	0.16940182
1	0x3e248e8e	0.16070005
2	0x3e80da98	0.25166774
3	0x3ed45538	0.41471267
4	0x3e712c13	0.23551969
5	0x3e4328c3	0.19058518
6	0x3ed709f6	0.41999787
7	0x3e977499	0.29581144
8	0x3dc2182d	0.094772674
9	0x3e8f4536	0.2798249
10	0x3eb86705	0.36016098
11	0x3eb17f3f	0.34667394
12	0x3ea455e8	0.3209679
13	0x3ec91d55	0.3928019
14	0x3e125fcc	0.14294356
15	0x3e509a5e	0.20371386
16	0x3e9eff83	0.31054315
17	0x3e4cb586	0.1999112
18	0x3d9755ec	0.07389435
19	0x3dd9e7a1	0.10639883
20	0x3e919ed9	0.28441504
21	0x3e672ece	0.22576448
22	0x3e6bee87	0.2304021
23	0x3e9c5922	0.30536753
24	0x3bcf916e	0.0063344752
25	0x3ea81228	0.32826352
26	0xbbe543fb	-0.0069966293
27	0x3ece6f9b	0.40319523
28	0x3ef942c9	0.48683766
29	0x3e9f12b1	0.31068948
30	0x3ea8b8f6	0.32953614
31	0x3f04f716	0.51939523
32	0x3cff3da7	0.031157328
33	0x3e0ceb1a	0.13761559
34	0x3c133b01	0.008986236
35	0x3e951b0b	0.29122195
36	0x3eafb2fc	0.34316242
37	0x3e7e666f	0.24843763
38	0x3ec2da90	0.38057375
39	0x3e8fdd26	0.2809841
40	0x3e6f105c	0.23346084
41	0x3eaef5d4	0.34171927
42	0x3e1266e8	0.14297068
43	0x3cdd5636	0.027018648
44	0x3eaddb86	0.33956546
45	0x3e8c4cab	0.27402243
46	0x3e1831b0	0.14862704
47	0x3e88ef20	0.26744938
48	0x3ec9418e	0.39307827
49	0x3e5fb9bb	0.21848194
50	0x3cfb5152	0.030678425
51	0x3c84d875	0.016216496
52	0x3e99a71b	0.30010304
53	0x3e96ab73	0.2942768
54	0x3e6efeae	0.2333934
55	0x3e304777	0.17214762
56	0x3e0a3088	0.13495076
57	0x3e775c3c	0.24156278
58	0x3ea6e257	0.3259456
59	0x3e5fb344	0.21845728
60	0x3ebf99ec	0.3742212
61	0x3e9a641b	0.301545
62	0x3d4f4e7c	0.050611958
63	0x3d9c9be1	0.07646919
64	0x3eb8fc1a	0.36129838
65	0x3d11c08a	0.03558401
66	0x3df4184a	0.11918695
67	0x3e30a66c	0.17250985
68	0x3d6ab8ac	0.057305023
69	0x3e80ec1f	0.25180146
70	0x3e247411	0.16059901
71	0x3ed8a94b	0.4231666
72	0x3e30e8f5	0.17276366
73	0x3e965b81	0.29366687
74	0x3ead9b50	0.33907557
75	0x3e45c2cc	0.1931259
76	0x3e90a5b5	0.28251424
77	0x3ec36971	0.38166383
78	0x3e82ee37	0.25572369
79	0x3e606abc	0.21915716
80	0x3e933b7b	0.28756317
81	0x3eb1171f	0.34587952
82	0x3eae5eef	0.34056804
83	0x3e407aeb	0.1879689
84	0x3e7c8efb	0.24663918
85	0x3e9091bf	0.28236195
86	0x3ee93fe7	0.45556566
87	0x3ea45df0	0.3210292
88	0x3d124b73	0.035716485
89	0x3e528623	0.20558982
90	0x3df9f7ff	0.122055046
91	0x3e59e504	0.21278769
92	0x3eecddab	0.4626287
93	0x3e9dd00b	0.30822787
94	0x3ea78cd8	0.32724643
95	0x3e67292b	0.22574298
96	0x3d1dc167	0.03851452
97	0x3e40f83f	0.18844698
98	0x3eb6349f	0.35587022
99	0x3e137015	0.14398225
100	0x3d569e6b	0.052397173
101	0x3d28783b	0.041130286
102	0x3eb0961f	0.34489533
103	0x3e7ecdbe	0.24883172
104	0x3ec9185b	0.39276394
105	0x3e52a865	0.2057205
106	0x3ea0df67	0.31420442
107	0x3ea4ef29	0.32213715
108	0x3df49ffd	0.11944578
109	0x3eabffdd	0.33593646
110	0x3e3527f7	0.17691027
111	0x3e86ed83	0.26353082
112	0x3ef1b95a	0.47211725
113	0x3e494751	0.19656111
114	0x3ee1d1fb	0.44105515
115	0x3e955843	0.291689
116	0x3e5e8102	0.217289
117	0x3eb44ade	0.3521337
118	0x3eb26631	0.3484359
119	0x3d1a8b37	0.037730422
120	0x3e5aeb4a	0.21378818
121	0x3e4ad02d	0.19805975
122	0x3e5ea932	0.2174423
123	0x3ed196ea	0.4093545
124	0x3e699a07	0.22812663
125	0x3e74273d	0.23843093
126	0x3ddc016b	0.10742458
127	0x3e2039ec	0.15647095
128	0x3e970e31	0.29503015
129	0x3eaa5ec2	0.3327542
130	0x3e307c0f	0.17234825
131	0x3bc41845	0.0059843385
132	0x3e252244	0.16126353
133	0x3df98369	0.121832676
134	0x3ecccd8a	0.40000564
135	0x3e93fcb8	0.28903747
136	0x3c03f8b6	0.008054903
137	0x3ec5d517	0.38639137
138	0x3decb587	0.11558061
139	0x3eb3a6ad	0.350881
140	0x3dbf12fe	0.09329794
141	0x3e9046fa	0.2817915
142	0x3da5be9e	0.08092998
143	0x3ea624a8	0.32449841
144	0x3e04cb68	0.12968218
145	0x3ea40116	0.32032079
146	0x3e4cfa46	0.20017347
147	0x3ccf0cca	0.025274653
148	0x3e86b29f	0.26308152
149	0x3e92aafb	0.28646073
150	0x3eb9284a	0.3616355
151	0x3ee59644	0.44841206
152	0x3eae8607	0.3408663
153	0x3eb68ef6	0.35655946
154	0x3e86940d	0.2628483
155	0x3eb5a118	0.35474467
156	0x3ea26768	0.31719518
157	0x3e643c1c	0.22288555
158	0x3eb35114	0.35022795
159	0x3ebe3c51	0.37155393
160	0x3e122714	0.1427272
161	0x3e6a4d54	0.22881061
162	0x3edff018	0.43737864
163	0x3e91db5b	0.28487667
164	0x3c1b7cff	0.009490251
165	0x3e655fd3	0.22399835
166	0x3e430369	0.1904427
167	0x3ee1f020	0.44128513
168	0x3ebed274	0.37269938
169	0x3ed4b4cd	0.4154419
170	0x3e28cec3	0.16485123
171	0x3e77623e	0.2415857
172	0x3c1499e3	0.009069893
173	0x3e5be9da	0.21475926
174	0x3e1a82d8	0.15088975
175	0x3eb12858	0.34601092
176	0x3c66912a	0.014072696
177	0x3caba263	0.020951455
178	0x3e2f124a	0.1709682
179	0x3e8da451	0.27664426
180	0x3e917a1f	0.28413484
181	0x3e733781	0.23751642
182	0x3eac0fd8	0.33605838
183	0x3e90986a	0.28241283
184	0x3e4f6be0	0.20255995
185	0x3e42659c	0.18984073
186	0x3eb9a1d3	0.36256275
187	0x3e985da5	0.29758945
188	0x3e045542	0.12923148
189	0x3e54d4b0	0.20784259
190	0x3e9bcaf1	0.3042827
191	0x3db54a99	0.08852119
192	0x3ec616ff	0.3868942
193	0x3d7a01b0	0.061036766
194	0x3e4afc91	0.19822909
195	0x3e107f4b	0.14111058
196	0x3e8d086a	0.27545482
197	0x3e99b1c3	0.30018434
198	0x3eaf65ff	0.34257504
199	0x3cb9703d	0.022636527
200	0x3e3b03dd	0.18263192
201	0x3c7d1a2d	0.015448135
202	0x3ea3a221	0.31959632
203	0x3e7f98e6	0.2496067
204	0x3cd59167	0.02607031
205	0x3e49723b	0.19672482
206	0x3d2b4844	0.041816965
207	0x3ce6762f	0.028132526
208	0x3e3e4f10	0.18584847
209	0x3ec289c8	0.37995744
210	0x3e181e25	0.14855249
211	0x3e7a74f4	0.24458677
212	0x3e90b855	0.28265634
213	0x3dc6a955	0.09700266
214	0x3e6534db	0.22383444
215	0x3ed0ab46	0.4075567
216	0x3ec3eabe	0.38265032
217	0x3eabf9ae	0.33588928
218	0x3ef11eca	0.47093803
219	0x3eb27aaa	0.3485921
220	0x3e20e52f	0.15712427
221	0x3d8da84d	0.069168665
222	0x3e1009fb	0.14066307
223	0x3ecf5c27	0.40499994
224	0x3eedc495	0.46439043
225	0x3e9e00c9	0.30859974
226	0x3e1e884d	0.15481682
227	0x3e89db86	0.26925296
228	0x3ca8b297	0.02059297
229	0x3e1e822b	0.15479343
230	0x3eb1b7b9	0.34710482
231	0x3ea41fa4	0.3205539
232	0x3f07992a	0.52968085
233	0x3dc36be2	0.095420614
234	0x3dd4df4f	0.10394155
235	0x3e19a023	0.15002494
236	0x3e018bcf	0.12650989
237	0x3e959721	0.29216865
238	0x3eaa2991	0.33234838
239	0x3ec19b76	0.3781392
240	0x3d5745e1	0.052556876
241	0x3ef7376b	0.48284468
242	0x3ee28b76	0.44247025
243	0x3e8ca2ad	0.27467862
244	0x3cdb71e6	0.02678771
245	0x3d72a421	0.059238557
246	0x3e3070b0	0.17230487
247	0x3ead76a5	0.3387958
248	0x3eae1626	0.34001273
249	0x3eab300f	0.33435103
250	0x3ea743f9	0.32669047
251	0x3e8c9fd1	0.2746568
252	0x3e6db44f	0.23213314
253	0x3ee0cf59	0.43908194
254	0x3e154f8f	0.1458113
255	0x3eaac1d5	0.33351007

1.bias f4 [256]
0	0xbecda43c	-0.40164363
1	0xbead9c7b	-0.33908448
2	0xbe387793	-0.18014364
3	0xbebc82d2	-0.36818558
4	0xbe1491ea	-0.14508787
5	0xbdcf8594	-0.101329
6	0xbeaec03d	-0.3413104
7	0xbe169d73	-0.147085
8	0xbe6c6f38	-0.23089302
9	0xbeddcb54	-0.4331919
10	0xbeec5bb8	-0.46163726
11	0xbebbb715	-0.36663118
12	0xbf15d5d8	-0.58529425
13	0xbf088988	-0.53334856
14	0xbed99202	-0.42494208
15	0xbeddfebd	-0.43358412
16	0xbef8afc2	-0.48571593
17	0xbdfc1fa0	-0.123107195
18	0xbe37145a	-0.17878857
19	0xbe4bd542	-0.1990557
20	0xbeef5a29	-0.46748474
21	0xbe877ef0	-0.26464033
22	0xbe3cb9ac	-0.18430203
23	0xbef14584	-0.4712335
24	0xbd9b0adb	-0.0757043
25	0xbf1e38e7	-0.61805576
26	0xbe23868e	-0.15969297
27	0xbee8c2e0	-0.45461178
28	0xbf29f4a7	-0.66388935
29	0xbeb51cf9	-0.35373667
30	0xbe9dffc1	-0.30859187
31	0xbec37585	-0.38175598
32	0xbddddcd7	-0.108331375
33	0x3d11116d	0.03541701
34	0xbd03f60d	-0.032217074
35	0xbedc2379	-0.42995813
36	0xbeed5ced	-0.4635996
37	0xbe659aa3	-0.2242227
38	0xbf3488bb	-0.70521134
39	0xbeae9b7f	-0.3410301
40	0xbe63f90c	-0.22262973
41	0xbecd965f	-0.40153787
42	0x3c738bcd	0.014864874
43	0xbd7c9cec	-0.06167309
44	0xbed78625	-0.42094532
45	0xbebddbf0	-0.37081861
46	0xba295879	-0.0006460022
47	0xbe048cdb	-0.12944357
48	0xbf23f826	-0.6405052
49	0xbec0b9df	-0.37641808
50	0xbdd6c1c1	-0.104861744
51	0xbd76ed94	-0.060285166
52	0xbee49c7d	-0.4465064
53	0xbed3101c	-0.41223228
54	0xbe0ea5f0	-0.13930488
55	0x3be14a30	0.006875299
56	0xbe81f096	-0.25378865
57	0xbe410fa7	-0.18853627
58	0xbed9280b	-0.42413363
59	0xbe00ad9b	-0.12566225
60	0xbf2b680b	-0.6695563
61	0xbea298de	-0.31757253
62	0xbe0554b7	-0.13020597
63	0xbe810a94	-0.25203383
64	0xbed29bc9	-0.4113448
65	0xbd96621a	-0.0734293
66	0xbeb42214	-0.3518225
67	0xbdcd4ab8	-0.10024017
68	0xbe2f5ff1	-0.17126442
69	0xbe0879ce	-0.13327715
70	0xbb64963f	-0.0034879593
71	0xbed10738	-0.4082582
72	0xbe609740	-0.21932697
73	0xbe9dde1f	-0.30833527
74	0xbe7951ea	-0.24347654
75	0xbc26ad0f	-0.010173096
76	0xbea0762f	-0.31340167
77	0xbf099933	-0.5374939
78	0xbda49c0e	-0.080375776
79	0xbeb0e4f8	-0.3454969
80	0xbf0ab59a	-0.5418335
81	0xbef25860	-0.4733305
82	0xbf09915b	-0.5373742
83	0xbe3487b8	-0.17629898
84	0xbed37841	-0.41302684
85	0xbe75710d	-0.23968907
86	0xbececc1b	-0.40390095
87	0xbed23907	-0.41059133
88	0xbdca2aec	-0.09871468
89	0xbe13cf83	-0.14434628
90	0x3d16d243	0.036821615
91	0xbeacdb5a	-0.33761102
92	0xbf1f86a6	-0.6231483
93	0xbe4d6f67	-0.20062028
94	0xbeae3c43	-0.3403035
95	0xbdde006a	-0.10839923
96	0xbdf6a168	-0.120425045
97	0x3bd2ad02	0.0064293155
98	0xbee7b2eb	-0.4525369
99	0xbcc36edf	-0.023856578
100	0xbdbd2103	-0.09234812
101	0xbdaffe03	-0.08593371
102	0xbeafd1a6	-0.34339637
103	0xbe7a4608	-0.24440777
104	0xbea4c294	-0.321797
105	0xbe01553b	-0.12630169
106	0xbefc816d	-0.49317494
107	0xbef2144b	-0.47281107
108	0x3c43323c	0.011913832
109	0xbeb0b847	-0.34515592
110	0xbd9f65d7	-0.07783096
111	0xbdc02388	-0.09381777
112	0xbf2d983b	-0.6781041
113	0xbd230386	-0.039798282
114	0xbf1535b0	-0.58285046
115	0xbf037c3a	-0.5136143
116	0xbe122a35	-0.14273913
117	0xbf55a291	-0.8345118
118	0xbec806bf	-0.39067647
119	0xbddabe76	-0.10680859
120	0xbea59401	-0.3233948
121	0xbc6c8b26	-0.014437472
122	0xbe15f17b	-0.14642899
123	0xbeb2ee8f	-0.3494763
124	0xbe1eb6ee	-0.1549947
125	0xbe2372aa	-0.1596171
126	0x3c6a399a	0.01429596
127	0xbb782b4f	-0.003786761
128	0xbebc895e	-0.36823553
129	0xbec03ca2	-0.3754626
130	0xbcbedaea	-0.023297746
131	0xbca6ace5	-0.020346114
132	0xbe9dc2b6	-0.30812615
133	0x3c91313e	0.017723676
134	0xbf0b3e3a	-0.54391825
135	0xbed058a7	-0.40692636
136	0xbccbf0c0	-0.024895072
137	0xbf482e1d	-0.78195363
138	0x3d55774a	0.052115716
139	0xbf204c22	-0.6261617
140	0xbe842c22	-0.2581492
141	0xbf0e476a	-0.5557772
142	0xbe569ff2	-0.20959452
143	0xbedf435d	-0.43606082
144	0xbe8b9ac6	-0.2726652
145	0xbf328496	-0.6973356
146	0xbc8954f0	-0.016764134
147	0xbd9dc014	-0.077026516
148	0xbe72ff26	-0.23730144
149	0xbee05f64	-0.43822777
150	0xbec2789c	-0.37982643
151	0xbf1e7dc7	-0.6191067
152	0xbeb76f3c	-0.35827053
153	0xbe81aa86	-0.25325412
154	0xbefb5f71	-0.49096254
155	0xbeb4f3c8	-0.3534224
156	0xbee04cf7	-0.4380872
157	0xbe1a43c4	-0.15064913
158	0xbeb94512	-0.3618551
159	0xbef3f838	-0.47650313
160	0x3c85ffdf	0.01635736
161	0xbf07273e	-0.52794254
162	0xbef531cd	-0.47889557
163	0xbe363c9f	-0.17796563
164	0xbd5ae835	-0.053444106
165	0xbe547f90	-0.20751786
166	0xbe583e32	-0.21117476
167	0xbf2c3c66	-0.6727966
168	0xbefd765c	-0.49504364
169	0xbf074e73	-0.5285408
170	0xbd922e6c	-0.071377605
171	0xbe6af724	-0.22945839
172	0xbcd99a58	-0.026562855
173	0xbee2a853	-0.44269046
174	0xbeab6b46	-0.3348028
175	0xbeb25de1	-0.3483725
176	0xbd4cbd56	-0.049985252
177	0xbd8d2833	-0.06892433
178	0xbde56ffc	-0.11203
179	0xbeb5b7c0	-0.35491753
180	0xbf08c5d3	-0.53426856
181	0xbe7a6aeb	-0.24454848
182	0xbedc9dc6	-0.43089122
183	0xbe1208a3	-0.14261107
184	0xbcc95205	-0.024575243
185	0xbe4998e7	-0.19687234
186	0xbee232fd	-0.44179526
187	0xbe88af33	-0.26696166
188	0x3d44d827	0.0480577
189	0xbe230ada	-0.15922108
190	0xbe9fb8b9	-0.3119562
191	0xbe430f74	-0.19048864
192	0xbef86c47	-0.4852011
193	0xbe197788	-0.14987004
194	0xbe589e6a	-0.2115418
195	0xbe93a0e1	-0.28833678
196	0xbe0a7040	-0.13519382
197	0xbebd080f	-0.3692021
198	0xbed204d7	-0.41019318
199	0xbd564342	-0.052310236
200	0xbe7db9b5	-0.24777873
201	0xbd58f9b8	-0.052972525
202	0xbed8d01c	-0.42346275
203	0xbe750164	-0.23926312
204	0xbd9e9c6d	-0.077446796
205	0xbf057df3	-0.5214531
206	0xbd9c2b77	-0.07625478
207	0xbd84468b	-0.064587675
208	0xbe675662	-0.22591546
209	0xbf2a22ea	-0.66459525
210	0xbcc91ef3	-0.02455089
211	0xbea2e37d	-0.31814185
212	0xbebaf967	-0.36518404
213	0xbe4d1055	-0.20025761
214	0xbe6fef89	-0.23431219
215	0xbecf897b	-0.40534577
216	0xbf3c8e85	-0.7365497
217	0xbed3af51	-0.41344693
218	0xbf0232f1	-0.5085898
219	0xbe54618d	-0.20740338
220	0xbedd20b2	-0.43189007
221	0xbe29a2e0	-0.16566038
222	0x3d22e277	0.039766755
223	0xbf192a07	-0.59829754
224	0xbf28d623	-0.65951747
225	0xbe90f170	-0.28309202
226	0xbc3c5eba	-0.011497194
227	0xbe9da4db	-0.30789837
228	0xbd7582c3	-0.059939157
229	0x3c952066	0.018203925
230	0xbf027552	-0.50960267
231	0xbed472ff	-0.41493985
232	0xbf44617a	-0.7671124
233	0xbe84dc06	-0.25949115
234	0xbe92a2ce	-0.28639835
235	0x3c351a68	0.011053659
236	0x3c3e8c11	0.011630074
237	0xbee13bf2	-0.43991047
238	0xbf0b4ce0	-0.54414177
239	0xbeec45bd	-0.46146956
240	0xbe0554d7	-0.13020645
241	0xbf63195f	-0.8871059
242	0xbf52d9f0	-0.82363796
243	0xbe81b709	-0.25334957
244	0xbd9e598b	-0.07731923
245	0xbe234159	-0.15942897
246	0xbe9f3e96	-0.31102437
247	0xbeb6d73d	-0.3571109
248	0xbeb4a8f0	-0.3528514
249	0xbe995038	-0.29944015
250	0xbecf37e2	-0.40472323
251	0xbef272a8	-0.473531
252	0xbec86f2d	-0.3914732
253	0xbf05b9a7	-0.5223641
254	0xbeea06b9	-0.45708254
255	0xbef457b0	-0.4772315

1.running_mean f4 [256]
0	0xbe60c2da	-0.2194933
1	0xbd9e01be	-0.07715176
2	0xbe33f7a3	-0.17574935
3	0x3e8fcc6b	0.28085646
4	0x3eec28d4	0.461249
5	0x3f2968a5	0.661753
6	0xbe52a625	-0.20571192
7	0xbc6e7a6e	-0.014555557
8	0x3d1092e8	0.03529635
9	0x3eac6d6e	0.33677238
10	0xbe1f803e	-0.15576264
11	0x3ec4ee9f	0.38463303
12	0x3efb491f	0.49079224
13	0xbe1feae3	-0.15616946
14	0xbd557cab	-0.052120846
15	0x3f12cc13	0.5734264
16	0xbe31fbf7	-0.17381273
17	0x3d7a16e8	0.061057
18	0xbe0c0308	-0.13673031
19	0xbd3b7e98	-0.045775026
20	0x3dd04b55	0.101706184
21	0xbd9ec699	-0.07752723
22	0xbe92661d	-0.2859353
23	0xbe63552e	-0.22200462
24	0x3d2b2962	0.041787513
25	0x3e87b123	0.26502332
26	0x3b27c219	0.002559787
27	0xbc99645f	-0.018724618
28	0x3e8912bd	0.2677211
29	0xbc795cb1	-0.015219853
30	0xbeb51e0c	-0.35374486
31	0xbd7d2b9c	-0.061809167
32	0x3c876f91	0.016532691
33	0xbe249601	-0.16072847
34	0x3ba8e357	0.005154054
35	0x3f0313a0	0.5120182
36	0x3ebe6c02	0.37191778
37	0x3d140a23	0.03614248
38	0x3f336fa6	0.70092237
39	0x3ed3bf2c	0.4135679
40	0xbef13076	-0.47107285
41	0xbf1619db	-0.586332
42	0xbea1faaf	-0.3163657
43	0xbc323536	-0.010876944
44	0xbe02d0fc	-0.12775034
45	0xbf131f14	-0.57469296
46	0xbdce5803	-0.10075381
47	0x3ef64e8e	0.48106807
48	0xbc8680c8	-0.01641883
49	0xbdacee88	-0.08443934
50	0x39b7358b	0.00034944373
51	0xbca945e5	-0.020663211
52	0x3c7fc243	0.01561028
53	0x3e52aee4	0.20574528
54	0x3e429f8b	0.19006173
55	0x3e8f9876	0.28046006
56	0xbd031269	-0.03199998
57	0x3eed02c1	0.46291164
58	0x3e9d8ebe	0.30772966
59	0x3e98f230	0.29872274
60	0xbdec8279	-0.11548323
61	0xbe0ad86a	-0.13559118
62	0xbc65404b	-0.013992379
63	0x3c8615c0	0.016367793
64	0xbe898adf	-0.26863763
65	0x3d80cfc7	0.062896304
66	0x3e5b7339	0.21430673
67	0xbe4f0826	-0.20217952
68	0x3ca19e85	0.019728908
69	0xbec77e4a	-0.38963538
70	0xbeffb805	-0.49945083
71	0xbed4ea83	-0.41585168
72	0x3f92048c	1.1407638
73	0x3ef617c0	0.48064995
74	0x3ec5bfc2	0.38622862
75	0x3cd3dea5	0.025863001
76	0x3e2fdbb3	0.17173652
77	0xbe8f7ec5	-0.28026405
78	0x3f9cd995	1.2253901
79	0x3e17f3ce	0.14839098
80	0xbea35931	-0.31903985
81	0x3ea5519f	0.32288834
82	0xbf629ff7	-0.88525337
83	0x3ed26659	0.4109371
84	0xbe31edeb	-0.17375915
85	0x3eafafff	0.34313962
86	0xbe57f225	-0.21088465
87	0xbeb84032	-0.35986477
88	0xbd5b0208	-0.053468734
89	0x3efdab38	0.49544692
90	0xbec87e2f	-0.3915877
91	0xbea049aa	-0.313062
92	0xbebbc7ec	-0.36675966
93	0x3ea5738a	0.32314712
94	0x3ee7daad	0.45284024
95	0x3e361a83	0.17783551
96	0xbd7b9662	-0.061422713
97	0x3f37c8d3	0.7179081
98	0x3ee3bb74	0.44478953
99	0xbe1531fe	-0.14569852
100	0x3d5d33f6	0.054004632
101	0xbd22467d	-0.039618004
102	0x3d35d8c6	0.044396184
103	0xbf2eccd9	-0.6828132
104	0x3d9b0302	0.07568933
105	0xbdd89734	-0.10575715
106	0x3eb6a94e	0.35676044
107	0x3edaaf21	0.42711738
108	0xbee51188	-0.44739938
109	0xbeda8292	-0.42677742
110	0x3e522c0c	0.20524615
111	0xbf049596	-0.5179075
112	0x3efcd50b	0.4938129
113	0x3ed5bbcc	0.4174484
114	0x3efa5b09	0.4889758
115	0xbdc248e8	-0.09486562
116	0x3e9b7ec4	0.30370152
117	0x3e182e79	0.14861478
118	0xbe855464	-0.26040947
119	0x3bf8bc61	0.007590816
120	0x3da6bde3	0.08141687
121	0xbd0efae4	-0.034907237
122	0xbdd13885	-0.10215858
123	0xbdd55144	-0.10415891
124	0xbed870e3	-0.42273626
125	0x3e1079ba	0.14108935
126	0xbd96bcde	-0.07360242
127	0xbcf41652	-0.0297958
128	0xbe958374	-0.29201853
129	0xbf2e761a	-0.6814896
130	0xbdf31a30	-0.11870229
131	0xbc60b012	-0.013713853
132	0xbd896404	-0.067085296
133	0x3e1d02bf	0.15333079
134	0x3eb47292	0.3524366
135	0x3f3a3d53	0.72749823
136	0x3b09f2a5	0.0021049168
137	0xbe9d7a88	-0.30757546
138	0xbf0950f1	-0.5363913
139	0x3e3a93ac	0.18220395
140	0x3e0e577d	0.13900562
141	0xbeabe050	-0.33569574
142	0xbdae34eb	-0.08506187
143	0xbeca4bbf	-0.39510915
144	0x3c246a68	0.010035135
145	0x3eae996b	0.34101424
146	0x3f0639d4	0.5243199
147	0xbd618993	-0.05506284
148	0x3ea8c9e9	0.32966545
149	0x3da0c059	0.078491874
150	0xbe4d882d	-0.20071478
151	0xbde79728	-0.11308128
152	0x3e2e4726	0.17019328
153	0xbf344de3	-0.70431346
154	0xbecd6755	-0.401179
155	0x3f7c5aab	0.9857585
156	0xbd4b526e	-0.049639158
157	0xbecdaaef	-0.40169474
158	0x3f0080f9	0.50196797
159	0x3f1c4ad2	0.61051667
160	0xbf484d7f	-0.7824325
161	0xbca6e02b	-0.020370563
162	0xbeef4602	-0.467331
163	0xbebfc2b5	-0.37453237
164	0xbcceb0f0	-0.025230855
165	0x3f0346c0	0.5127983
166	0x3e475e46	0.19469556
167	0x3f7d70a2	0.9899999
168	0xbda5c5e8	-0.08094388
169	0xbea96315	-0.33083406
170	0x3e444512	0.19166973
171	0xbe8be245	-0.27321067
172	0xbc899c0d	-0.016798044
173	0xbdb58114	-0.0886251
174	0x3e0cdf83	0.13757138
175	0xbf0d0e03	-0.55099505
176	0xbb87d369	-0.004145075
177	0x3ba07294	0.0048964713
178	0xbe94ef9e	-0.29089063
179	0xbef52fc1	-0.47887996
180	0x3e201864	0.15634304
181	0x3df648eb	0.12025627
182	0x3d2aca0f	0.041696604
183	0xbed94fc7	-0.42443678
184	0x3e8a484c	0.27008283
185	0xbf120d0d	-0.57051164
186	0xbdc45a0a	-0.09587486
187	0xbe6ff4d1	-0.23433234
188	0xbf61ee1f	-0.8825397
189	0xbd14214e	-0.036164574
190	0xbc3fee52	-0.011714535
191	0xbd25cc61	-0.040478114
192	0x3f0d0223	0.55081385
193	0x3d058045	0.03259303
194	0x3ebc73d2	0.36807114
195	0xbe142d56	-0.1447042
196	0xbde1284d	-0.10994015
197	0xbd8962ea	-0.067083195
198	0x3e572f3b	0.2101411
199	0xbd0ffd88	-0.035153896
200	0x3e83a709	0.25713375
201	0xb8397501	-4.4216406e-05
202	0x3ebb2b08	0.36556268
203	0x3e987005	0.29772964
204	0x3c83562e	0.016032305
205	0x3e9c9bd8	0.3058765
206	0x3d8dba04	0.06920245
207	0x3cffde73	0.031234002
208	0x3daf1228	0.08548385
209	0x3aa5cdad	0.0012649797
210	0x3ed847b9	0.4224222
211	0x3e9a6434	0.30154574
212	0x3f455c06	0.7709354
213	0x3e85f6ca	0.26164848
214	0x3e892e32	0.26793057
215	0x3e9adba2	0.30245692
216	0x3b6e4c15	0.0036361266
217	0x3e7bee78	0.24602687
218	0x3ede0dfc	0.43370044
219	0xbc99991a	-0.018749762
220	0xbec4646c	-0.38357866
221	0xbd9a1e43	-0.07525303
222	0x3d48fd2c	0.04906957
223	0xbdebe4e7	-0.11518269
224	0x3e2cc748	0.16872895
225	0x3ea66c67	0.3250458
226	0xbe6673d5	-0.22505124
227	0xbe256869	-0.1615311
228	0x3cac4690	0.02102974
229	0x3e6498be	0.22323892
230	0x3e930be5	0.28720012
231	0xbd86094a	-0.065447405
232	0xbe908b1e	-0.28231138
233	0xbdc022c5	-0.09381632
234	0x3eabc3d6	0.33547848
235	0x3e108984	0.14114958
236	0x3d813fb2	0.06310977
237	0x3ed3b504	0.4134904
238	0x3e915240	0.28383064
239	0x3f295093	0.6613857
240	0xbbe16047	-0.006877932
241	0x3e1dde4b	0.1541683
242	0x3edf1af7	0.4357526
243	0x3ee8abba	0.45443517
244	0x3c844356	0.01614539
245	0xbd6d7260	-0.057970405
246	0xbd163ec7	-0.036680963
247	0xbf041d30	-0.51607037
248	0x3ce7cbb9	0.028295385
249	0x3f199acf	0.60001844
250	0xbf123a41	-0.5712014
251	0x3ef8ff61	0.4863234
252	0xbe04df25	-0.12975748
253	0x3f183bb0	0.59466076
254	0x3e7a0f4a	0.24419895
255	0x3f46b38f	0.77617735

1.running_var f4 [256]
0	0x3e87403b	0.2641619
1	0x3eed48a2	0.46344477
2	0x3e936cd0	0.28793955
3	0x3fe51a90	1.7898731
4	0x3f04131d	0.51591665
5	0x3f09deec	0.53855777
6	0x3fe01341	1.7505876
7	0x3f86653f	1.0499648
8	0x3d20e8de	0.03928458
9	0x3f8824b3	1.06362
10	0x3e073d80	0.13207054
11	0x3f778d8d	0.96700364
12	0x3f3e42a9	0.74320465
13	0x3db4d913	0.08830466
14	0x3e6e4d51	0.23271681
15	0x3f4b51e5	0.79421836
16	0x3f0d8481	0.5528031
17	0x3d44e35e	0.048068397
18	0x3d193d1f	0.037411805
19	0x3ebb9f1d	0.3664483
20	0x3f26ef20	0.65208626
21	0x400fde45	2.2479413
22	0x3f1efdff	0.6210632
23	0x3f0679e4	0.5252974
24	0x3d6cfd43	0.057858717
25	0x3fb20360	1.390728
26	0x3d748974	0.059701398
27	0x3e4535f5	0.19258864
28	0x3f8a7b3a	1.0818856
29	0x3d3aea18	0.045633405
30	0x405f01f0	3.4844933
31	0x404cb3d9	3.198477
32	0x3c83b686	0.016078245
33	0x3e9d1c28	0.30685544
34	0x3b61972b	0.0034422379
35	0x3f9f307b	1.243667
36	0x3f3d29c9	0.73891884
37	0x3e696ba0	0.22794962
38	0x3ead180a	0.33807403
39	0x3fc1140e	1.5084245
40	0x3fb51da8	1.4149675
41	0x3f8db643	1.1071247
42	0x3f6eee48	0.9333234
43	0x3ceb8a35	0.028752426
44	0x40b05cfc	5.5113506
45	0x407f32dd	3.9874794
46	0x3f35c8e4	0.7100966
47	0x40746deb	3.8192089
48	0x3f1a5fb3	0.60302275
49	0x3eb138e3	0.34613714
50	0x3b2fe259	0.0026837795
51	0x3c930c69	0.017950254
52	0x3fb20f81	1.3910981
53	0x3faf8ea9	1.3715411
54	0x3efb2c1d	0.49057093
55	0x3f33debb	0.70261735
56	0x3d815e4c	0.06316814
57	0x3eb7ba52	0.3588434
58	0x40800753	4.000894
59	0x3ee6738e	0.45010036
60	0x3f1820e8	0.5942521
61	0x3e9a7c17	0.30172798
62	0x3c9dd77b	0.019267788
63	0x3cef19c9	0.0291871
64	0x3ef070b0	0.46960974
65	0x3aac6eee	0.0013155618
66	0x3e13980e	0.14413473
67	0x3e21a573	0.1578577
68	0x3df99482	0.12186529
69	0x3ee566a1	0.44804862
70	0x3f3410a0	0.7033787
71	0x3f33bc34	0.7020905
72	0x3f058e0a	0.5216986
73	0x3e97f655	0.29680124
74	0x3f85f46c	1.0465217
75	0x3f0e1707	0.55503887
76	0x3ea23c80	0.31686783
77	0x3f5cbfba	0.8623005
78	0x3f389c8a	0.7211386
79	0x3f10060a	0.56259215
80	0x3f2d498d	0.67690355
81	0x3ffa6404	1.9561772
82	0x3db15ccd	0.086602785
83	0x3f2499e3	0.6429731
84	0x3f94e4c8	1.1632318
85	0x3f1b2f8f	0.60619444
86	0x4008ba44	2.1363688
87	0x40a278de	5.0772543
88	0x3c2e68f9	0.010645145
89	0x3f09b4e4	0.5379164
90	0x3ebe0834	0.37115633
91	0x3ecd245a	0.40066797
92	0x3f98c6f0	1.1935711
93	0x3f5e4bf3	0.8683464
94	0x3eacb6a7	0.33733103
95	0x3ed6f79c	0.41985786
96	0x3d31f790	0.043448985
97	0x3f3b816d	0.73244363
98	0x3fd346d0	1.6505985
99	0x3f53e867	0.8277649
100	0x3c2226ef	0.009896978
101	0x3bf0e5e1	0.0073516225
102	0x405aec54	3.4206743
103	0x3e57ae7c	0.21062654
104	0x3f208f1c	0.6271837
105	0x3d35b6fc	0.04436396
106	0x3f963413	1.1734642
107	0x3f62afdc	0.8854959
108	0x3ed78643	0.4209462
109	0x408c7232	4.38894
110	0x3f329862	0.6976377
111	0x3f4d6c50	0.80243397
112	0x3f3f33ea	0.7468859
113	0x3e9e5337	0.30922863
114	0x4024eb65	2.5768673
115	0x3f271841	0.65271384
116	0x400c4642	2.1917882
117	0x3edeb9fa	0.43501264
118	0x3fc30221	1.5235025
119	0x3b58adaa	0.0033062496
120	0x3ef60476	0.48050278
121	0x3e1e7c56	0.15477118
122	0x3eebc88c	0.46051443
123	0x3fbc6b56	1.4720256
124	0x3f32177c	0.69567084
125	0x3ee840ce	0.45361942
126	0x3ed5130f	0.41616103
127	0x3f4f69d7	0.81020874
128	0x3f1f306b	0.62183255
129	0x3ec3f7ab	0.38274893
130	0x3ded6950	0.115923524
131	0x3b0bf305	0.0021354568
132	0x3f9a55af	1.2057399
133	0x3f00cde6	0.50314176
134	0x3e59072b	0.2119414
135	0x3f9d8508	1.2306223
136	0x39f3c866	0.0004649788
137	0x3f0b5d23	0.5443899
138	0x3f0264a4	0.50934815
139	0x3f74bdd3	0.9560215
140	0x3e1b3288	0.15155995
141	0x3f40abfb	0.7526242
142	0x3da9a1c8	0.082828104
143	0x408165ee	4.0436926
144	0x3e0c0c66	0.13676605
145	0x3f6e8b0d	0.93180925
146	0x3fe815b4	1.8131623
147	0x3cd5863e	0.026064988
148	0x3f34b86a	0.70593894
149	0x3f97b9ab	1.1853536
150	0x3f6ee816	0.93322885
151	0x3df40415	0.11914841
152	0x40840508	4.125614
153	0x3fa8f819	1.3200713
154	0x3ee3e87e	0.44513315
155	0x40464161	3.0977404
156	0x40a81ad7	5.2532763
157	0x3f02f52b	0.51155347
158	0x4091ec64	4.5601063
159	0x3fcdee64	1.6088376
160	0x3e9871f0	0.29774427
161	0x3fb77998	1.4333982
162	0x3f4d6ea3	0.80246943
163	0x3feb4e49	1.8383266
164	0x3b28e797	0.0025772804
165	0x3d46d6e8	0.048544794
166	0x3f1f48db	0.62220544
167	0x3e9fb50b	0.31192812
168	0x3feef975	1.8669878
169	0x3fa0780f	1.2536639
170	0x3f01a0ff	0.50636286
171	0x3e43a6ee	0.19106647
172	0x3b8be234	0.004268909
173	0x3e431184	0.1904965
174	0x3e884c04	0.26620495
175	0x4088ef5e	4.2792196
176	0x3ae14f08	0.0017189691
177	0x3c346357	0.011010013
178	0x3f33bc00	0.7020874
179	0x3e8b19af	0.27168033
180	0x3f440983	0.76577014
181	0x3e5a7f86	0.21337709
182	0x3f38ba64	0.7215941
183	0x3f748f81	0.9553147
184	0x3fdafa7a	1.7107689
185	0x3ed62499	0.41824797
186	0x409fe76e	4.9970007
187	0x3f97206c	1.1806769
188	0x3ee1eae2	0.44124514
189	0x3ef81daf	0.48460147
190	0x3e9bf9a4	0.30463898
191	0x3d9a2bc0	0.07527876
192	0x3f1849e5	0.59487754
193	0x3d336029	0.043792877
194	0x3f3f37a3	0.7469427
195	0x3f29be5a	0.6630608
196	0x4075eed0	3.842701
197	0x3f270305	0.6523898
198	0x3d599bf0	0.05312723
199	0x3c83d7b2	0.016094062
200	0x3f229f8e	0.6352471
201	0x3aa27183	0.0012393448
202	0x3fd25136	1.6431034
203	0x4019c402	2.4025884
204	0x3be5ad7b	0.007009206
205	0x3f49bd5e	0.78804576
206	0x3b905b61	0.0044054245
207	0x3beaf398	0.007170152
208	0x3f09be3e	0.5380591
209	0x3f1dc8cf	0.61634535
210	0x3e152a68	0.14566958
211	0x3fce5edc	1.6122699
212	0x3f111d27	0.5668511
213	0x3e2cc668	0.16872561
214	0x3cdfee94	0.027335443
215	0x3f184c19	0.59491116
216	0x3fbd4e58	1.4789534
217	0x40a3e75f	5.1219935
218	0x3fb09c7e	1.3797758
219	0x3fc2df98	1.5224485
220	0x3f188502	0.59577954
221	0x3dbdb496	0.0926296
222	0x3eb6f328	0.35732388
223	0x3f02c051	0.510747
224	0x3fb5e7aa	1.4211323
225	0x3ec34c91	0.38144353
226	0x3f57f1ff	0.8435363
227	0x3eb341cd	0.3501114
228	0x3c1f9861	0.00974092
229	0x3f7e7782	0.99401104
230	0x3d6eeb64	0.058329955
231	0x3e02be9d	0.12768026
232	0x3ef0e610	0.47050524
233	0x3e0fec88	0.14055073
234	0x3eb084f9	0.3447645
235	0x3f6f4a7b	0.93473023
236	0x3eb720bd	0.35767165
237	0x3f8daf82	1.1069186
238	0x3e95d358	0.29262805
239	0x3f44ea5f	0.7692012
240	0x3c46c6c6	0.012132352
241	0x3f27108c	0.65259624
242	0x3f12eb9f	0.5739078
243	0x40277620	2.6165848
244	0x3ba41bdb	0.0050082034
245	0x3cdd34b1	0.027002664
246	0x3e10b903	0.14133076
247	0x40885aa5	4.261065
248	0x405c4c15	3.4421437
249	0x3f8b9a26	1.0906417
250	0x40958de0	4.6735687
251	0x3f2e47a2	0.68078053
252	0x3f029193	0.5100338
253	0x3f2b36b1	0.6688033
254	0x3ed0b481	0.40762714
255	0x3fe2c039	1.7714912

4.weight f4 [128, 256]
0	0x3e2b3c84	0.16722304
1	0x3e08ad08	0.13347256
2	0x3e552a96	0.20817026
3	0xbe71285e	-0.23550555
4	0x3ca235ea	0.019801099
5	0xbd8dff4b	-0.06933459
6	0x3cff8056	0.031189125
7	0x3e0c5331	0.1370361
8	0xbd6459a9	-0.05574957
9	0x3e22b0d6	0.1588777
10	0xbf1ae8ac	-0.6051128
11	0xbd34c311	-0.044131342
12	0x3f67e1b7	0.9057879
13	0xbec0fc16	-0.37692326
14	0x3eabe2fa	0.33571607
15	0xbd718d43	-0.05897261
16	0xbdbf9e75	-0.09356395
17	0x3dd86683	0.105664276
18	0x3d3e81ba	0.046510436
19	0xbccb9bc3	-0.024854546
20	0x3c2c3d31	0.010512636
21	0x3cb98625	0.022646973
22	0xbf2e6110	-0.68116856
23	0x3ebf8ac2	0.3741055
24	0x3c104310	0.008805051
25	0x3f207cd8	0.62690496
26	0x3d70cbd9	0.058788154
27	0xbe4dfc19	-0.20115699
28	0xbf6adad9	-0.91740185
29	0xbf0d3995	-0.5516599
30	0x3e267bb0	0.1625812
31	0x3da58247	0.08081489
32	0xbbe37bbb	-0.00694224
33	0x3da32312	0.079656735
34	0xbc905941	-0.017620685
35	0x3e1d12ae	0.15339157
36	0xbe9840ee	-0.29737037
37	0xbefe0cbc	-0.4961909
38	0x3efb24ff	0.49051663
39	0x3e4722f6	0.1944693
40	0x3e7bdd83	0.24596219
41	0xbea95231	-0.3307052
42	0x3cf7d480	0.030252695
43	0x3bdcb4e9	0.0067354334
44	0x3d33c9a2	0.043893464
45	0xbd8be369	-0.068304844
46	0x3d4256b8	0.047445983
47	0x3d923e4a	0.07140787
48	0x3dd828b7	0.10554641
49	0xbcf6a317	-0.030107064
50	0x3b1ab19d	0.00236044
51	0xbca2a0b9	-0.01985203
52	0x3dbfe8fd	0.09370611
53	0xbe862491	-0.26199773
54	0x3d16387a	0.036674954
55	0x3e0b9c9b	0.13633959
56	0xbd86396f	-0.06553923
57	0x3ebbd1c7	0.36683485
58	0x3c621c70	0.013800725
59	0xbe7f12cb	-0.24909513
60	0xbf71164b	-0.9417464
61	0x3eda03bc	0.42580974
62	0x3c026381	0.007958294
63	0x3cff0565	0.031130502
64	0xbf04659c	-0.51717544
65	0x396c7587	0.00022550496
66	0x3dc81d99	0.0977127
67	0xbc32916d	-0.01089893
68	0xbccff743	-0.025386458
69	0xbf2d082c	-0.67590594
70	0x3d6d14fe	0.057881348
71	0x3e18e1f4	0.14929944
72	0x3de5f437	0.11228221
73	0x3ee2b1b8	0.44276214
74	0x3e3a0243	0.18164925
75	0xbd44f4a7	-0.04808488
76	0x3d9a0409	0.07520301
77	0xbd8b372a	-0.06797631
78	0x3cfeb0a3	0.031090086
79	0xbda89886	-0.082322165
80	0x3e3cf2af	0.18451951
81	0x3dcb3b47	0.09923416
82	0x3e89dd58	0.26926684
83	0xbf04f100	-0.51930237
84	0x3e47c91c	0.19510311
85	0x3eaeef79	0.34167078
86	0xbe16b889	-0.14718832
87	0x3d9e1f17	0.07720774
88	0xbb59d0ac	-0.003323595
89	0xbb9779a4	-0.004622655
90	0xbd1b266d	-0.037878443
91	0xbcc97609	-0.024592416
92	0x3e876c40	0.26449776
93	0x3ded751f	0.11594605
94	0x3d9ba834	0.076004416
95	0x3c67aec8	0.014140792
96	0xba795ba7	-0.00095122535
97	0x3d7e8c5b	0.062145572
98	0x3d99026f	0.07471167
99	0x3e87db54	0.26534522
100	0xbc013e16	-0.007888338
101	0xbbea163c	-0.007143764
102	0x3de30898	0.110856235
103	0xbf024d52	-0.5089923
104	0x3e9c6a3c	0.305498
105	0x3e260709	0.16213621
106	0x3f18c694	0.59678006
107	0x3f4fe565	0.81209403
108	0xbea022fa	-0.31276685
109	0xbca86fed	-0.020561183
110	0x3e76813e	0.2407274
111	0xbda40617	-0.08008974
112	0x3d919e23	0.0711024
113	0xbf2da6ca	-0.67832625
114	0xbe969291	-0.29408696
115	0x3c5d07c5	0.013490622
116	0x3dcc27e2	0.099685445
117	0x3f184994	0.5948727
118	0xbe6464c7	-0.22304069
119	0x3c712ad3	0.014719683
120	0x3e2b1dde	0.16710612
121	0x3c8d77df	0.017269073
122	0x3d7bb834	0.061454967
123	0xbe7bd34b	-0.2459232
124	0x3eace483	0.3376809
125	0x3e9bc1cf	0.30421302
126	0xbe500a28	-0.20316374
127	0x3d821fa6	0.06353693
128	0x3eb23ac4	0.3481046
129	0x3eb25084	0.34827054
130	0xbe10f335	-0.14155276
131	0xbbdef269	-0.0068038
132	0xbd553de1	-0.052060965
133	0xbd2ce7f3	-0.04221339
134	0x3e09589b	0.13412707
135	0xbe41a3b6	-0.18910107
136	0xbb87c7c2	-0.004143686
137	0x3f0a2c7c	0.5397413
138	0xbd0eea29	-0.03489128
139	0xbf33d58d	-0.7024773
140	0x3d0bdc81	0.034145836
141	0xbdc3819a	-0.09546204
142	0x3d856aa8	0.06514484
143	0xbd7b8aa3	-0.06141151
144	0x3d14fa0d	0.03637128
145	0x3ec981e4	0.3935691
146	0x393ebd4b	0.00018190329
147	0xbb4c0f8d	-0.0031137199
148	0xbf988171	-1.1914502
149	0xbe02c26e	-0.12769482
150	0xbc2a43f1	-0.010392175
151	0xbe25e1f4	-0.16199476
152	0xbdfbdbb5	-0.12297765
153	0x3e69e2be	0.22840402
154	0x3e414869	0.18875279
155	0x3de5f7bf	0.112288944
156	0x3e10fcfe	0.14159009
157	0x3e2816db	0.16414969
158	0x3dba3c51	0.09093536
159	0x3d3ed706	0.04659178
160	0xbd71e192	-0.05905301
161	0x3dbf6a51	0.0934645
162	0x3d6e5092	0.058182307
163	0x3d577697	0.05260333
164	0x38e36d5d	0.00010844574
165	0x3e468718	0.19387472
166	0x3ec04d7d	0.3755912
167	0xc000e7bc	-2.014144
168	0x3d948659	0.07252187
169	0x3dfa3950	0.12217963
170	0xbcc233ee	-0.023706403
171	0xbee19107	-0.4405596
172	0x3bb7f385	0.0056137466
173	0xbe02d8fb	-0.12778084
174	0x3e1d1a70	0.15342116
175	0xbe3c63a5	-0.18397386
176	0x3b2c1f26	0.0026263683
177	0x3bee474f	0.0072716842
178	0x3c3189f1	0.01083611
179	0x3e4e10fe	0.2012367
180	0xbf8aa80c	-1.0832534
181	0xbf210d1d	-0.62910634
182	0xbec82b60	-0.39095592
183	0x3dc8ae74	0.09798899
184	0xbd7f39ca	-0.06231097
185	0x3ee83d3d	0.4535922
186	0x3db5e4bb	0.088815175
187	0x3ebb66c4	0.3660184
188	0xbcc8abcf	-0.024495987
189	0xbd76edf3	-0.06028552
190	0x3e502756	0.20327505
191	0x3d9bfcc1	0.07616568
192	0x3e808d49	0.25107792
193	0xbda7cfd7	-0.08193939
194	0xbed8e006	-0.42358416
195	0x3e07db8c	0.13267344
196	0x3d42da89	0.047571693
197	0xbf796afe	-0.9742888
198	0x3dd5c194	0.10437313
199	0x3c377b79	0.011198872
200	0x3d397b00	0.045283318
201	0xbbabbd12	-0.005241045
202	0xbd1fd241	-0.039018873
203	0x3e4b6730	0.19863582
204	0xbad07e95	-0.0015906865
205	0x3e959aaf	0.29219577
206	0x3a835acc	0.0010021566
207	0x3b9dbb1e	0.004813566
208	0x3d232e22	0.039838918
209	0x3ca9c0ba	0.020721782
210	0xbeff71b4	-0.49891436
211	0xbe1f1e5a	-0.15538922
212	0xbe419ca0	-0.18907404
213	0x3dfd795f	0.12376665
214	0x3ed2ba61	0.4115782
215	0x3e463823	0.19357352
216	0xbe42b8c3	-0.19015794
217	0x3df4d34f	0.119543664
218	0xbeebfb71	-0.46090272
219	0x3deb3919	0.114855
220	0x3f91c2b5	1.1387545
221	0x3bc01ac3	0.0058625652
222	0xbd8a0dbd	-0.067409016
223	0xbe521be6	-0.20518455
224	0x3e90f97c	0.2831534
225	0x3e95b3e6	0.29238814
226	0x3dfa4da9	0.12221844
227	0xbc0a30e3	-0.008434507
228	0x3be0660a	0.0068481015
229	0x3e34a26a	0.17640081
230	0x3f384d7d	0.7199324
231	0xbf4a0aab	-0.7892253
232	0x3e59460b	0.21218126
233	0x3d5aa116	0.05337628
234	0x3c8b375d	0.016994173
235	0x3d9df354	0.07712427
236	0xbc99e426	-0.018785547
237	0x3e67f26a	0.22651067
238	0x3e1d28c1	0.15347578
239	0x3ef2cb38	0.4742067
240	0x3d1a6d0c	0.03770165
241	0x3dfe66d8	0.1242196
242	0x3eed02ca	0.4629119
243	0xbd6b8987	-0.057504203
244	0xbb5f6146	-0.003408508
245	0x3bcd3964	0.006262945
246	0xbeaa81e5	-0.33302227
247	0xbda06f83	-0.07833769
248	0xbdcc65d4	-0.0998036
249	0x3c678115	0.014129897
250	0xbb7b1d93	-0.0038317188
251	0x3ea9c264	0.3315612
252	0x3f8b57c8	1.0886164
253	0xbe98c62d	-0.29838696
254	0x3ea06284	0.3132516
255	0x3e5885f9	0.21144857

4.bias f4 [128]
0	0x3e0ef302	0.13959888
1	0xbe8bd712	-0.27312523
2	0xbe2fd53d	-0.17171188
3	0xbe148a28	-0.14505827
4	0x3f567ee2	0.8378736
5	0xbebf8015	-0.37402406
6	0x3f20d3de	0.62823284
7	0x3fbc8222	1.4727213
8	0xbf18a7fa	-0.5963131
9	0xbda2542a	-0.07926209
10	0x3d8e2c61	0.06942058
11	0x3ed4d219	0.41566542
12	0x3ec8bf8e	0.39208645
13	0x3e492687	0.19643603
14	0x3f12070d	0.5704201
15	0x3e675591	0.22591235
16	0xbd35edab	-0.04441611
17	0x3d96a9b7	0.07356589
18	0x3ed86b3b	0.4226931
19	0x3ee44927	0.4458706
20	0xbec0479c	-0.37554634
21	0xbe14f761	-0.14547493
22	0x3e87d283	0.26527795
23	0xbf1846eb	-0.5948321
24	0x3b87f16f	0.004148654
25	0x3ea2ee99	0.3182266
26	0xbe849d52	-0.25901276
27	0xbe95f35a	-0.29287225
28	0x3f53b918	0.82704306
29	0xbe9b2c63	-0.30307302
30	0xbdb4e59a	-0.088328555
31	0x3dd79f70	0.10528457
32	0xbdff5488	-0.12467295
33	0x3f480453	0.781316
34	0x3ea65c4d	0.32492295
35	0xbe70186c	-0.23446816
36	0x3f75ce03	0.96017474
37	0x3e9d84ce	0.30765384
38	0x3cdb7e0c	0.026793502
39	0x3e78da9c	0.24302143
40	0xbf0897b3	-0.53356475
41	0x3e8bbfdc	0.27294815
42	0x3e2d8a7d	0.1694736
43	0xbe3ed487	-0.1863576
44	0x3e1b8a0d	0.15189381
45	0xbe35ad30	-0.17741847
46	0x3ed38f76	0.4132039
47	0xbe66b005	-0.22528084
48	0xbe3fd45b	-0.18733351
49	0xbd1d583f	-0.038414236
50	0x3e91e7cc	0.2849716
51	0x3e67d641	0.22640325
52	0x3e3a75a4	0.18208939
53	0x3ea44afe	0.32088464
54	0xbe75bc85	-0.23997696
55	0x3d5d28dd	0.05399405
56	0xbe0ed819	-0.13949622
57	0xbe060dcd	-0.13091202
58	0xbe153589	-0.14571203
59	0x3bfc9031	0.0077076186
60	0xc0221903	-2.5327766
61	0xbe26e8c5	-0.16299732
62	0xbc373d23	-0.01118401
63	0x3f54176b	0.82848233
64	0x3f200868	0.62512827
65	0xbee1da5e	-0.44111913
66	0xbd86c570	-0.06580627
67	0x3e8d79b3	0.27631912
68	0x3e307ac4	0.17234331
69	0xbe981cb5	-0.29709402
70	0xbdf3760e	-0.118877515
71	0xbf1595ad	-0.5843151
72	0xbf5e43a0	-0.8682194
73	0xbf249e52	-0.6430408
74	0x3e000c8e	0.12504789
75	0xbe942358	-0.28933215
76	0x3df10a80	0.11769581
77	0xbed85d73	-0.42258796
78	0x3e199f4b	0.15002172
79	0x3f2b2129	0.66847473
80	0x3d901dfc	0.07036969
81	0xbe16b222	-0.1471639
82	0x3e69abc7	0.22819434
83	0xbf066488	-0.5249715
84	0xbd8b33fe	-0.06797026
85	0x3fc96e0b	1.5736707
86	0xbe802d3e	-0.25034517
87	0x3da60652	0.08106674
88	0x3ed597ea	0.41717464
89	0xbd0821d8	-0.0332354
90	0x3ea66f9f	0.32507035
91	0x3db37bd8	0.08763856
92	0x3ef1f372	0.47256047
93	0xbe437e1e	-0.19091079
94	0x3da79607	0.08182912
95	0xbf310707	-0.6915135
96	0xbe502fa1	-0.20330669
97	0x3f956f87	1.167466
98	0xbcd785ed	-0.026308978
99	0xbffc4949	-1.9709865
100	0xbe60f305	-0.21967705
101	0x3edea242	0.43483168
102	0x3c59fe61	0.013305278
103	0x3e474d1d	0.1946301
104	0x3eaf2522	0.34208018
105	0x3dde2113	0.10846152
106	0x3f343f68	0.7040925
107	0x3f102e10	0.56320286
108	0x3f216bb5	0.6305497
109	0xbe597ac0	-0.21238232
110	0xbdaf1491	-0.085488446
111	0xbe8166bf	-0.25273702
112	0xbdd7484f	-0.10511839
113	0xbd9ab20c	-0.07553491
114	0x3de964f8	0.113962114
115	0xbe85e858	-0.26153827
116	0x3e892905	0.26789108
117	0x3e5c0183	0.21484952
118	0x3e9e1acf	0.30879828
119	0x3ebd0337	0.36916515
120	0xbed364d7	-0.41287872
121	0xbe320e39	-0.17388238
122	0x3dafc64f	0.08582746
123	0x3f4d942b	0.8030421
124	0xbeb5fcd9	-0.3554447
125	0x3eb62315	0.3557364
126	0x3dbc5d62	0.09197499
127	0x3ea45da1	0.32102683
