MLP_CAISO_2022_models/delta_SO2_round1/2023_10_31-03_35_41_PM/epoch=12974,r2=0.0495,Invalids=0.pth (torch, 692689 bytes, 20 tensors)

0.weight f4 [512, 5]
0	0xbec63da0	-0.3871889
1	0x3ea89645	0.32927147
2	0xbeda2d09	-0.42612484
3	0xbce301ef	-0.027710883
4	0x3cb7d41c	0.022440009
5	0xbb51eea4	-0.003203311
6	0x3c37ad5b	0.011210765
7	0xbc3b8fff	-0.011447906
8	0x3980c699	0.0002456203
9	0xbd4d8ce0	-0.050183177
10	0x3c8d29c7	0.017231835
11	0x3d251244	0.040300623
12	0xbd6ef2d8	-0.058337063
13	0xbce77533	-0.028254127
14	0xbd3d72ec	-0.046252176
15	0xbaf7763e	-0.0018879843
16	0x3c36762c	0.011136573
17	0x3c2cd7b4	0.0105494745
18	0xbb47959c	-0.0030454164
19	0x3b4692e9	0.0030299968
20	0x3d13aea0	0.036055207
21	0x3c7c9b0c	0.015417825
22	0xbd3bda1b	-0.0458623
23	0xbc8c908a	-0.017158765
24	0xbcd1da15	-0.025616685
25	0xbb06e139	-0.002058102
26	0x3b91a586	0.0044447808
27	0x3b5feec7	0.0034169422
28	0x3c445d40	0.011985123
29	0x3c649799	0.013952159
30	0x3a80acb9	0.00098171
31	0x3cbc877b	0.02301382
32	0xbbea420f	-0.007148988
33	0xbc588baf	-0.013216897
34	0xbcbc50a8	-0.022987679
35	0xbb9925d6	-0.0046737
36	0x3cb68131	0.0222784
37	0xbb33f79f	-0.0027460826
38	0xbcd2655f	-0.025683103
39	0xbca0d7e7	-0.0196342
40	0xbb3dccc0	-0.0028961152
41	0x39a8b214	0.00032176136
42	0x3a2d483c	0.000661019
43	0xbbdffbc7	-0.006835434
44	0x3d0ab027	0.0338594
45	0x3bac4267	0.005256939
46	0x3c0e6d09	0.008692988
47	0xbce33efa	-0.02773999
48	0xbbaa9e96	-0.005206893
49	0xbb41e7f1	-0.002958771
50	0x3b0e44c7	0.0021708475
51	0x3ca70f2d	0.020392979
52	0xbc50f001	-0.012752534
53	0xbc156db5	-0.0091203945
54	0xbb91259b	-0.0044295317
55	0xbd12904a	-0.035782136
56	0x3d548d61	0.051892642
57	0xbd851791	-0.064986356
58	0x3db80aad	0.08986411
59	0xbe2ddc16	-0.16978487
60	0x3c43ad39	0.011943155
61	0xbb95ce1b	-0.004571689
62	0xbca5cb68	-0.020238593
63	0xbbae0b69	-0.005311419
64	0xbca783a5	-0.020448515
65	0x3e7b5bcd	0.24546738
66	0xbdb4ab6f	-0.08821761
67	0xbe05930d	-0.13044377
68	0xbdc19f4b	-0.09454211
69	0xbdfa7d23	-0.12230899
70	0x3b9b32e5	0.0047362917
71	0x3dd3b23f	0.10336732
72	0xbd969f65	-0.07354621
73	0xbd0db9ad	-0.034600902
74	0xbd88d794	-0.06681743
75	0x3ca2beda	0.019866396
76	0xbc93d624	-0.018046446
77	0x3af4d448	0.0018678987
78	0x3d3805f8	0.044927567
79	0x3d118050	0.03552276
80	0x3bc61657	0.0060451436
81	0x3c6d6b2c	0.014490884
82	0x3af78af2	0.0018886013
83	0xba393786	-0.00070654636
84	0xbad93cab	-0.0016573867
85	0x3ba9d029	0.0051822853
86	0x3cbff6bc	0.023433082
87	0x3c27b18d	0.0102352025
88	0x3c8cefa0	0.017204106
89	0x3cd087b9	0.025455343
90	0xbcacb7a6	-0.021083664
91	0x3bf15dba	0.0073659094
92	0xbc825b8f	-0.0159128
93	0x3c1d950c	0.009618055
94	0xbcbc9866	-0.023021888
95	0x3b1a65ae	0.002355914
96	0xbc57faa0	-0.013182312
97	0x3c646e8e	0.013942374
98	0x3bb663b8	0.0055660866
99	0x3ba80863	0.005127953
100	0xbca97d7a	-0.020689715
101	0x3cfbb689	0.030726688
102	0xbd466b6f	-0.0484423
103	0xbabee626	-0.0014564439
104	0xbb657da1	-0.0035017508
105	0xbb88c8bf	-0.0041743214
106	0x397a43fa	0.00023867181
107	0xbc389b2f	-0.011267467
108	0xbca5e8db	-0.020252636
109	0x3d6164e2	0.05502785
110	0xbc01813b	-0.007904346
111	0xbc5af0bb	-0.013363059
112	0x3c4d6f7a	0.012538785
113	0xbc80f352	-0.015741024
114	0x3c72993c	0.014807042
115	0x3c47f11c	0.012203481
116	0xbc718884	-0.0147420205
117	0x3b710c50	0.003678102
118	0xbacee1cb	-0.0015783844
119	0x3bb9f27e	0.0056746593
120	0xbb494eca	-0.0030717128
121	0x3c58d92f	0.013235374
122	0xbbb9de6c	-0.0056722667
123	0x3c931e38	0.017958745
124	0x3c9e66b4	0.019336082
125	0xbba77daf	-0.005111418
126	0x3c151656	0.009099564
127	0xbac5b3ec	-0.0015083528
128	0xbaf1833e	-0.0018425954
129	0xbcf65b93	-0.030072963
130	0xbb901f86	-0.004398289
131	0xbcd1f963	-0.025631612
132	0x3c02efd7	0.007991753
133	0xbafc9cbe	-0.0019272787
134	0xbb27fe8e	-0.0025633904
135	0x3b36265d	0.0027793862
136	0x3aed3e00	0.0018100142
137	0xbcd6f559	-0.026240038
138	0xbac22ad7	-0.0014813793
139	0xbc791ac9	-0.01520414
140	0x3cf4bc8b	0.02987506
141	0x3c5dce60	0.013537973
142	0xbe6de510	-0.23231912
143	0x3c9d273e	0.019183751
144	0xbce76bcc	-0.028249644
145	0x3e196530	0.14980006
146	0x3e53ec48	0.20695603
147	0xbfb1610a	-1.3857739
148	0x3e2a5028	0.1663214
149	0xbe3ad922	-0.18246892
150	0xbcfaa561	-0.030596437
151	0x3b819788	0.0039548315
152	0xba2e7372	-0.0006654776
153	0xbc9d841c	-0.019228034
154	0x3caf3e30	0.021391958
155	0xbbd53e93	-0.0065077036
156	0x3a5ffbad	0.00085442775
157	0xbc0ffbd5	-0.008788069
158	0xbaf41816	-0.0018622901
159	0xbbcb6f32	-0.006208324
160	0x3c76f253	0.015072423
161	0xbc4b2714	-0.012399454
162	0x3c782b7a	0.015147084
163	0x3d4d266e	0.050085478
164	0x3d03e936	0.03220483
165	0x3e40a961	0.18814613
166	0xbea1a244	-0.3156911
167	0x3f835352	1.0259802
168	0x3e87986e	0.26483482
169	0xbe613e83	-0.21996503
170	0x3d1815ba	0.037130095
171	0x3d923d43	0.07140591
172	0xbdb9b99e	-0.09068607
173	0xbc5624b0	-0.01307027
174	0xbd5447c3	-0.05182625
175	0xbc0986c4	-0.008393947
176	0xbbb3231d	-0.0054668323
177	0x3c78ca9a	0.015185023
178	0x3c90b88d	0.017666126
179	0xbc5953d3	-0.013264614
180	0xb9885a57	-0.0002600725
181	0x3c7ebf04	0.015548471
182	0x3afc7187	0.0019259908
183	0xbd261ceb	-0.040554922
184	0x3cc804b0	0.024416298
185	0x3c37ea03	0.011225226
186	0xbc4fefb2	-0.012691425
187	0x39151ce2	0.00014220507
188	0xbd69b5d9	-0.05705819
189	0x3d9ceb3b	0.07662054
190	0x3d69b9d7	0.057061996
191	0x3c37e51b	0.011224057
192	0xbcea773c	-0.028621309
193	0xbc82ccaf	-0.015966741
194	0xbd1ee922	-0.03879655
195	0x3cd99872	0.02656195
196	0xbcfe1bf3	-0.031019187
197	0xbccc7f95	-0.02496318
198	0xbbb0192b	-0.005374094
199	0xbc715fa2	-0.014732273
200	0xbd6dbc54	-0.05804093
201	0x3d258157	0.04040655
202	0xbd160cc4	-0.036633268
203	0x3dd49ff2	0.1038207
204	0xbd5a1872	-0.05324597
205	0x3ccd3c16	0.025053065
206	0xbd6e8a1f	-0.05823719
207	0xbee0c34a	-0.43898994
208	0x3d69fcd3	0.057125878
209	0xbd8a58a0	-0.06755185
210	0x3be02e02	0.006841422
211	0x3aef7974	0.0018270449
212	0xbc231068	-0.009952642
213	0x3bc8df38	0.0061301254
214	0xbd36be09	-0.044614825
215	0x3e682163	0.22668986
216	0x3d9a9b9f	0.075492136
217	0xbf081583	-0.53157824
218	0xbf157f5b	-0.58397454
219	0xbe5a3c3f	-0.21312045
220	0x3b7fb9f0	0.003902074
221	0xba6898f6	-0.00088728906
222	0x3c68ad54	0.014201481
223	0x3b41c12b	0.00295646
224	0x3b8b65c5	0.0042540752
225	0x3beec7ae	0.0072869873
226	0x3da4e43d	0.080513455
227	0xbea27981	-0.31733325
228	0xbd48d0af	-0.04902714
229	0xbd955ab8	-0.07292694
230	0xbb9dd1fd	-0.0048162923
231	0x3d039f02	0.032134064
232	0xbc9fbd06	-0.019499313
233	0xbc55813c	-0.0130313
234	0xbd11329b	-0.03544865
235	0x3cd15a2b	0.02555569
236	0xbdaddea1	-0.08489729
237	0xbb04b2cc	-0.0020248173
238	0x3cefe3ef	0.029283492
239	0xbb519597	-0.0031980032
240	0x3abbda69	0.0014332059
241	0xbc83a541	-0.01607001
242	0x3b829573	0.003985101
243	0x39f41f65	0.00046562697
244	0x39888ce9	0.00026044928
245	0xbe14a8fd	-0.14517589
246	0x3e2ca6f8	0.16860569
247	0x3e488aa6	0.1958414
248	0x3f271fff	0.652832
249	0xbf52ebb2	-0.8239089
250	0xbc2d56e7	-0.010579801
251	0x3bb9993c	0.005664019
252	0x3b36522d	0.0027819977
253	0x3c9861b5	0.018601278
254	0xbcc8ddeb	-0.024519881
255	0xbbdcbddd	-0.0067365007

0.bias f4 [512]
0	0xbdfb5749	-0.12272508
1	0x3ba46387	0.0050167474
2	0x3d913fb9	0.07092232
3	0xba1ec9aa	-0.0006057272
4	0xbceb8f12	-0.028754745
5	0x3b192e23	0.0023373447
6	0xbc251e7b	-0.010078068
7	0x3d9df8b1	0.0771345
8	0xbb8d643a	-0.0043149265
9	0x3bea2aab	0.0071461997
10	0x3ba27773	0.004958087
11	0xbd8c87a7	-0.06861811
12	0x3d2c4a67	0.042063143
13	0x3d053427	0.03252044
14	0xbd5a9cb5	-0.053372104
15	0xbbdd3175	-0.0067502805
16	0xbc99f03e	-0.018791314
17	0xbbbe7df9	-0.005813357
18	0x3b9f3668	0.0048587807
19	0xbba30817	-0.0049753296
20	0x3c3603d7	0.011109314
21	0x3a83eedc	0.0010065692
22	0xba4cfc57	-0.0007819584
23	0xba9e0579	-0.0012056074
24	0xbc01d452	-0.007924156
25	0x3c406aed	0.011744243
26	0x3aad9fab	0.0013246437
27	0xbc05eeb4	-0.008174587
28	0x3c509b04	0.012732271
29	0x3e905590	0.2819028
30	0xbd36be58	-0.04461512
31	0x3bd9181b	0.006625188
32	0x3bb8234f	0.0056194435
33	0xbd68e81a	-0.056861974
34	0xbd7b6139	-0.061372016
35	0x3c124f15	0.008929987
36	0x3cc46b75	0.02397702
37	0x3d2d4a6e	0.04230731
38	0xbcb9e52d	-0.022692287
39	0x3bcc036d	0.0062259943
40	0xbba4cd5b	-0.005029363
41	0x3dc02ed9	0.093839355
42	0x3cac61a6	0.021042656
43	0x3f0b7cbc	0.54487205
44	0xbc47901b	-0.0121803535
45	0x3cd7d7f6	0.026348095
46	0x3d5bd42d	0.053669143
47	0x3d14a259	0.03628764
48	0x3aebe468	0.0017997148
49	0xbe69fda6	-0.22850665
50	0x3b6163fa	0.0034391866
51	0x3d4b3ca5	0.049618382
52	0x3c11cd1f	0.008899002
53	0xbc7fc3c6	-0.015610641
54	0xbbcdf66b	-0.006285479
55	0xbcdf465d	-0.027255232
56	0x3cb6d34b	0.02231755
57	0xbc8e25aa	-0.017351944
58	0x3d8b0adb	0.0678918
59	0xbd90d6a9	-0.07072193
60	0x3d43498c	0.04767756
61	0x3c2aab24	0.01041678
62	0xbd855bd4	-0.065116554
63	0x3b3222ca	0.002718138
64	0x3abf9976	0.0014617878
65	0xbd089c67	-0.033352282
66	0x3d6e3893	0.058159422
67	0x3d4fe57e	0.05075597
68	0x3aa8b684	0.0012871777
69	0x3cf1f1df	0.029534278
70	0x3c961bcf	0.018323807
71	0x3d32d35d	0.043658603
72	0x3c4467d3	0.011987644
73	0x3b8cc3d6	0.0042958064
74	0xbc059c55	-0.008154948
75	0x3c09bb71	0.008406506
76	0xbd7e23f5	-0.06204601
77	0x3b0a8a24	0.0021139467
78	0xbc4a736a	-0.012356618
79	0xbb20ba6f	-0.0024525186
80	0xbcfbf37f	-0.030755756
81	0x3c0c7ba5	0.008574401
82	0x3d72d8f5	0.059288938
83	0x3d9f5edd	0.077817656
84	0xbaeedb7e	-0.0018223373
85	0x3d1e3db5	0.038633067
86	0x3bd36b01	0.006451965
87	0xbd333b26	-0.04375758
88	0x3e15da79	0.14634122
89	0x3e365cdb	0.17808859
90	0xbcec591b	-0.028851083
91	0x3de3c2d4	0.11121145
92	0xbcf1f878	-0.029537424
93	0xbcb25ddd	-0.021773273
94	0x3c121aed	0.008917552
95	0x3a2620ae	0.0006337267
96	0x3d2c361e	0.042043798
97	0xbd02cfdf	-0.031936523
98	0xbc2d03f8	-0.010560028
99	0x3dcf9d59	0.101374336
100	0x3a90857b	0.0011026108
101	0xbb08fbe3	-0.002090209
102	0x3bfd1905	0.00772393
103	0xbda3851f	-0.07984375
104	0xbaa692a3	-0.0012708496
105	0xbc26954c	-0.010167431
106	0x3f324aad	0.69645196
107	0xbcf77194	-0.030205525
108	0x3d020fbc	0.031753287
109	0xba69cce6	-0.0008918777
110	0x3d88e428	0.06684142
111	0xbc1519cd	-0.00910039
112	0x3b440c26	0.0029914468
113	0x3c007664	0.0078407265
114	0xbde53279	-0.111912675
115	0xbe73973a	-0.23788157
116	0xbbbf36a4	-0.005835371
117	0x3d004738	0.03131792
118	0x3ca01a42	0.01954377
119	0x3dd7ef4a	0.10543688
120	0x3d449f32	0.048003383
121	0x3d142c3e	0.036175005
122	0xbae87ff2	-0.0017738326
123	0xbd466ca6	-0.04844346
124	0xbcc95cdc	-0.024580412
125	0x397ea313	0.00024284078
126	0x3be03c86	0.0068431525
127	0xbc6126b4	-0.013742138
128	0xbc31544e	-0.010823322
129	0x3c49b3c3	0.012310925
130	0x3cea4578	0.028597578
131	0xbbca5d6d	-0.006175688
132	0x3baf87d3	0.0053567677
133	0x3d71be16	0.05901917
134	0x3c833317	0.016015572
135	0x3cb63fdf	0.022247253
136	0x3e00282c	0.12515324
137	0xbc731394	-0.014836211
138	0xbd1a7cb9	-0.0377166
139	0x3cfc2f18	0.030784175
140	0x3df173a7	0.11789637
141	0x3caa7a3a	0.020810235
142	0xbbba4a31	-0.005685114
143	0xbba725c5	-0.005100938
144	0x3c03a3e1	0.008034677
145	0xbcc45d6a	-0.023970325
146	0x3b67f725	0.0035395112
147	0xbd379c7d	-0.044826973
148	0xbf29aad0	-0.66276264
149	0x3d52ad3f	0.05143475
150	0xbc28f34f	-0.010311916
151	0x3cf21d4a	0.029554982
152	0x3d9cb8ea	0.07652457
153	0xbce74baa	-0.028234322
154	0xbd3db843	-0.046318304
155	0x3bc448a0	0.005990103
156	0xbbf6e3be	-0.007534473
157	0xbcce526c	-0.025185786
158	0x3e25d4db	0.16194479
159	0x3ce1ce10	0.027564079
160	0xbe954510	-0.29154253
161	0x3d4f0a21	0.05054677
162	0x3d28dd18	0.041226476
163	0x3be67de2	0.0070340494
164	0x3d842d67	0.06453972
165	0x3c20235b	0.009774054
166	0x3b9d00b3	0.004791343
167	0xbd21f929	-0.03954426
168	0x3bfd9d62	0.0077397088
169	0x3d078f96	0.03309592
170	0x3c0aa245	0.00846154
171	0xbba170b6	-0.0049267663
172	0x3b0dea34	0.0021654489
173	0xbd4d4796	-0.050117098
174	0xbc163044	-0.009166781
175	0xbbf9d0df	-0.0076237763
176	0x3c4491a7	0.011997617
177	0x3d22ec8b	0.039776366
178	0x3c9f6e7d	0.019461865
179	0xbb1a5b54	-0.002355297
180	0xbc931846	-0.01795591
181	0xbf04037d	-0.5156782
182	0xbc65decb	-0.014030169
183	0x3d65b8e9	0.056084547
184	0x3f08c9fc	0.53433204
185	0x3ba0c278	0.004905995
186	0x3b866865	0.0041018003
187	0x3b4fc4a5	0.0031702903
188	0xbc9f9672	-0.019480918
189	0x3cb75b50	0.022382408
190	0xbb922108	-0.004459504
191	0x3bd1dbf3	0.006404394
192	0x3c98793a	0.018612493
193	0x3d8cf279	0.068821855
194	0xbca985e6	-0.02069373
195	0xbbe4a343	-0.00697747
196	0x3c007131	0.007839487
197	0xba8c0e3c	-0.0010685395
198	0xbbc9de17	-0.0061605084
199	0x3c93571b	0.017985871
200	0xbb34508b	-0.0027513828
201	0x3c16f488	0.009213574
202	0xbd1f5d7f	-0.038907524
203	0xbc6e2c2e	-0.0145369
204	0x3d0b0177	0.033936944
205	0xbb12cb94	-0.0022399174
206	0x3b3214ed	0.0027173117
207	0xbc089c2e	-0.008338017
208	0xbe4ea039	-0.20178308
209	0xbcb2f199	-0.021843718
210	0xbe92101b	-0.28527912
211	0x3d12557e	0.035726063
212	0xbd30feb0	-0.04321164
213	0x3a6cf448	0.0009039086
214	0xbd12c2ce	-0.03583031
215	0xba89b15c	-0.0010505128
216	0x3be5d234	0.0070135836
217	0x3d13bfc1	0.036071543
218	0x3cc164fd	0.023607725
219	0xbcd5e4e8	-0.026110128
220	0xbc4577f8	-0.012052529
221	0xbcb0669a	-0.0215333
222	0xb8e0f363	-0.00010726487
223	0x3c8b2048	0.016983166
224	0x3c6f87f0	0.014619812
225	0xbd869384	-0.06571105
226	0x3ed2f748	0.41204286
227	0x3e0e034a	0.13868442
228	0x3c96dbef	0.01841542
229	0xbb941d88	-0.004520122
230	0xbc375bed	-0.01119135
231	0x3d0e81cf	0.034791764
232	0x3d51974c	0.05116968
233	0x3eb0ff77	0.34569904
234	0xbce9ac94	-0.028524674
235	0x3c7dd350	0.015492275
236	0x3b699813	0.0035643622
237	0x3c7ac53a	0.015305812
238	0x3c5e0510	0.013551012
239	0x3d0dd5e2	0.034627803
240	0xba1d1f58	-0.0005993745
241	0x3ce13a91	0.027493747
242	0xbc38cf6b	-0.011279921
243	0x3c73fffd	0.014892575
244	0xbb27e96a	-0.0025621303
245	0x3bd8b1fb	0.006613014
246	0x3e8de973	0.2771717
247	0xbde0b559	-0.10972089
248	0xbc48fbbf	-0.012267052
249	0xbc88afc0	-0.016685367
250	0xbc84884a	-0.016178269
251	0x3a2adf9a	0.00065183046
252	0x3f19846c	0.59967685
253	0xbb92568e	-0.0044658845
254	0x3bf9a1ce	0.0076181656
255	0x3f306347	0.68901485

1.weight f4 [512]
0	0x3e778a8b	0.24173944
1	0x3c0d85c3	0.008637848
2	0x3cfd9b8c	0.03095796
3	0x3c63c46f	0.013901814
4	0x3ce30d72	0.027716372
5	0x3b055087	0.0020342187
6	0x3c5475c2	0.012967529
7	0x3c750b12	0.014956253
8	0x3bfb6af0	0.00767266
9	0x3c984b28	0.018590525
10	0x3c60d607	0.013722903
11	0x3dab4116	0.083620235
12	0x3bc21122	0.0059224525
13	0x3ce0f089	0.027458446
14	0x3d6cc0cb	0.05780105
15	0x3cf8acca	0.03035583
16	0x3c2103c0	0.009827554
17	0x3c3cf3f5	0.011532773
18	0x3be88e6e	0.007097057
19	0x3c3ddff5	0.01158904
20	0x3d0f3039	0.034958098
21	0x3a04e77f	0.0005069896
22	0x3b2276e4	0.0024790103
23	0x3c06e33f	0.008232891
24	0x3c2cadd7	0.0105394935
25	0x3c5d5d2f	0.013510986
26	0x3c7645c2	0.01503128
27	0x3c30c817	0.010789893
28	0x3d4e6470	0.050388753
29	0x3e917f1b	0.28417286
30	0x3c1ec787	0.009691126
31	0x3c854b13	0.01627115
32	0x3ce51a9f	0.027966795
33	0x3e4aae74	0.19793111
34	0x3d4c614e	0.049897484
35	0x3bd9e4ae	0.006649575
36	0x3c366723	0.011132988
37	0x3d7ac430	0.061222255
38	0x3c3599ba	0.011084015
39	0x3c5221d5	0.012825449
40	0x3c6ad04b	0.0143318875
41	0x3dab30dc	0.083589286
42	0x3beb1d09	0.007175092
43	0x3eaeece9	0.34165123
44	0x3b903d98	0.004401874
45	0x3d793aaf	0.06084698
46	0x3c52f32c	0.0128753595
47	0x3d3274f4	0.043568566
48	0x3c13d660	0.009023279
49	0x3e5734e8	0.21016276
50	0x3c9c36f5	0.019069174
51	0x3ca5864f	0.020205645
52	0x3cd4ae60	0.025962055
53	0x3c96315b	0.018334081
54	0x3c0e911f	0.008701592
55	0x3c4bfecc	0.012450885
56	0x3c679fc0	0.014137208
57	0x3c4170c7	0.011806673
58	0x3df87c1a	0.121330455
59	0x3d4daca0	0.050213456
60	0x3cb93525	0.02260835
61	0x3ce3aeb9	0.027793275
62	0x3d3cc8eb	0.046090048
63	0x3d060784	0.03272201
64	0x3cf3e031	0.029769989
65	0x3cc13ce1	0.0235886
66	0x3eda8bd7	0.42684814
67	0x3ce1374c	0.027492188
68	0x3ca31ac8	0.019910231
69	0xbd858c57	-0.06520908
70	0x3c08ee9a	0.008357668
71	0x3dce3e89	0.100705214
72	0x3ca313a7	0.019906832
73	0x3d38c69e	0.04511129
74	0x3c91e065	0.017807195
75	0xbcc7d747	-0.024394644
76	0x3d5a909f	0.053360578
77	0x3bb19f2c	0.005420586
78	0x3c89f6d7	0.016841335
79	0x3bcbe011	0.006221779
80	0x3d14420f	0.03619581
81	0x3b50a124	0.0031834329
82	0x3d3384d6	0.043827854
83	0x3dc3fb48	0.095694125
84	0x3cbf156f	0.02332565
85	0x3d957e6c	0.07299504
86	0x3b022351	0.0019857476
87	0x3bac7115	0.005262504
88	0x3ea2b658	0.31779742
89	0x3e388538	0.18019569
90	0x3eaf0855	0.34186044
91	0xbc2ade78	-0.010429017
92	0x3c901ad0	0.01759091
93	0x3c866304	0.016404636
94	0x3ca068eb	0.019581279
95	0x3c36aa8c	0.01114906
96	0x3c3a0c9b	0.011355544
97	0x3c8c5a8c	0.01713302
98	0x3d37a10d	0.044831324
99	0x3d03d468	0.03218499
100	0x3cd58f51	0.026069315
101	0x3bfc878a	0.007706587
102	0x3ca4002a	0.02001961
103	0x3ec7a296	0.3899123
104	0x3a925ce4	0.00111666
105	0x3c05c07f	0.00816357
106	0x3e515b0e	0.20444891
107	0x3c18c3f3	0.009324062
108	0x3c842aa4	0.016133614
109	0x3bc78da8	0.006089885
110	0x3d42363b	0.047415
111	0x3c25566b	0.010091404
112	0x3c22dfda	0.009941066
113	0x3beeedc9	0.00729153
114	0x3cefa041	0.02925122
115	0x3ecc0046	0.3984396
116	0x3cfebb4a	0.031095166
117	0x3c4168cb	0.01180477
118	0x3c1febd3	0.009760815
119	0x3d1252cf	0.035723504
120	0x3d44f28b	0.04808287
121	0x3c16b81a	0.009199167
122	0x3c01a195	0.007912059
123	0x3cc05af9	0.02348088
124	0x3e492d9c	0.19646305
125	0x3bff4f2c	0.0077914204
126	0x3c358fd4	0.011081655
127	0x3de555e0	0.1119802
128	0x3cad3f98	0.021148488
129	0x3d1c7800	0.03820038
130	0x3d063590	0.032765925
131	0x3a939194	0.0011258596
132	0x3b3b2eee	0.0028561908
133	0x3cb27c18	0.021787688
134	0x3c215905	0.009847884
135	0x3d148735	0.036261756
136	0x3c9c30e0	0.019066274
137	0x3d3a1c26	0.045437
138	0x3c85bf85	0.016326675
139	0x3d603905	0.054741878
140	0x3db76bb1	0.089560874
141	0x3cc30086	0.02380396
142	0x3bff266a	0.0077865617
143	0x3c3982a1	0.011322648
144	0x3ca7c11b	0.020477822
145	0x3c5c30f2	0.013439404
146	0x3be3dc4a	0.0069537507
147	0x3c68e212	0.014214056
148	0x3ed17b39	0.40914324
149	0x3cc58e07	0.024115575
150	0x3cad200d	0.021133447
151	0x3d2da89d	0.04239713
152	0x3dbcdc75	0.09221736
153	0x3c946f30	0.018119425
154	0x3d4a0534	0.04932137
155	0x3c3890b0	0.011264965
156	0x3c0082c6	0.007843679
157	0x3d107900	0.035271645
158	0x3e036c7b	0.12834351
159	0x3cb5ed69	0.022207933
160	0x3e83fe74	0.2578007
161	0x3cf3dedb	0.029769352
162	0x3d0743e9	0.03302375
163	0x3c86c3b7	0.016450746
164	0x3cbc22cd	0.022965813
165	0x3c0f91de	0.008762805
166	0x3c4324c7	0.011910624
167	0x3ceddbc8	0.029035464
168	0x3c3b64dc	0.011437621
169	0x3cc4dc7b	0.024030915
170	0x3bdddf29	0.0067709875
171	0x3be2dae4	0.0069230665
172	0x3c04efce	0.0081138145
173	0x3d949797	0.07255476
174	0x3b71337d	0.003680437
175	0x3c587d38	0.013213448
176	0x3b72eb48	0.0037066508
177	0x3c9986ad	0.018740976
178	0x3bc4d1c8	0.006006453
179	0x3b340c29	0.0027473068
180	0x3c8dec85	0.017324695
181	0x3eaccfeb	0.3375238
182	0xbc3471c2	-0.01101345
183	0x3cef887e	0.02923989
184	0x3e97f5ed	0.29679814
185	0x3bd64c70	0.006539874
186	0x3c215dc4	0.009849016
187	0x3c8e19a1	0.017346205
188	0x3d3357eb	0.043785017
189	0x3ced471a	0.028964568
190	0x3c0ef7d3	0.008726078
191	0x3ce4cb1c	0.027928881
192	0x3c92628f	0.017869262
193	0x3d42de57	0.04757532
194	0x3c916ebb	0.017752996
195	0x3c2336c9	0.009961792
196	0x3c2e59fb	0.01064157
197	0x3c7e186f	0.015508755
198	0x3c589fdd	0.013221708
199	0x3cff9bdf	0.031202255
200	0x3c8d8bb7	0.017278535
201	0x3ccc53d1	0.02494231
202	0x3c35858d	0.011079204
203	0x3c1e7e3f	0.009673654
204	0x3c992704	0.018695362
205	0x3c75514b	0.014972995
206	0x3c11c001	0.008895875
207	0x3cb145b1	0.021639677
208	0x3d75cd7f	0.06001043
209	0x3c814248	0.015778676
210	0x3ecd1a52	0.40059143
211	0x3ddae991	0.106890805
212	0x3c708559	0.01468023
213	0x3bffc6ad	0.0078056664
214	0x3d8968d9	0.06709451
215	0x3b8548ab	0.0040675006
216	0x3be62511	0.0070234616
217	0x3bff056b	0.0077826283
218	0x3bf9b1b2	0.00762006
219	0x3c2f42fa	0.010697121
220	0x3c4684f4	0.012116659
221	0x3d018c5b	0.031627994
222	0x3b7819ab	0.0037857096
223	0x3c84682d	0.016162956
224	0x3b3a4eb2	0.0028428254
225	0x3d3b1922	0.045678265
226	0x3e99491d	0.29938594
227	0x3d5557d2	0.052085705
228	0x3cbef30c	0.023309253
229	0x3c959694	0.018260278
230	0x3c83f422	0.016107623
231	0x3c221646	0.009893006
232	0x3d12114f	0.035661038
233	0x3e2bfab6	0.16794857
234	0x3d1ceadd	0.03830992
235	0x3d07b0b8	0.033127517
236	0x3c13c70b	0.0090196235
237	0x3bf683d5	0.00752304
238	0x3d1b297d	0.037881363
239	0x3c12b1a3	0.008953485
240	0x3bf3f8e1	0.00744544
241	0x3c98aa5a	0.018635917
242	0x3c9d66d4	0.019214071
243	0x3d14172f	0.036154922
244	0x3c9a9f8c	0.018874906
245	0x3e3d2348	0.1847049
246	0x3e8c7d5d	0.27439395
247	0x3d9656bf	0.07340764
248	0x3a839da6	0.001004149
249	0x3be9b389	0.007131998
250	0x3d06f2a1	0.032946233
251	0x3c0d4748	0.008622952
252	0x3ecbf9f2	0.3983913
253	0x3c7ba354	0.015358765
254	0x3d2603e4	0.040531054
255	0x3ed0f7b1	0.40813974

1.bias f4 [512]
0	0xbe9e3757	-0.30901596
1	0xbd3e83b7	-0.04651233
2	0xbd696a12	-0.056985922
3	0xbcea89b9	-0.028630124
4	0xbd880879	-0.06642241
5	0xbc2f0885	-0.010683184
6	0xbccdd647	-0.02512659
7	0xbcf1e51a	-0.02952819
8	0xbc93d35d	-0.018045122
9	0xbd0ccf48	-0.034377366
10	0xbcfd7f5d	-0.03094452
11	0xbe27270e	-0.16323492
12	0xbc6f134c	-0.014592003
13	0xbdd12a97	-0.102132015
14	0xbde7ad88	-0.11312395
15	0xbd772c46	-0.060344957
16	0xbcdb8bb6	-0.026800018
17	0xbd43115a	-0.04762397
18	0xbc45a122	-0.012062343
19	0xbd072a15	-0.032999117
20	0xbd622fbe	-0.05522131
21	0xbc653273	-0.013989079
22	0xbc5ea71f	-0.013589649
23	0xbcebafcf	-0.028770356
24	0xbcd65e49	-0.026168006
25	0xbcd8477a	-0.02640127
26	0xbcfcae92	-0.03084496
27	0xbcc991e9	-0.024605708
28	0xbe0992c7	-0.13434897
29	0xbe494d46	-0.19658384
30	0xbcb123dd	-0.021623546
31	0xbd0c7393	-0.034289908
32	0xbd874d38	-0.06606525
33	0xbf0f0c04	-0.5587771
34	0xbddc618f	-0.10760795
35	0xbd2b8e87	-0.04188397
36	0xbced02aa	-0.028931934
37	0xbe10d227	-0.14142667
38	0xbd6e4980	-0.058175564
39	0xbd0651c1	-0.03279281
40	0xbdaf0ebd	-0.08547733
41	0xbe352ee8	-0.17693675
42	0xbc6c8a82	-0.01443732
43	0xbe9d9531	-0.30777887
44	0xbc4693de	-0.012120215
45	0xbe2d237a	-0.16908064
46	0xbd7ffa0a	-0.062494315
47	0xbdb8a40c	-0.090156645
48	0xbca16fa8	-0.019706562
49	0xbf183150	-0.59450245
50	0xbd79372c	-0.06084363
51	0xbd2709e2	-0.04078091
52	0xbd25a13d	-0.040436972
53	0xbcfc8a22	-0.030827586
54	0xbd21f5ab	-0.039540928
55	0xbcfc3838	-0.030788526
56	0xbceb0daa	-0.028693039
57	0xbd83f88d	-0.06443892
58	0xbe799471	-0.24373032
59	0xbde97e54	-0.11401048
60	0xbd7484ba	-0.05969689
61	0xbd5da1ae	-0.054109268
62	0xbdb6752e	-0.08909069
63	0xbdb1e7ca	-0.086867884
64	0xbdeecdbb	-0.11660334
65	0xbd34016e	-0.043946676
66	0xbea2dc77	-0.31808826
67	0xbd88784e	-0.06663571
68	0xbd36af66	-0.044600867
69	0xbe2bab43	-0.1676455
70	0xbca006ea	-0.019534547
71	0xbe3088c8	-0.17239678
72	0xbd3c238d	-0.04593234
73	0xbdda552c	-0.106607765
74	0xbd39d024	-0.045364514
75	0xbda4541e	-0.080238566
76	0xbdbcb9cc	-0.092151254
77	0xbc58fbe5	-0.01324365
78	0xbd36669d	-0.044531453
79	0xbc87f000	-0.016593933
80	0xbdcab6bc	-0.09898135
81	0xbc48265a	-0.012216175
82	0xbdb73896	-0.0894634
83	0xbe239cb1	-0.15977742
84	0xbd782e17	-0.06059083
85	0xbe02fb2b	-0.12791125
86	0xbc234cf3	-0.009967077
87	0xbc9ed0a8	-0.019386604
88	0xbee6bb8a	-0.45064956
89	0xbe9e9aa9	-0.3097737
90	0xbde0f4d5	-0.10984198
91	0xbded879c	-0.11598131
92	0xbd5ae823	-0.05344404
93	0xbd1848b8	-0.037178725
94	0xbd490e9b	-0.049086194
95	0xbce8be34	-0.028411008
96	0xbd0d1442	-0.034443147
97	0xbd257635	-0.040395934
98	0xbda3c8dd	-0.07997296
99	0xbda21bfb	-0.07915493
100	0xbd5a753e	-0.053334467
101	0xbc7cdb25	-0.0154331075
102	0xbd2e90d3	-0.042618584
103	0xbef2be89	-0.47410992
104	0xbd3745c8	-0.044744283
105	0xbc80b99d	-0.015713507
106	0xbd4351f3	-0.047685575
107	0xbd328c62	-0.04359091
108	0xbd07ee17	-0.033186045
109	0xbcb90001	-0.02258301
110	0xbdcb6383	-0.0993109
111	0xbcf52f26	-0.029929709
112	0xbdc3496d	-0.09535489
113	0xbcb474b7	-0.02202831
114	0xbdb1647c	-0.08661744
115	0xbeea26eb	-0.45732817
116	0xbd747208	-0.05967906
117	0xbcf759ad	-0.030194128
118	0xbd0d1f76	-0.03445383
119	0xbd9188ac	-0.07106146
120	0xbdacb7a6	-0.08433466
121	0xbd6d6b8d	-0.057963897
122	0xbcb1e9e6	-0.021717977
123	0xbd21114f	-0.039323147
124	0xbee8e945	-0.4549047
125	0xbca220be	-0.019791003
126	0xbd07453e	-0.03302502
127	0xbe908791	-0.2822843
128	0xbd54e814	-0.05197914
129	0xbd81bd9d	-0.06334994
130	0xbd817722	-0.06321551
131	0xbc3de587	-0.011590368
132	0xbc0d203b	-0.008613641
133	0xbd437bcd	-0.047725488
134	0xbcdb84da	-0.026796747
135	0xbdcc5716	-0.09977548
136	0xbd324670	-0.043524206
137	0xbdb6c976	-0.089251444
138	0xbd31b5f9	-0.043386433
139	0xbe1133b5	-0.14179881
140	0xbe396583	-0.1810513
141	0xbd1b32af	-0.037890133
142	0xbcbd9986	-0.023144495
143	0xbce625d9	-0.028094219
144	0xbd3066e2	-0.043066867
145	0xbcd8e6a8	-0.026477173
146	0xbcd298f0	-0.025707692
147	0xbce3a87e	-0.027790304
148	0xbec4e6fa	-0.3845747
149	0xbdba0c0d	-0.0908433
150	0xbd7bf30f	-0.061511096
151	0xbda69f34	-0.08135834
152	0xbe4d2762	-0.20034555
153	0xbd15bdbd	-0.0365579
154	0xbdfbce96	-0.122952625
155	0xbcb4e3c2	-0.02208126
156	0xbcbefcdc	-0.023313932
157	0xbd827de4	-0.06371668
158	0xbe829e09	-0.25511196
159	0xbd5f3ac2	-0.054499395
160	0xbeaeab20	-0.34114933
161	0xbd884db6	-0.06655447
162	0xbdb5dd19	-0.08880062
163	0xbd1f93bb	-0.038959246
164	0xbd2fcd7a	-0.042920567
165	0xbca068fa	-0.019581307
166	0xbcfd4a8e	-0.03091934
167	0xbda1d9df	-0.07902884
168	0xbcc7e676	-0.024401885
169	0xbd3e5dda	-0.046476223
170	0xbcb0ff5f	-0.021606145
171	0xbccdc4df	-0.02511829
172	0xbcbb6eca	-0.022879977
173	0xbe381bc0	-0.17979336
174	0xbc739321	-0.014866621
175	0xbcde6c4a	-0.027151246
176	0xbce0578c	-0.027385496
177	0xbd2627d2	-0.04056532
178	0xbd429fe8	-0.04751578
179	0xbd0d942e	-0.034565143
180	0xbd68b618	-0.056814283
181	0xbe83ec03	-0.25766
182	0xbd6fd81a	-0.0585557
183	0xbdb5eb74	-0.088828
184	0xbe87977b	-0.26482758
185	0xbcb3903b	-0.02191936
186	0xbcc9a2c3	-0.024613744
187	0xbd146126	-0.03622546
188	0xbdee51f9	-0.11636729
189	0xbd5abd63	-0.05340327
190	0xbcb6feaf	-0.02233824
191	0xbd567212	-0.05235488
192	0xbd7c0c68	-0.06153527
193	0xbdd303b3	-0.1030344
194	0xbd428afe	-0.047495835
195	0xbd0261cc	-0.031831548
196	0xbcee75bf	-0.02910888
197	0xbcf8b50d	-0.03035977
198	0xbd05038a	-0.03247408
199	0xbd873dcd	-0.066035844
200	0xbd1ac07a	-0.037781216
201	0xbdc5f8c4	-0.09666589
202	0xbcaa86d2	-0.02081624
203	0xbd1bd3e0	-0.038043857
204	0xbd06a455	-0.032871563
205	0xbcf55bc6	-0.029950988
206	0xbcce5afc	-0.02518987
207	0xbd1801d0	-0.037111104
208	0xbed6c7e4	-0.4194938
209	0xbcfc3972	-0.03078911
210	0xbf034df9	-0.5129085
211	0xbe3c6602	-0.18398288
212	0xbd123848	-0.035698205
213	0xbd081117	-0.033219423
214	0xbe43d00b	-0.19122331
215	0xbcc6868a	-0.024234075
216	0xbc2a06a3	-0.010377559
217	0xbd8aa8e3	-0.06770494
218	0xbcf71e57	-0.030165834
219	0xbce0c222	-0.02743632
220	0xbd02df6b	-0.03195135
221	0xbd82ecb8	-0.06392807
222	0xbc9813c6	-0.018564116
223	0xbd427d4c	-0.047482774
224	0xbccd57f8	-0.02506636
225	0xbdc402bf	-0.09570836
226	0xbe569f82	-0.20959285
227	0xbe6788fe	-0.22610852
228	0xbd2dac0d	-0.04240041
229	0xbd6518f9	-0.05593202
230	0xbd269feb	-0.040679853
231	0xbd480f14	-0.048842505
232	0xbd7e21d2	-0.062043972
233	0xbedb1883	-0.42792138
234	0xbdbbdc86	-0.09172921
235	0xbd98ec45	-0.0746694
236	0xbd80c7d4	-0.06288114
237	0xbc78b83b	-0.015180643
238	0xbda4f1dd	-0.08053944
239	0xbc972b5a	-0.018453289
240	0xbcab41ee	-0.020905461
241	0xbd4ad0f0	-0.049515665
242	0xbd09988d	-0.03359275
243	0xbd76ffd3	-0.060302567
244	0xbd294708	-0.041327506
245	0xbf104e37	-0.56369346
246	0xbe89565e	-0.26823705
247	0xbe24acd5	-0.16081555
248	0xbd0b2797	-0.033973303
249	0xbd387e88	-0.045042545
250	0xbd794f16	-0.060866438
251	0xbd7bf69b	-0.06151448
252	0xbead095a	-0.33796197
253	0xbd0220c0	-0.031769514
254	0xbd9af34b	-0.07565936
255	0xbf193b87	-0.59856457

1.running_mean f4 [512]
0	0xbdf726ac	-0.12067923
1	0x3ba4d57e	0.005030333
2	0x3d91a468	0.07111436
3	0xba1f37bc	-0.0006073674
4	0xbcec325e	-0.02883261
5	0x3b199854	0.0023436742
6	0xbc2590f1	-0.0101053575
7	0x3d9e6633	0.07734337
8	0xbb8dc63d	-0.0043266104
9	0x3beacd00	0.007165551
10	0x3ba2e814	0.0049715135
11	0xbd8ce912	-0.06880392
12	0x3d2cc1d7	0.042177048
13	0x3d05907f	0.032608505
14	0xbd5b3441	-0.05351663
15	0xbbddcac9	-0.0067685586
16	0xbc9a5af6	-0.018842202
17	0xbbbf0206	-0.0058290986
18	0x3b9fa4c5	0.004871937
19	0xbba3791c	-0.0049888026
20	0x3c368207	0.011139399
21	0x3a844a53	0.0010092951
22	0xba4d8a73	-0.000784076
23	0xba9e7304	-0.0012088721
24	0xbc022e52	-0.007945614
25	0x3c40f051	0.011776046
26	0x3aae1807	0.0013282307
27	0xbc064b8d	-0.008196724
28	0x3c512ba1	0.01276675
29	0x3e91b227	0.28456232
30	0xbd373d07	-0.044735935
31	0x3bd9ae9a	0.0066431286
32	0x3bb8a2f6	0.005634661
33	0xbd698990	-0.057015955
34	0xbd7c0f7c	-0.061538205
35	0x3c12b483	0.00895417
36	0x3cc4f39e	0.024041947
37	0x3d2dc28f	0.042421874
38	0xbcba660c	-0.022753738
39	0x3bcc90da	0.0062428536
40	0xbba53f9b	-0.0050429828
41	0x3dc0b413	0.094093464
42	0x3cacd925	0.021099636
43	0x3f0bf57b	0.5467145
44	0xbc481a72	-0.012213336
45	0x3cd86d96	0.026419442
46	0x3d5c6c90	0.05381447
47	0x3d150963	0.036385905
48	0x3aec87ed	0.001804588
49	0xbe6a9fdb	-0.22912543
50	0x3b620039	0.0034484996
51	0x3d4bc988	0.049752742
52	0x3c123232	0.0089231
53	0xbc803a89	-0.015652912
54	0xbbce8533	-0.0063024997
55	0xbcdfe124	-0.027329035
56	0x3cb75207	0.02237798
57	0xbc8e8833	-0.01739893
58	0x3d8b6b3d	0.068075635
59	0xbd913b12	-0.07091345
60	0x3d43d0ed	0.04780667
61	0x3c2b2171	0.010444985
62	0xbd85b847	-0.06529289
63	0x3b329e48	0.0027254988
64	0x3ac01e4a	0.0014657464
65	0xbd08fb19	-0.03344259
66	0x3d897ff6	0.0671386
67	0x3d50759d	0.050893415
68	0x3aa92b7c	0.0012906636
69	0x3cf2999b	0.02961426
70	0x3c9683de	0.018373426
71	0x3d332eef	0.04374593
72	0x3c44eff9	0.012020105
73	0x3b8d2573	0.004307443
74	0xbc05f8f5	-0.008177032
75	0x3c0a1aed	0.008429271
76	0xbd7ed421	-0.06221402
77	0x3b0aea2d	0.0021196709
78	0xbc4affc0	-0.012390077
79	0xbb2129dd	-0.0024591603
80	0xbcfca227	-0.030839039
81	0x3c0cdd09	0.008597621
82	0x3d738150	0.059449494
83	0x3d9fcd56	0.078028366
84	0xbaef810e	-0.0018272714
85	0x3d1eab68	0.038737684
86	0x3bd3fd91	0.0064694365
87	0xbd33b766	-0.043876074
88	0x3e25b58a	0.16182533
89	0x3e36db47	0.17857085
90	0xbcfb9a9b	-0.03071337
91	0x3de460b8	0.1115126
92	0xbcf2a035	-0.029617408
93	0xbcb2d983	-0.021832233
94	0x3c128035	0.0089417
95	0x3a2693d8	0.0006354428
96	0x3d2cad81	0.042157654
97	0xbd032a8f	-0.03202301
98	0xbc2d7beb	-0.010588626
99	0x3dd02d45	0.101648845
100	0x3a90e9a7	0.0011055962
101	0xbb095adb	-0.0020958695
102	0x3bfdc876	0.007744844
103	0xbd6735fb	-0.056447964
104	0xbaa7061d	-0.0012742911
105	0xbc2708c8	-0.010194965
106	0x3f3274c0	0.69709396
107	0xbcf81d1e	-0.030287322
108	0x3d0269e6	0.031839274
109	0xba6a6efb	-0.0008942929
110	0x3d89430c	0.06702241
111	0xbc158129	-0.009125032
112	0x3b449412	0.0029995483
113	0x3c00cf72	0.007861959
114	0xbde5d15b	-0.11221572
115	0xbe837242	-0.2567311
116	0xbbbfbb2e	-0.005851171
117	0x3d00a026	0.03140273
118	0x3ca0893e	0.019596692
119	0x3dd884fb	0.10572239
120	0x3d452781	0.048133377
121	0x3d1492f6	0.036272965
122	0xbae9211d	-0.0017786358
123	0xbd46f632	-0.048574634
124	0xbcc9e878	-0.024646983
125	0x397f5399	0.00024349838
126	0x3be0d7f7	0.0068616825
127	0xbc61d15b	-0.013782824
128	0xbc31cf3b	-0.01085263
129	0x3c4a3f94	0.01234426
130	0x3ceae7e0	0.02867502
131	0xbbcae9b5	-0.006192411
132	0x3bb00181	0.005371273
133	0x3d7265a8	0.05917898
134	0x3c838e09	0.016058939
135	0x3cb6be34	0.022307493
136	0x3e008104	0.12549216
137	0xbc73bc18	-0.014876388
138	0xbd1ae7d0	-0.03781873
139	0x3cfcdde9	0.030867534
140	0x3df21b07	0.11821561
141	0x3caaf06b	0.020866593
142	0xbbbacb56	-0.005700509
143	0xbba799a4	-0.005114751
144	0x3c03ff22	0.008056434
145	0xbcc4e58a	-0.024035234
146	0x3b6897ee	0.0035490948
147	0xbd381bc5	-0.044948358
148	0xbf2ac09e	-0.6670016
149	0x3d533f4a	0.05157403
150	0xbc296872	-0.010339843
151	0x3cf2c520	0.029635012
152	0x3d9d258e	0.076731786
153	0xbce7ec03	-0.028310781
154	0xbd3e3bca	-0.046443738
155	0x3bc4d0b1	0.0060063233
156	0xbbf78ee4	-0.0075548757
157	0xbccee174	-0.025253989
158	0x3e2647d0	0.16238332
159	0x3ce26a98	0.027638718
160	0xbe960021	-0.29296973
161	0x3d4f99a8	0.050683647
162	0x3d295229	0.04133812
163	0x3be71daa	0.007053097
164	0x3d848907	0.064714484
165	0x3c20925e	0.009800522
166	0x3b9d6d89	0.0048043174
167	0xbd226970	-0.039651334
168	0x3bfe4d34	0.007760668
169	0x3d07ed90	0.03318554
170	0x3c0b0260	0.008484453
171	0xbba1e0a1	-0.004940108
172	0x3b0e4c92	0.002171312
173	0xbd4dd5e2	-0.050252803
174	0xbc169861	-0.009191603
175	0xbbfa7e0c	-0.0076444205
176	0x3c4519eb	0.012030105
177	0x3d235d7d	0.03988408
178	0x3c9fdd04	0.019514568
179	0xbb1ac653	-0.0023616746
180	0xbc937e3e	-0.018004533
181	0xbf0471c1	-0.51736075
182	0xbc667e24	-0.01406816
183	0x3d665828	0.056236416
184	0x3f0c42a0	0.5478916
185	0x3ba131e8	0.0049192794
186	0x3b86c591	0.004112907
187	0x3b5054ac	0.003178875
188	0xbca00513	-0.01953367
189	0x3cb7da6c	0.022443019
190	0xbb928655	-0.00447158
191	0x3bd26d6d	0.006421736
192	0x3c98e2ef	0.018662898
193	0x3d8d542e	0.069008216
194	0xbca9fb6c	-0.02074977
195	0xbbe541c3	-0.006996365
196	0x3c00ca3b	0.0078607155
197	0xba8c6f53	-0.001071433
198	0xbbca6a07	-0.00617719
199	0x3c93bd3e	0.018034574
200	0xbb34cd89	-0.0027588329
201	0x3c175d2d	0.009238523
202	0xbd1fcbf9	-0.039012883
203	0xbc6ed149	-0.014576265
204	0x3d0b61d4	0.034028843
205	0xbb133157	-0.0022459829
206	0x3b329061	0.00272467
207	0xbc08fae2	-0.008360596
208	0xbe4f2f76	-0.20232949
209	0xbcb36da6	-0.02190287
210	0xbe8a7f95	-0.27050462
211	0x3d12baee	0.0358228
212	0xbd317963	-0.043328654
213	0x3a6d988d	0.00090635644
214	0xbd13288b	-0.035927337
215	0xba8a10d2	-0.0010533577
216	0x3be67185	0.0070325756
217	0x3d14262c	0.036169216
218	0x3cc1eb0d	0.023671651
219	0xbcd6792d	-0.026180828
220	0xbc4600dc	-0.012085166
221	0xbcb0e0e1	-0.021591606
222	0xb8e18f5d	-0.000107555396
223	0x3c8b80ba	0.017029155
224	0x3c702dfd	0.014659402
225	0xbd86f0d0	-0.065889
226	0x3ecbbbe3	0.39791784
227	0x3e0e65bd	0.13905998
228	0x3c974484	0.018465288
229	0xbb948435	-0.004532362
230	0xbc37db0a	-0.011221657
231	0x3d0ee498	0.034885973
232	0x3d522897	0.05130824
233	0x3eb1796a	0.34662944
234	0xbcea4e90	-0.028601915
235	0x3c7e8347	0.015534229
236	0x3b6a3a01	0.003574014
237	0x3c7b730f	0.015347256
238	0x3c5e9ef9	0.013587707
239	0x3d0e3833	0.034721565
240	0xba1d8c3e	-0.00060099724
241	0x3ce1d6b2	0.027568195
242	0xbc394f87	-0.011310465
243	0x3c74a920	0.014932901
244	0xbb285dd2	-0.0025690687
245	0x3bd94834	0.0066309217
246	0x3e917c82	0.28415304
247	0xbde1511e	-0.110018
248	0xbc498713	-0.012300271
249	0xbc890e81	-0.016730549
250	0xbc84e42a	-0.016222078
251	0x3a2b560a	0.0006535953
252	0x3f18225b	0.5942742
253	0xbb92bbfe	-0.004477977
254	0x3bfa4edc	0.0076387953
255	0x3f3177f1	0.6932364

1.running_var f4 [512]
0	0x3ef8d08e	0.48596615
1	0x3b3de635	0.0028976325
2	0x3c144a4c	0.009050917
3	0x398b3d93	0.00026558022
4	0x3b578e08	0.0032891054
5	0x3a2eb6f0	0.0006664833
6	0x3afbbee5	0.0019206671
7	0x3b363138	0.0027800333
8	0x3a37fc45	0.0007018487
9	0x3a3e0cbb	0.0007249822
10	0x3a3095a8	0.00067361677
11	0x3c89918c	0.016793035
12	0x3a69341c	0.00088960095
13	0x3d97fa78	0.0742082
14	0x3cc771a5	0.024346182
15	0x3c0572f9	0.008145087
16	0x399e0f3a	0.00030147453
17	0x3b2f9cca	0.0026796334
18	0x3aa7b6b5	0.001279554
19	0x39f30876	0.00046354876
20	0x3b7d2ce0	0.0038631484
21	0x3aae3e46	0.0013293705
22	0x3997dd80	0.00028965995
23	0x39cdacd9	0.00039229429
24	0x3abff736	0.0014645818
25	0x3aa2fc97	0.0012434897
26	0x3a32cba5	0.00068205065
27	0x3a680707	0.0008851145
28	0x3d466b86	0.048442386
29	0x3fd556de	1.6667135
30	0x3a6f1594	0.0009120342
31	0x3986c781	0.00025707114
32	0x3c06f4e4	0.008237097
33	0x3f9af37d	1.2105557
34	0x3c60d909	0.01372362
35	0x395bbe53	0.00020956369
36	0x3a1275d0	0.00055870134
37	0x3a53019d	0.00080492516
38	0x3b905070	0.00440412
39	0x3af51005	0.0018696791
40	0x3bfaa66e	0.0076492345
41	0x3e4b9863	0.1988235
42	0x3abec1ca	0.0014553603
43	0x3f442fed	0.7663563
44	0x39aaf589	0.00032607865
45	0x3de3f272	0.11130227
46	0x3b7f4655	0.0038951833
47	0x3c0c8f8f	0.008579149
48	0x3983fa5f	0.00025172808
49	0x3df4c618	0.11951846
50	0x39476d08	0.00019018736
51	0x3b3eed9b	0.0029133323
52	0x39e69b54	0.00043984747
53	0x3a043203	0.0005042853
54	0x3bff047a	0.007782516
55	0x3b6939ca	0.0035587423
56	0x3996933c	0.00028719928
57	0x3b700bc0	0.0036628097
58	0x3e82be40	0.25535774
59	0x3c97ab70	0.018514365
60	0x3bc640fd	0.0060502277
61	0x3baf07c3	0.0053415014
62	0x3c49946c	0.012303453
63	0x3d196bda	0.03745637
64	0x3bbee32f	0.0058254222
65	0x3be66c0e	0.007031924
66	0x3f06bf5a	0.5263573
67	0x3b2694ae	0.002541821
68	0x3a25de69	0.0006327392
69	0x3db00a7f	0.08595752
70	0x3a758f3a	0.0009367351
71	0x3e0e200e	0.13879415
72	0x3a3bdcf0	0.0007166406
73	0x3d8ff5e8	0.07029325
74	0x3b24e716	0.0025162152
75	0x3c4ccf95	0.012500663
76	0x3cf13cee	0.029447999
77	0x393b2e0c	0.00017850864
78	0x3b24d576	0.0025151647
79	0x399481f0	0.0002832557
80	0x3bbfc0ee	0.0058518564
81	0x39c92fb1	0.0003837324
82	0x3d19866b	0.037481707
83	0x3de3da9c	0.11125681
84	0x3b2eee25	0.0026692238
85	0x3cadbe63	0.021208948
86	0x39eadba3	0.000447956
87	0x3b183b64	0.002322876
88	0x3f1c8518	0.61140585
89	0x3ea9fcc7	0.33200666
90	0x3f0df034	0.55444646
91	0x3e338812	0.17532375
92	0x39f4de81	0.00046705085
93	0x3a05675e	0.000508895
94	0x3a455422	0.00075274904
95	0x3a42534d	0.00074129255
96	0x39a06ea1	0.00030600003
97	0x3b2c425f	0.0026284677
98	0x3c134c93	0.008990425
99	0x3bb749b6	0.005593504
100	0x3ab326d4	0.0013668188
101	0x3ab2d1b0	0.0013642814
102	0x3a041547	0.0005038571
103	0x3f25fda0	0.64840126
104	0x39faa202	0.0004780442
105	0x3a802fc8	0.0009779865
106	0x3f219346	0.63115346
107	0x39c2f78b	0.00037186997
108	0x3b5b901d	0.0033502646
109	0x38fa4a06	0.00011934717
110	0x3c7987df	0.015230148
111	0x3985c498	0.0002551421
112	0x3c30b1a4	0.01078454
113	0x3a56cd5c	0.0008194053
114	0x3df0686d	0.11738668
115	0x3fdbd618	1.7174711
116	0x3be87a85	0.0070946836
117	0x396b22bc	0.00022424286
118	0x39de47dc	0.0004239668
119	0x3d196c1f	0.037456628
120	0x3cc6f8d8	0.02428858
121	0x3b09a31a	0.0021001757
122	0x3a0afef5	0.0005302274
123	0x3a2528b5	0.00063003163
124	0x3f1d6d07	0.6149449
125	0x3909549c	0.00013096858
126	0x3aee9a27	0.00182039
127	0x3ecd9425	0.40152088
128	0x3ba3ae4f	0.0049951444
129	0x3c66b9fd	0.014082429
130	0x3c31c392	0.01084985
131	0x393439d6	0.00017187683
132	0x3a33e457	0.00068623334
133	0x3a8fcabb	0.0010970453
134	0x3978aa5a	0.00023714584
135	0x3ca2236f	0.019792287
136	0x3c101b0d	0.008795512
137	0x3c9cde68	0.01914902
138	0x3abb38d0	0.0014283899
139	0x3cb66d1f	0.02226883
140	0x3c6f2087	0.0145951575
141	0x3acd4046	0.0015659414
142	0x392dd405	0.00016577549
143	0x39cbecdd	0.00038895654
144	0x3a516650	0.0007987963
145	0x3ab58130	0.0013847705
146	0x3bb50f84	0.0055255312
147	0x3aed4a80	0.0018103868
148	0x3fcffe87	1.624955
149	0x3ccbaacc	0.024861716
150	0x3a6345fc	0.0008669791
151	0x3b63040b	0.003463986
152	0x3e301a3f	0.17197512
153	0x3ae04338	0.0017109876
154	0x3d86afb1	0.06576479
155	0x3a1e3d42	0.000603635
156	0x3afa3cc0	0.0019091591
157	0x3a88ef8b	0.0010447366
158	0x3e081d92	0.1329253
159	0x3b83a5fd	0.00401759
160	0x3e9cf8e4	0.30658638
161	0x3b9b46cf	0.0047386657
162	0x3c2884f6	0.010285607
163	0x3a874074	0.0010318891
164	0x3bcee237	0.006313588
165	0x3a25bc9b	0.0006322355
166	0x39992886	0.00029212626
167	0x3c2b937b	0.010472174
168	0x392070df	0.00015300837
169	0x3aeef13a	0.001822985
170	0x3a5a9984	0.00083389156
171	0x3a159057	0.0005705407
172	0x3a05a543	0.0005098173
173	0x3d2c1092	0.04200799
174	0x39f6ec10	0.00047096657
175	0x3abc37cd	0.0014359892
176	0x3a6d107c	0.0009043289
177	0x3aca06bd	0.0015413385
178	0x3b124458	0.0022318568
179	0x3a18fa58	0.0005835644
180	0x3b4222a9	0.002962271
181	0x3fcac6f1	1.5841962
182	0x3b2abddf	0.0026053113
183	0x3b553cdd	0.0032537498
184	0x3f1545f0	0.5830984
185	0x397baf1a	0.00024002456
186	0x3acf260f	0.0015804189
187	0x3aa7aecf	0.0012793186
188	0x3ae43f6b	0.001741392
189	0x3b6f7355	0.003653725
190	0x3a063bfc	0.00051206327
191	0x3aaf0e27	0.0013355658
192	0x3b3541ec	0.00276577
193	0x3ce5f9be	0.028073188
194	0x3b9be3e4	0.0047573913
195	0x38724c53	5.776838e-05
196	0x3a657e89	0.0008754512
197	0x39c3c46e	0.0003733965
198	0x397073c8	0.00022931315
199	0x3b42af32	0.0029706475
200	0x3a4106c2	0.0007363373
201	0x3d011e8c	0.031523272
202	0x3a9d0dc2	0.001198225
203	0x3a4f1d41	0.00079007825
204	0x3aa3bcf2	0.0012492223
205	0x3ab11580	0.0013510436
206	0x38fb9267	0.00011995882
207	0x3abf5260	0.0014596693
208	0x3f261a30	0.6488371
209	0x3aae15a0	0.0013281591
210	0x3e9fc01b	0.31201252
211	0x3d4850d1	0.048905198
212	0x3b1e6f24	0.0024175132
213	0x3a09b775	0.00052534725
214	0x3e4d1ca0	0.20030451
215	0x39dfbf60	0.0004267646
216	0x39de2137	0.00042367887
217	0x3b944487	0.0045247707
218	0x3b545648	0.003240006
219	0x3b9878ab	0.0046530566
220	0x396a2447	0.00022329493
221	0x3c317461	0.01083097
222	0x394adf02	0.00019347298
223	0x3a7d66f2	0.0009666524
224	0x3a0cb347	0.00053672906
225	0x3c953edd	0.018218452
226	0x3fbd17ec	1.4772925
227	0x3e02986f	0.12753461
228	0x3b050471	0.0020296837
229	0x3a961c16	0.0011452462
230	0x3a61aa2e	0.00086084276
231	0x3ac01f93	0.0014657847
232	0x3c500951	0.012697534
233	0x3f2c8eef	0.674056
234	0x3b199e86	0.0023440435
235	0x3bca8b96	0.0061811907
236	0x3a8cc2f6	0.0010739255
237	0x3b69fab9	0.003570242
238	0x3cc05d2d	0.02348193
239	0x3ad60a38	0.001632995
240	0x39bb2751	0.00035696712
241	0x39e468ea	0.00043565716
242	0x3a0b7eba	0.0005321313
243	0x3b4fa347	0.0031683014
244	0x3b8c8d88	0.004289333
245	0x3f1e5980	0.61855316
246	0x4014eb02	2.3268437
247	0x3c2db17d	0.010601399
248	0x3b9adea5	0.0047262483
249	0x3ae92a91	0.0017789175
250	0x3a6b66b2	0.00089798414
251	0x3a920e4d	0.0011143178
252	0x3f341629	0.70346314
253	0x3960e50b	0.0002144763
254	0x3c8122f7	0.015763743
255	0x3f40eb6a	0.75359213

4.weight f4 [256, 512]
0	0x3db29d45	0.08721403
1	0x3b1bad75	0.0023754511
2	0x3c20baf2	0.009810196
3	0xb91902e6	-0.00014592297
4	0xbabf1a88	-0.001458005
5	0xbbb31c23	-0.0054660006
6	0xbab57426	-0.0013843819
7	0x3b534839	0.0032239093
8	0xb9866825	-0.00025636065
9	0x3a0ed09f	0.0005447957
10	0x3a6689fc	0.0008794365
11	0x3cf5f311	0.03002313
12	0xbaba20a7	-0.0014200405
13	0xbc88cea0	-0.016700089
14	0x3d0d422e	0.034486942
15	0xbb34a58a	-0.002756449
16	0xbb485d89	-0.003057333
17	0xba48fd3f	-0.0007667131
18	0xb93063e8	-0.00016821886
19	0xbb5fffec	-0.003417964
20	0xbc072194	-0.008247752
21	0xbb9f7201	-0.0048658852
22	0xbad3c886	-0.0016157783
23	0x38a7a249	7.9934085e-05
24	0xbacbcff2	-0.0015549643
25	0xbaa6af83	-0.0012717101
26	0xbb65718b	-0.0035010304
27	0xba9cf26e	-0.0011974105
28	0xbc4e953e	-0.012608824
29	0xbe849bac	-0.25900018
30	0xbb651b67	-0.003495896
31	0xbabbe1fa	-0.0014334314
32	0xba5bf738	-0.00083910255
33	0xbcdfcb0c	-0.0273185
34	0x3aabea86	0.0013116158
35	0xba86049a	-0.001022476
36	0xbabba5ac	-0.0014316342
37	0xbc617f62	-0.013763281
38	0xbb27f980	-0.0025630891
39	0xb8d2b41e	-0.0001004713
40	0xbc488de9	-0.012240865
41	0xbd9d9385	-0.07694153
42	0xbb9f569b	-0.004862619
43	0xbdadfea4	-0.084958345
44	0x3a1d6b28	0.0006005042
45	0xbcae2616	-0.021258395
46	0x3c557124	0.013027463
47	0xbbe49ac0	-0.0069764555
48	0x399795b7	0.0002891251
49	0x3e43d8dc	0.19125694
50	0x38d7c3b4	0.000102884514
51	0xbb306023	-0.002691277
52	0xb9f506ad	-0.00046735015
53	0x3acc90f8	0.0015607169
54	0xbb930f66	-0.0044879196
55	0xbc90f0a1	-0.017692866
56	0xbc1082b1	-0.008820222
57	0xbc58de05	-0.013236527
58	0x3d50f705	0.051016826
59	0xbb1a4cdf	-0.0023544354
60	0x39f5fa8c	0.00046916713
61	0xbb6d400d	-0.0036201507
62	0xbc516841	-0.012781204
63	0x3c0a0f08	0.008426435
64	0x3c1c2a6e	0.0095316
65	0xbace10e5	-0.0015721588
66	0xbe4b1466	-0.19832
67	0x3cc08a7c	0.023503534
68	0x3a5b3563	0.0008362142
69	0xbd0cf8ba	-0.03441689
70	0xbafcb9eb	-0.0019281482
71	0x3dca16d2	0.09867634
72	0x3a3c0756	0.0007172724
73	0xbd460f22	-0.048354276
74	0x3aa0900e	0.0012249963
75	0xbd408d81	-0.04700995
76	0x3a6b0493	0.000896522
77	0xbb3601bd	-0.0027772032
78	0xbb8bc3e7	-0.0042652967
79	0x3a5c6653	0.00084075815
80	0x3c148709	0.009065398
81	0xbaa571b7	-0.0012622391
82	0x3c3095ae	0.010777874
83	0xbd6c2e36	-0.057661258
84	0xb78de02e	-1.6912902e-05
85	0xbca67d4f	-0.020323424
86	0xbac949e9	-0.001535711
87	0xbb39c7e4	-0.0028347904
88	0x3ef07cdd	0.46970263
89	0x3d00c50b	0.031437915
90	0x3d0431c0	0.032274008
91	0xbd7f22ca	-0.062289037
92	0xb9f66b2f	-0.00047000634
93	0x3a518224	0.000799211
94	0xbb7f2273	-0.0038930445
95	0xbac3def5	-0.0014943766
96	0x3a82b779	0.0009972892
97	0xbb30c231	-0.0026971216
98	0x3b2bef83	0.002623529
99	0xbb87c850	-0.004143752
100	0xbb03146d	-0.0020001188
101	0xbb943835	-0.004523302
102	0xbad282e3	-0.0016060736
103	0xbf42b74b	-0.7606093
104	0xbabeefeb	-0.0014567351
105	0xba8b5684	-0.0010630642
106	0xbe10c6ad	-0.14138289
107	0xbad973a8	-0.0016590254
108	0xbc60ea78	-0.013727777
109	0x3af2f748	0.001853683
110	0xba30f694	-0.000675061
111	0x3a97df6c	0.0011586971
112	0xbbac4967	-0.0052577737
113	0xb916c485	-0.00014378324
114	0xbd7fba14	-0.062433317
115	0x3b346b09	0.0027529618
116	0x3bffab62	0.007802413
117	0xb9231247	-0.000155517
118	0xbb3d85e4	-0.0028918916
119	0xbbc66d69	-0.006055523
120	0x3b1891dc	0.0023280298
121	0xbb55ee5a	-0.003264329
122	0xb98b15ca	-0.0002652838
123	0x3a403725	0.0007332436
124	0x3babec30	0.0052466616
125	0xba01669e	-0.00049362506
126	0x3aa546bc	0.0012609581
127	0xbc4aa3ac	-0.012368124
128	0xbb00d8fd	-0.0019660585
129	0xbcb646a0	-0.022250473
130	0x3c539ed6	0.012916287
131	0xb9b57bc7	-0.00034615232
132	0xbbb57f40	-0.005538851
133	0xbbcac870	-0.006188445
134	0xbb4b2643	-0.0030998148
135	0xbc8c924c	-0.017159604
136	0xb97d6961	-0.00024167217
137	0x3c4dbf70	0.012557849
138	0xba660080	-0.0008773878
139	0xbb2fbe65	-0.0026816365
140	0xbdc08392	-0.09400095
141	0xbb265323	-0.0025379143
142	0xbaee6251	-0.001818726
143	0xbb1c1c6f	-0.0023820659
144	0xba71a066	-0.00092173216
145	0xbad7aff0	-0.0016455632
146	0xbb4fa79a	-0.0031685592
147	0x3bdf3a36	0.006812359
148	0xbf1f7cb1	-0.6229964
149	0xbc53cf9b	-0.012927915
150	0xba72c1a0	-0.000926042
151	0xbb4bbd99	-0.003108835
152	0x3d29028b	0.04126219
153	0xbbebd11a	-0.0071965577
154	0xbca5956f	-0.020212857
155	0xba1e8b2a	-0.0006047959
156	0xbb8e2eca	-0.004339074
157	0xba6281ab	-0.0008640538
158	0xbcb19fbb	-0.02168261
159	0xbbc2881a	-0.0059366347
160	0xbdab89f4	-0.08375922
161	0xbc27bb1a	-0.01023748
162	0x3b52a423	0.003214129
163	0xbb52f10a	-0.0032187128
164	0x3ba2026e	0.0049441373
165	0xba9e892d	-0.0012095325
166	0xba76511f	-0.0009396243
167	0xbc291e93	-0.010322231
168	0xba5a1e70	-0.00083205756
169	0x3b16bfe7	0.0023002566
170	0xbc0ebc03	-0.008711818
171	0x3aeaf907	0.0017926999
172	0xb9efa5d8	-0.00045709196
173	0x3c028a5d	0.007967559
174	0x3a2ad19e	0.0006516221
175	0xbb94d74f	-0.0045422683
176	0xbaf1d776	-0.0018451053
177	0xba42d481	-0.0007432178
178	0x3b191dc5	0.0023363691
179	0xbb0235cb	-0.001986849
180	0xba5acc77	-0.00083465077
181	0xbd50713b	-0.050889235
182	0xba8a0e09	-0.0010532747
183	0x3b761222	0.003754743
184	0xbc8bd8fe	-0.017071243
185	0x3a708e2b	0.0009176458
186	0x3b0796bd	0.0020689212
187	0xba78dd9f	-0.00094934733
188	0xbb7f7c63	-0.0038984052
189	0xbb7a727d	-0.0038215213
190	0x38a351a7	7.7876546e-05
191	0x3ac7fb0e	0.0015257315
192	0xbae441f4	-0.0017414675
193	0xbc7373ce	-0.014859153
194	0xbb95cb27	-0.004571337
195	0xba1383fd	-0.0005627273
196	0xbb4d4f8e	-0.0031327936
197	0x3b82750b	0.0039812378
198	0x3a1663b0	0.00057369005
199	0xbb69d5cc	-0.0035680411
200	0xbae6219e	-0.0017557626
201	0xbcac5499	-0.021036433
202	0x3acd8c3d	0.0015682053
203	0xba842225	-0.0010080977
204	0xbaf907ae	-0.0018999481
205	0xbb858d3a	-0.0040756734
206	0x3b05e544	0.0020430842
207	0xba9073d2	-0.0011020845
208	0xbe1de8f2	-0.15420893
209	0xb92114ef	-0.00015361955
210	0x3ea3bdfd	0.31980887
211	0x3b4b516d	0.0031023875
212	0x3a40ffe6	0.00073623506
213	0xba3f50fb	-0.0007298139
214	0xbbeec5e4	-0.007286774
215	0xb9fba463	-0.00047996928
216	0xbb08a924	-0.0020852769
217	0xbb38004e	-0.0028076353
218	0xb968147e	-0.00022132878
219	0xbb4b130f	-0.0030986702
220	0xbab4f184	-0.0013804887
221	0xbc7f6550	-0.01558812
222	0x3ab9e777	0.0014183362
223	0x3ab4f416	0.0013805653
224	0xbb2f38b0	-0.002673667
225	0x3c78ebb6	0.015192917
226	0xbe6a247e	-0.22865483
227	0x3c324820	0.010881454
228	0xbae2c537	-0.0017301206
229	0x39714306	0.00023008519
230	0xbb02e397	-0.001997208
231	0xbb0af7c6	-0.0021204813
232	0x3bb49cc1	0.0055118506
233	0xbc2b09e1	-0.010439367
234	0xbcd86107	-0.026413454
235	0xbaed0f7c	-0.001808628
236	0x3abfaa59	0.0014622911
237	0xbb0a2747	-0.002108054
238	0x3be9ff48	0.0071410276
239	0x38356d44	4.3255524e-05
240	0xba4f71ed	-0.00079133996
241	0x3aa20acf	0.001236284
242	0xbb05b031	-0.0020399208
243	0xbbc567b6	-0.006024326
244	0x3aa788bf	0.0012781842
245	0x3c0aaab0	0.008463547
246	0xbd483308	-0.048876792
247	0x3b0e4965	0.0021711227
248	0xbc7400c9	-0.014892765
249	0xb9db2b68	-0.00041803275
250	0xbb4d57f8	-0.003133295
251	0x3b904d53	0.004403749
252	0xbe194e9b	-0.14971392
253	0xba8f63a3	-0.0010939728
254	0xbaa166c3	-0.001231395
255	0x3dc90d87	0.09817033
