FF_models/base4_features/2023_01_27-04_25_05_PM/epoch=30059,r2=0.8836,Invalids=0.pth (torch, 556471 bytes, 14 tensors)

0.weight f4 [512, 4]
00000000: dfee 1c3f 8388 a3be 3703 2cbf f3e8 86be
00000010: c600 843d 56cb 0b3f d067 25bf 3d24 553d
00000020: 9086 dc3c 9fed bd3d f134 d5bf ffd1 d23e
00000030: 65ab 03bf 0dac fdbc 1200 fabf 93c6 48be
00000040: c114 36be a356 473f bf7f e73e 9214 463f
00000050: eb3a 4dbd 3b3e 6a3f c49c 123f 3713 813f
00000060: a841 1e3e af97 913f c2b0 b1be a308 e3be
00000070: 681c 37bf 3b96 1c3f a753 64bf 68c4 3d3e
00000080: b5ca 81bf b9ff a53e 6df1 b63e 1c7e 253e
00000090: f12b 1c3f 16f5 0e3e f3b0 88bf b297 80be
000000a0: 7473 6ebd fbb3 173f 2927 afbe 54f2 37bf
000000b0: b9fd b3be d3f0 d2bf 137c d4be 67cf 12be
000000c0: 0716 d53c b3e4 d73d 66c5 cbbf 98eb b93e
000000d0: ce86 503d fed8 113f 8067 68bf f0d2 873f
000000e0: 066c f33c 8354 cc3f fecb 303f 02c4 edbd
000000f0: 9d56 a2bd d979 bbbe 0b54 adbf a538 8dbc
00000100: 567a 263e 9ea3 c63d d9d8 16bd d873 05c1
00000110: f020 74bb 17e2 f53d eef2 ddbf 8e2d ae3e
00000120: fc4d bb3d 93b3 063f 8cfd 25bf feb9 653d
00000130: ea42 183e 3667 2c3d ec4c e13f c0bf 923f
00000140: 8f6b dd3e a0c7 acbf 3259 14be 8117 943f
00000150: 143e 203e 4615 013f bcbd ea3e 6bb9 c33f
00000160: 9fc2 dcbc 1d5d fabd 3b6d 70c0 6b37 0a3d
00000170: b2d2 57be 6225 fcbf a88c bb3e 0cbd bdbd
00000180: 3fd2 84be 015b 553f 0b5b 943f 1651 8f3e
00000190: 7d74 8bbe fef1 ed3e f5ba 593f 63d4 ab3f
000001a0: ae6c 243f 55fb 46be fe34 58bf ea97 12bf
000001b0: 9fae 863e 228d 2ebf f7f5 b0be c6a0 c03f
000001c0: 77e6 19bf 7083 9cbd e00b f3bf 6d52 26be
000001d0: 8c20 873c b50b e93c 84e2 1c3d e9e8 5fbc
000001e0: dd6b 393d c4eb f23e 02e2 763f 0818 843f
000001f0: 2c72 463b 3f79 2b3b e8d9 183d 8ace 07bc
00000200: 7cfd 94bf 453a d4bc b8d1 733f c2df 353e
00000210: 91aa dc3c 25b9 a33c 87ac 103d 748f c4bd
00000220: 0623 b33d 6d2e 063f c5e5 e33e 68ad c1bf
00000230: 750b c73d 1e02 a7bc 5b00 82bf ef75 0cbf
00000240: 4f02 1dbd 12f4 993e e23b 2740 2ceb 663e
00000250: e317 a83e 3ae8 173f e492 f63e 8afe d0bf
00000260: f9e4 4c3e 1375 103f 1eea 6bbf 9892 393b
00000270: 3e94 223f 22a1 b1bd 3d15 2abf 2d38 f1be
00000280: 068d 33be c099 843d eb41 5d40 45d1 bf3e
00000290: a119 003d 32af 203d c102 433c 0b15 4fbc
000002a0: a564 023e c232 d93d e163 5fbc 3ee2 01c1
000002b0: e6a2 22bd fa87 4b3e c12e 99bf be1b 38bf
000002c0: c72c 183f 8fe6 9a3c bc56 23be 5a83 9b3f
000002d0: cb70 623e fb98 333f 9492 0c3d acdf 59bf
000002e0: 1400 9a3c 1673 90bd ae0f 8abc 7be4 993c
000002f0: 1a4c 3dbf 1a55 8a3e 4f44 963f 4189 e53e
00000300: 19af 283d 7225 9b3e 46ac 3a40 46ce ec3e
00000310: 2c28 0e3c 81d6 4e3c 2a54 ca3c 77b9 33ba
00000320: c1b6 a03d 301c dcbe 862b 7fbf 8f5f 393f
00000330: a48d 653e 8e91 d1bf e9b1 cd3e 1d7f a63e
00000340: 211d 2bbe 92b3 013f dd41 ad3f 538c bebd
00000350: 6ea9 52bf 4da5 f63e c52b 163f e948 42be
00000360: 5807 04bf a889 3abc b54c fbbf a076 44be
00000370: 884d c7bd 832a 053e e52e 5a40 1404 a43e
00000380: 5c61 dd3d f34a f93d 5256 1fbd b730 c440
00000390: bdea 0abf 93ed df3e 04e2 06c0 62bf e13d
000003a0: eff2 b9bd 4ea1 143d 0664 c43f 8018 edbe
000003b0: 86a9 653e ed2d 01bf 2bd5 d03e acb7 a53f
000003c0: 60f2 1f3f 6c98 d43e 5b33 f43e 66e9 333f
000003d0: 4741 2bbe 07a9 6d3e 15db 8cbf 030e c3bf
000003e0: e1ec 96be 9836 8c3f 5b69 a8be 8aca cb3d
000003f0: f5ac a83e 66fb 24bd ebcc 1a3f 6f0a bcbf
0.6130199 -0.31940088 -0.67192405 -0.263496 0.0644546 0.5460714 -0.6461153 0.052036513
0.026919633 0.09273838 -1.6656781 0.4117584 -0.514334 -0.03096583 -1.9531271 -0.19607
-0.17781354 0.7786657 0.4521465 0.7737514 -0.050105017 0.91501206 0.57270455 1.0083989
0.15454733 1.1374415 -0.34705168 -0.44342527 -0.7152772 0.61166734 -0.89190143 0.18531954
-1.0139986 0.32421663 0.35731068 0.16161388 0.6100455 0.1396068 -1.0679001 -0.25115734
-0.058215573 0.59259003 -0.34209564 -0.7185414 -0.35154513 -1.6479744 -0.4150091 -0.1433693
0.02601148 0.10541668 -1.5919616 0.36312556 0.05090981 0.5697173 -0.9078293 1.0611248
0.029714596 1.5963291 0.6906127 -0.11609651 -0.079266764 -0.366164 -1.3541273 -0.017238924
0.16257605 0.09699176 -0.036827896 -8.340782 -0.0037251078 0.12006014 -1.7339761 0.3401913
0.09145734 0.5261776 -0.64840007 0.05608558 0.14869276 0.042090617 1.76016 1.1464767
0.43246123 -1.3498421 -0.1448715 1.1569673 0.15648681 0.50423086 0.4584788 1.529096
-0.026948271 -0.12224791 -3.756667 0.033744257 -0.21076468 -1.9698908 0.3663075 -0.092645735
-0.25941655 0.83341986 1.1590284 0.2799155 -0.2723731 0.46473688 0.850509 1.342419
0.6422833 -0.19431813 -0.8445586 -0.5726305 0.263051 -0.681841 -0.34562656 1.5049064
-0.60117286 -0.07642257 -1.8987999 -0.1624238 0.016495012 0.028447965 0.03830196 -0.01366637
0.045268882 0.474455 0.9643861 1.0319834 0.0030280454 0.0026164798 0.037317187 -0.008288989
-1.1639857 -0.025906691 0.9524188 0.17761138 0.026936801 0.019985745 0.035320785 -0.09597674
0.087469146 0.5241459 0.44511238 -1.5131044 0.09718982 -0.020386752 -1.0156358 -0.5486745
-0.03833228 0.30069023 2.61303 0.22550648 0.32830724 0.59338725 0.48158944 -1.6327679
0.20009221 0.5642864 -0.9215411 0.0028316136 0.6350745 -0.08673312 -0.6643866 -0.4711317
-0.17534265 0.06474638 3.4571483 0.37464347 0.03127444 0.03922958 0.011902512 -0.012639294
0.12733705 0.106053844 -0.013634653 -8.117735 -0.039706133 0.1987609 -1.1967393 -0.7191733
0.59443325 0.018908767 -0.15951055 1.214946 0.2211334 0.70155305 0.034319475 -0.8510692
0.018798865 -0.07053201 -0.01685318 0.018785706 -0.73944247 0.27018052 1.1739596 0.4483128
0.04118261 0.30302006 2.9167647 0.46251124 0.00867657 0.012624384 0.024698336 -0.00068559445
0.078473575 -0.42990255 -0.99675786 0.72411436 0.22417313 -1.6372545 0.40174797 0.32518855
-0.1671033 0.5066463 1.3535725 -0.093041085 -0.8228978 0.4817299 0.58660537 -0.18973126
-0.51573706 -0.011385359 -1.9632784 -0.19185877 -0.09731585 0.13004498 3.4091122 0.3203436
0.108095855 0.121724986 -0.03890068 6.1309466 -0.5426443 0.43735942 -2.107545 0.110228315
-0.09079539 0.036286645 1.5343025 -0.46307755 0.2242795 -0.504607 0.40787634 1.2946677
0.6247921 0.4152254 0.4769543 0.7027801 -0.1672412 0.2320901 -1.1004359 -1.5238651
-0.294776 1.0954161 -0.3289288 0.09950741 0.32944456 -0.040278815 0.6046893 -1.4690684

0.bias f4 [512]
00000000: 520e ba3d 18a6 25be 68c6 ff3d 6a76 68bf
00000010: a3e2 a8bf 72b8 b4bd c7b9 ee3e beee 5fbf
00000020: 1e40 ad3d d7ff 37bf b797 c2bf f138 f63c
00000030: e38f aabf 6566 663f 87c3 963e e7c8 a1be
00000040: 3fdd f8be 7738 233f 8e67 0bbe 8908 0bbf
00000050: 5d1a 2ebf d080 953e d4ba 82bf 62d2 a53f
00000060: 25a0 46bd a522 8bbe 7a30 adbf abb1 85bf
00000070: 8e22 84bf 8597 edbc 7b2c 39bf 7f3d 4f3c
00000080: b54f 853f 10ac abbd b81a 00bf 4b2d 1cbf
00000090: 2d7d 82be ff20 afbe 2aea 60bf f4bc babf
000000a0: d5f1 fcbe 136b 663c b6dd 253e 05e2 7cbe
000000b0: c271 c5bf 1bb5 56bf 14ad edbb 32c2 81be
000000c0: 1046 82bf 66fb c9bc 94b6 8cbf 073a 83bf
000000d0: aec4 73bf 6dde 5bbe 49cf acbf 75fe ed3e
000000e0: b97b 7bbe fb72 82bf 0b59 8a3f 7b14 d8bf
000000f0: 53d9 abbe af7f 6d3e fd8e 2abf e6d5 e6be
00000100: e25e 533e 1cc2 d73e 729b b0be f706 4dbf
00000110: 4632 9abf d0e7 b3be 5070 803f 24c0 153f
00000120: cbbc 0a3f 29d1 aebc 2e1d c4be 40cb 763f
00000130: 5571 6b3e efce 753d 696b 073e 4051 19bf
00000140: a30b d2be 9ad6 83bf 2dd6 5f3f a0d3 ac3e
00000150: ada6 9dbf 7315 30bf 13bb 72bc 8e62 33bf
00000160: 8452 33bc 04b4 64bf 63a5 2cbf a459 1bbf
00000170: 332d 84bf d660 ddbe 27c9 3dbf b318 6fbf
00000180: 7871 94bd ae9c 453c c5f8 57bd 4655 48bd
00000190: 849f fdbe c1d0 583f 71b0 29bf 4f5d 21be
000001a0: fa68 873f 8a2a 90be cdea 15be b746 623c
000001b0: 7894 99bf 2a18 f73d c401 83be 5fe9 0c3c
000001c0: 520a 313e 2f9b 3c3e 0bd9 1e3e 5601 90be
000001d0: 427c 29be a568 70be 1e47 1b3c b2b3 e9be
000001e0: 689c 24bf c1eb b33e b835 02be bbb3 c0be
000001f0: 4b17 af3d 498e c8be 0476 903f 0382 bcbe
00000200: 1ecd 8bbe ebce 44be 1167 313d 4162 8abf
00000210: 2dae 4d3f 4c8c acbf 591f 3cbf 61b1 29bd
00000220: 0e07 a63f bb8e 3fbd 2c37 7f3f 7f7d d13e
00000230: a0b5 313f 840d 5bbf 59d6 2abf 1e3d 463e
00000240: d79a 0f3f 8081 bebf 6e66 21bf ceda 13bc
00000250: e4ff d1bf 0bc9 5c3f d82a b9bf 416c 0dbc
00000260: 05ba 28bd 0796 d5be 3391 2fbd 8de2 8dbe
00000270: b422 2cbf 738d 293d c516 58bf 2fb2 9fbf
00000280: 0f09 a0be c50d f2bf b9e9 69bf 7d04 78be
00000290: 689a 403c ed28 033f 70f4 c33c fce1 03bf
000002a0: c261 a0bd ebe3 383d b345 003c 0eb4 353e
000002b0: db94 043f f353 74bf de46 533f ec5d 6fbf
000002c0: ccce 89bf 0b8c 173d bf5a 703e 70b7 25ba
000002d0: 1874 c0be f2a8 26be e51c ba3c 522c 85be
000002e0: 7e28 153d 39ae a2bf 9add 7cbe 25f4 e7be
000002f0: a6e8 96be 5cc1 0a3e 1089 c2bf 835b 86bf
00000300: 6503 afbe a803 01bf 7067 cebe cfe3 2cbf
00000310: e599 69bf c893 9e3d 800e 803d 8bfe b1bf
00000320: 02cd 33be e8f1 22bb 60f7 debe eed4 04be
00000330: 14c9 16c0 aa15 6b3e 3d8e 523e f922 67bc
00000340: 9d00 f5bf dbb6 fcbe 2dde 18bf 1c0f b7bc
00000350: eb19 09be b8f1 2ebf 4367 57bf 9246 e43e
00000360: 9628 07be 2551 a43e 49d7 af3e 0df3 22bd
00000370: 5306 c13e 6398 47bf 04f4 703c 178b 9b3e
00000380: 4a99 5abd 12e4 803c 3935 783f fad7 6abf
00000390: dba7 bebe 40cc 1abc 5849 1bbd 8da1 1bbe
000003a0: daac 38bf dfb1 78bd 1934 29bf 7801 fbbe
000003b0: 36e9 2a3e 989c b93e ca56 4dbe fbf8 9c3e
000003c0: c2d3 a6bf 1337 a9bf 650f 4dbf 150c 3bbf
000003d0: 95d5 9bbd 97d2 1fbb bd7b 2b3d 7c9e bcbf
000003e0: ad37 c7bd ffff 023d 0198 23bf 39fc b2be
000003f0: 08e6 f6be c7d5 1cbf f6b3 0cbf 5831 3f3d
0.09084763 -0.16176641 0.12489015 -0.90805686 -1.3194164 -0.08824243 0.46626112 -0.87473667
0.08459495 -0.71874756 -1.520255 0.030056449 -1.3325161 0.8999999 0.2944605 -0.3159859
-0.48606297 0.63758034 -0.13613722 -0.543099 -0.6800898 0.2919984 -1.0213265 1.2954829
-0.04849257 -0.2717487 -1.3530419 -1.0444845 -1.0323045 -0.029002914 -0.72333497 0.012648939
1.041495 -0.08382428 -0.5004077 -0.6100661 -0.25486127 -0.34204862 -0.87857306 -1.4588914
-0.49403253 0.014063614 0.16197857 -0.24695595 -1.5425341 -0.83870095 -0.0072532985 -0.25343472
-1.0177631 -0.024656009 -1.0993218 -1.0252084 -0.95221984 -0.21471567 -1.3500758 0.46483198
-0.24558915 -1.0191339 1.0808424 -1.688125 -0.33564243 0.23193239 -0.6662443 -0.45085067
0.20641664 0.4214028 -0.34493595 -0.8008875 -1.2046592 -0.35137796 1.0034275 0.5849631
0.54194325 -0.02133997 -0.38303512 0.96403885 0.22992451 0.0600118 0.13224567 -0.598896
-0.41024503 -1.0299866 0.8743618 0.33755207 -1.231649 -0.6878273 -0.01481511 -0.7007226
-0.010944966 -0.8933718 -0.6743986 -0.60683656 -1.0326294 -0.43237942 -0.7413506 -0.93397063
-0.07248205 0.012061281 -0.05272748 -0.048909448 -0.49535763 0.84693533 -0.66284853 -0.1575825
1.0578911 -0.28157455 -0.1464035 0.013810805 -1.1998434 0.12065156 -0.25587285 0.008600562
0.17289093 0.18418573 0.15512483 -0.2812602 -0.16551307 -0.23477419 0.009477405 -0.4564491
-0.64301157 0.35140803 -0.12715805 -0.37637123 0.08549365 -0.39171055 1.1286016 -0.3681794
-0.2730493 -0.19219558 0.043311182 -1.0811235 0.80343896 -1.3480315 -0.7348533 -0.041428927
1.2970903 -0.046766978 0.9969356 0.40916058 0.6941776 -0.855675 -0.6673332 0.19359252
0.5609564 -1.488327 -0.6304692 -0.009024335 -1.6406217 0.8624427 -1.44662 -0.008631767
-0.041193027 -0.41716024 -0.042863082 -0.27711907 -0.6724045 0.041394662 -0.84409744 -1.2476252
-0.3125691 -1.8910452 -0.9137226 -0.24220462 0.011755563 0.5123432 0.023920268 -0.515167
-0.07831146 0.045139235 0.007829118 0.17744467 0.51789635 -0.95440596 0.8253001 -0.9350269
-1.0766234 0.03699879 0.23472117 -0.0006321585 -0.37588573 -0.16275385 0.022718856 -0.26010376
0.03641557 -1.2709419 -0.2469391 -0.45303455 -0.29474372 0.13550323 -1.5198078 -1.0496677
-0.34182277 -0.50396204 -0.40313292 -0.6753511 -0.9125045 0.07743031 0.06252766 -1.3905805
-0.17558673 -0.0024863426 -0.43548107 -0.12971851 -2.3560228 0.22957483 0.20562072 -0.014107459
-1.9140812 -0.49358258 -0.59714013 -0.022346072 -0.13388793 -0.68337584 -0.8414194 0.4458509
-0.13199076 0.32093158 0.34343937 -0.039782573 0.37700137 -0.779669 0.014706615 0.30379555
-0.053368844 0.015733752 0.9695621 -0.91735804 -0.3723744 -0.009448111 -0.037911743 -0.15198345
-0.7213875 -0.060716506 -0.6609512 -0.49024558 0.16690525 0.36252284 -0.20052639 0.30658707
-1.3033373 -1.3219932 -0.80101615 -0.7306531 -0.07609097 -0.0024386996 0.041866053 -1.4735866
-0.09727416 0.03198242 -0.63903815 -0.34958056 -0.48222375 -0.612637 -0.549621 0.046677917

1.weight f4 [512]
00000000: 8dc0 193f e550 a63e 423e fe3e ce7d 933d
00000010: 3ac1 9f3e fceb 923e 81d6 cb3e 43a5 2d3f
00000020: b3fc 0b3f 848f 9a3e 3988 0a3f dee0 073e
00000030: b7c1 d43e 0481 e73e 2cbd 0a3f aa40 9e3e
00000040: 234d e63e 260f 013f 53e3 993e b8bf 003f
00000050: 9c6f 303f 9591 133f 0a7f b73e 65bc ea3e
00000060: 0ed0 113e bee8 633e 721e 053f 58bf 113f
00000070: 8071 523d d2b6 b73b b73f 273f 7b29 953c
00000080: adad ef3e 56e9 d43c 711b b03e 315f cf3e
00000090: 9d99 183f 4d8a e43e 85a2 c93e 4e88 0f3f
000000a0: 4ccc cb3e 2404 90ba 101f ed3e 58c8 103f
000000b0: dda6 e83e a664 be3e b1c7 a63c 0482 063f
000000c0: 821a 053f 8123 453b 0c91 7c3e 3d51 5f3e
000000d0: f300 393f c63d dd3e f9b3 993d a0bb c33e
000000e0: 033a 093f 3019 ed3e 5d98 0e3f 9dae c53e
000000f0: 4629 953e ff17 f43e 74c4 473e 1202 c73e
00000100: fbca 2d3f 32ae 9e3d 5704 073e 1808 4a3f
00000110: 2af2 383f 6820 8b3e 8ac0 0f3f 01a6 063f
00000120: 243c aa3e e83f 2d3b 2233 f13e ba8e c63e
00000130: d1a4 6b3b dc70 563f 4805 083f 271b 093f
00000140: 67f2 d33e 6aa0 a73d 34c7 233f 8e14 c83e
00000150: a786 953d c302 fa3e c250 7c3d 7ce3 fc3d
00000160: f373 a73a 350c ce3e cf4b e83e b3ff 183f
00000170: f205 0a3f d2c3 0c3f bedf f03e 8f8f b03e
00000180: 9228 ea3c 29b6 013b abb3 873d c5a0 233e
00000190: 04cc 053f 5bb1 603e 472c 6b3e bcc6 083f
000001a0: 8aa8 983e ccc2 e93e c5b3 463f d947 afba
000001b0: 4aad a63e 275d 1f3f e58c 9e3c e764 073f
000001c0: 4e53 0c3f 6f38 103f af73 063f da1b a73e
000001d0: 5d48 8c3e df67 a63e 6ced a33a 5e26 9f3e
000001e0: a8b6 bf3e 4abe 0e3f 43db 9f3d 6a10 043f
000001f0: d734 373f ad57 d03d 19f7 c33e 4a60 993e
00000200: 3624 cc3e f6e0 993e be5c 0d3f 81f9 063e
00000210: a229 e93e 1c5d 0c3f cd14 c53e fc45 b23a
00000220: 2c75 333f 2902 8c3e 5e98 8e3e 33d8 393f
00000230: fb90 ff3e 3fd6 ff3e 3419 0f3f 96c4 c63e
00000240: d04f 103f 66d1 fe3e e83a 083f d306 9bba
00000250: 4943 073f 5a28 073f dc70 103f 3522 b6b9
00000260: 8b5f ea3a 0f70 2f3f dbec 2e3f adbc 053f
00000270: 7b89 c03d 6620 e93e 15f4 073f a55a 283e
00000280: 2c0a f83e 6a9b 803e 973d 2a3f b54c 033f
00000290: 4ff0 c039 e8f6 ee3e 34d2 1abb e729 053f
000002a0: 38db 073e 0547 ec3e 4787 b13c 42ea 073f
000002b0: 6b0e 9d3e 17fa 383f 8e8b c93e 94c9 f13e
000002c0: 24f5 0f3e 8500 7d3a 014d df3e 356f ba3a
000002d0: 81f8 073f e1d1 783e 857b 033f 15fd eb3e
000002e0: 0e36 4aba a34f c63e 79b4 e53e 56fb 313c
000002f0: 4509 b53e 87ca 733e 998c 1e3f 77d5 e53e
00000300: c35f 5f3e 3e8c de3e f1d6 ce3e 65c5 2e3f
00000310: af3d 053f e13e 133d e56d cc3e 024a 273f
00000320: 787b 4e3e 3474 92b9 64ce 953d dc5d 8b3e
00000330: ca2c 0a3f d0f3 073f 7a56 143f c861 2039
00000340: c1af 053f 994d 293f 14c2 ff3e f21a ca3e
00000350: f444 d93e 870a 633e a8e7 b43e 8741 9d3e
00000360: e312 fe3e b7cd ab3e b265 133f 18cd 2f3c
00000370: f47a 8e3e f70f 933e 0a74 fd38 02d1 553e
00000380: 5737 e83e 6d37 693a 2b13 9e3e 820e a13e
00000390: 2c44 7c3d bb74 1db8 3eaf 2dbb 5760 1b3f
000003a0: c4a9 b73e 1a87 a53b 1ee5 6f3e b4b6 083f
000003b0: 63d4 f63e eaef ce3d 8918 b13e ad20 793e
000003c0: 153c 1d3f d68d 153f d9d7 8f3d a0c2 e63e
000003d0: c020 233f c89c bc3d bcab ac3b 925a 0d3f
000003e0: b597 0f3f c3d5 8eb9 a7a6 ac3e 5875 0d3f
000003f0: 3118 bd3e 3b7b 9c3e ba1f be3e 7dd4 0b3f
0.60059434 0.32483593 0.49656874 0.0720173 0.31202108 0.28695667 0.3981209 0.67830294
0.54682463 0.3018762 0.5411411 0.13269374 0.41554043 0.4521562 0.54194903 0.3090871
0.44980726 0.5041374 0.30056247 0.5029254 0.689203 0.57644016 0.3583911 0.4584686
0.14239523 0.22256753 0.5199958 0.5693259 0.051377773 0.0056065107 0.65331596 0.018208256
0.46812192 0.02599017 0.34395936 0.40502313 0.59609395 0.44636765 0.39381805 0.5606736
0.39804304 -0.0010987562 0.4631276 0.565557 0.45439807 0.37186164 0.020358892 0.5254214
0.5199357 0.0030080976 0.24664706 0.21808334 0.72267073 0.43211192 0.0750503 0.38229084
0.53604144 0.4630828 0.5570124 0.38609782 0.29133052 0.47674558 0.19508535 0.38868767
0.6788785 0.07748069 0.1318525 0.789186 0.72244513 0.27173162 0.56153166 0.5259705
0.3324901 0.0026435796 0.47109324 0.38780767 0.0035956393 0.8376596 0.5313306 0.53557056
0.41395876 0.081848934 0.63975835 0.39078182 0.073010735 0.48830232 0.061600454 0.12348077
0.0012775644 0.40243688 0.45370337 0.59765166 0.5391532 0.549863 0.47045702 0.34484527
0.028583799 0.0019792414 0.06626066 0.15979297 0.5226443 0.21942656 0.22966109 0.53428245
0.29816085 0.4565643 0.77618057 -0.0013372853 0.32554084 0.62251514 0.019354293 0.5288834
0.5481461 0.5633611 0.5252027 0.32638437 0.2739896 0.32501122 0.001250667 0.3108396
0.37444043 0.5575911 0.07805493 0.51587546 0.71565 0.10172973 0.38274458 0.29956275
0.39871377 0.30054444 0.5521964 0.13181116 0.45539576 0.54829574 0.38492432 0.0013601179
0.70100665 0.27345398 0.27850622 0.7259552 0.499153 0.49968144 0.5589783 0.38821858
0.56371784 0.49769133 0.53214884 -0.0011827595 0.52837044 0.52795947 0.5642221 -0.0003473923
0.0017881257 0.6853036 0.6833016 0.5224102 0.09401222 0.4553253 0.53106815 0.16440828
0.4844526 0.25118572 0.6650023 0.5128892 0.00036800138 0.4667275 -0.0023623826 0.5201706
0.13267219 0.46147934 0.02167095 0.53091824 0.30675063 0.72256607 0.39364284 0.47224104
0.14058357 0.00096512615 0.43613437 0.0014223816 0.5311356 0.24298812 0.5136035 0.46091524
-0.0007713743 0.38732633 0.44864252 0.010863146 0.35358635 0.23807727 0.61933285 0.44889423
0.21813874 0.4346637 0.40398362 0.6826995 0.52047247 0.035948638 0.39927593 0.653473
0.20164287 -0.00027933868 0.073147565 0.27220047 0.5397459 0.53106403 0.5794445 0.00015295215
0.52221304 0.6613403 0.49952757 0.39473683 0.4243542 0.22171985 0.3533299 0.30714056
0.49623784 0.33555385 0.5757705 0.0107300505 0.2782818 0.28723118 0.00012085594 0.20880511
0.4535472 0.0008896504 0.30874 0.3145638 0.06158845 -3.754043e-05 -0.0026502158 0.6069388
0.35871708 0.0050515058 0.23427245 0.5340378 0.48208913 0.10104354 0.3458903 0.24328871
0.614198 0.5841955 0.070235915 0.45070362 0.6372185 0.09209591 0.005269496 0.55216324
0.5609086 -0.00027243615 0.33720896 0.5525718 0.3693252 0.30562767 0.3713358 0.54621106

1.bias f4 [512]
00000000: 4473 a9bf 7480 63be 735c b8be 1be6 3a3c
00000010: c725 9dbe 02b0 82be c0bb 05bf ab88 3fbf
00000020: 77cd 6abf 288e 4cbe 1bd7 1cbf 2f4b 10bc
00000030: 9089 b6be 79b9 f8be 69ac 72bf 2145 8bbe
00000040: 79de f7be cbde bebe 286c 60be c0c1 3bbf
00000050: 28ca 8bbf 6b1f 45bf 2675 98be dc28 d3be
00000060: 5099 83bd 1476 4fbe 21c0 31bf 9fe5 36bf
00000070: 3482 403c bde8 53bc 6b50 67bf e47c 16bd
00000080: fa4f ebbe f1d3 62bd c8dc 97be adf3 b6be
00000090: 1016 44bf ee46 ddbe 03ee 96be b765 63bf
000000a0: e313 a2be 36cc 23bb 6883 f6be 309d 3ebf
000000b0: 68e1 1fbf 4d3a 9abe dbf5 2cbd e4ff 2bbf
000000c0: e3c3 09bf 2327 01bc 77a8 18be 59fe 1ebe
000000d0: 9efa 6bbf 595b 0abf 740c 993c 5817 a3be
000000e0: 34bb 20bf 5dd5 a5be 440b 2dbf 3fe9 ecbe
000000f0: 3542 b5be b676 0cbf 254a cebd bcd4 c8be
00000100: 2653 68bf adba 893c 0a46 1cbd aa92 92bf
00000110: a130 4abf 999f 93be 1755 6dbf 6923 16bf
00000120: aca2 93be fd6c e9bb 8c94 3bbf a3e0 c8be
00000130: 39ef e3bb 35ae 6dbf fa56 14bf d880 19bf
00000140: d45f b4be 5cd3 893c 7c07 40bf dcea 03bf
00000150: 4852 673c 1b58 e3be 1036 2d3c af65 32bd
00000160: 6d65 18bc 5389 a5be 2cd5 7dbf 2fb6 45bf
00000170: a6db 20bf 9e9a 3fbf 36a0 bcbe 1487 8fbe
00000180: 99cc 73bd 5c17 c9bb 7eea d3bd 19a5 9cbd
00000190: 703c 12bf e02e 12be 6017 72be af8c 3dbf
000001a0: 6fca 6abe 5e88 debe 8538 84bf 38a7 8abb
000001b0: 86bb 9ebe 8a9f 3dbf ee28 2dbd 4d65 2dbf
000001c0: 9b41 3ebf 71b4 24bf 6824 f3be 1600 96be
000001d0: d75e 41be 5d22 a5be 4c54 ffbb cf61 8dbe
000001e0: 27ea ccbe a8a8 51bf c622 16be a5ec 3ebf
000001f0: 532d 4abf d736 02bd ab0c b3be 029d 6cbe
00000200: 4001 a1be d9ef 89be 025f 27bf 17a5 73bd
00000210: 58ff cbbe 113e 3fbf f702 91be ccb5 debb
00000220: fdfa 7abf c081 35be 2da2 73be eb64 67bf
00000230: ce2a 19bf 72b4 28bf 5f0e 41bf 263e a8be
00000240: 2647 17bf 5393 28bf 1a33 06bf b3e1 60bb
00000250: 77d4 1cbf d409 20bf 8b8d 3bbf 4729 7fbb
00000260: 5656 b8bb 0a52 5dbf 942e 6dbf 11bd 30bf
00000270: aa02 76bd 59ef cbbe 0c87 20bf 5d60 a0bd
00000280: 1511 08bf 2503 4cbe ef37 58bf ff36 3dbf
00000290: 50ed 65bb b4f0 c8be 1e83 c9bb 6af8 16bf
000002a0: ef64 b3bd 212c fabe 46e8 1fbd 0834 1abf
000002b0: a49a c2be 9d06 5abf d0ae babe 9c55 05bf
000002c0: 6c2f 9ebc 239f 1fbc 9a96 79bf 2a57 a5bb
000002d0: ca99 34bf 77b8 26be 6635 2ebf ad00 d4be
000002e0: e3be 42bb d254 aabe 31b1 c0be 9555 48bd
000002f0: ff0c dcbe 4fb9 48be a459 3fbf 633a f0be
00000300: c3e0 f1bd 4cbb 14bf 03a9 a4be 0460 65bf
00000310: fd00 1bbf c4f9 d6bd e88d cbbe 17ca 50bf
00000320: 5831 debe 0362 95bb 2395 863c 5def 6abe
00000330: cac5 11bf a2ed 13bf 919b 42bf 523d 85bb
00000340: 9d32 12bf 472a 6bbf 31da 2bbf 9b6e a5be
00000350: 07d3 c4be fe34 56be daa3 91be 3772 8fbe
00000360: 1ee0 1fbf 33bd 95be 8242 3fbf 37f1 9bbc
00000370: ce45 babe a7d9 b6be 09a3 bdbb 4ba2 03be
00000380: 45ef d7be b0ee 68bb e0c7 87be d490 60be
00000390: ad86 fa3b baf4 b4ba d3ec 9abb 3e15 47bf
000003a0: 3b3f aebe 8631 6cbc 24cd 8abe a3e6 13bf
000003b0: 0730 5dbf 1685 75bc 57ad cdbe 9cbe 77be
000003c0: e706 2bbf 1d47 87bf 471f 5e3c 5d93 c6be
000003d0: e5f0 62bf 2b77 22bd 6c90 99bc 6f80 75bf
000003e0: 815d 28bf 8309 21bb 2e54 acbe 0950 5ebf
000003f0: cf9b bebe 974d 89be 9985 cdbe 9027 24bf
-1.3238301 -0.2221697 -0.36008033 0.0114074005 -0.30692884 -0.25524908 -0.5223961 -0.74817914
-0.91719764 -0.19976103 -0.61265725 -0.008806988 -0.35651827 -0.48579004 -0.9479433 -0.2720118
-0.4841192 -0.37279353 -0.21916258 -0.73342514 -1.0921068 -0.77001065 -0.29776877 -0.4124211
-0.064257264 -0.20259887 -0.6943379 -0.71444124 0.011749793 -0.012933907 -0.90357083 -0.0367402
-0.45959455 -0.055377904 -0.2966063 -0.35732785 -0.76596165 -0.43218178 -0.29478464 -0.8882708
-0.31655797 -0.0024993545 -0.4814713 -0.744586 -0.6245332 -0.30122605 -0.042226654 -0.67187333
-0.53814524 -0.007882866 -0.14908014 -0.15526713 -0.92179286 -0.54045635 0.018682696 -0.31853747
-0.6278565 -0.32389346 -0.67595315 -0.46271703 -0.35402074 -0.5486864 -0.10072736 -0.39224803
-0.90751874 0.016812647 -0.038152732 -1.1451008 -0.7898045 -0.288327 -0.9270796 -0.5864778
-0.28835046 -0.007123588 -0.7327354 -0.39233884 -0.006956008 -0.92843944 -0.57945216 -0.59962225
-0.3522936 0.016824417 -0.7501142 -0.5153024 0.0141187385 -0.44403157 0.010571972 -0.043554004
-0.009301526 -0.32331333 -0.991534 -0.77231115 -0.62835157 -0.748453 -0.3684098 -0.28032744
-0.05952129 -0.006136818 -0.1034746 -0.076486774 -0.5712347 -0.14275694 -0.2364173 -0.7404279
-0.22928785 -0.43463415 -1.0329748 -0.00423136 -0.31002444 -0.7407156 -0.04227536 -0.677327
-0.74318856 -0.6433783 -0.47488713 -0.2929694 -0.18883835 -0.3225278 -0.0077920314 -0.27613685
-0.40022394 -0.81897974 -0.14661703 -0.7457984 -0.7897541 -0.03179058 -0.34970602 -0.23106769
-0.31446266 -0.26940802 -0.65379345 -0.059483614 -0.3984325 -0.7470408 -0.28322574 -0.006796574
-0.9803923 -0.17725277 -0.23792334 -0.90388364 -0.5983094 -0.6590034 -0.75412554 -0.32859915
-0.5909294 -0.658498 -0.52421725 -0.0034314215 -0.61261696 -0.62514997 -0.7326285 -0.0038934515
-0.0056255264 -0.86453307 -0.926492 -0.6903849 -0.060061134 -0.39831045 -0.62706065 -0.0783088
-0.53151065 -0.19923075 -0.8446035 -0.7391204 -0.0035084076 -0.39246142 -0.0061496636 -0.589728
-0.08759486 -0.48861793 -0.039039873 -0.60235643 -0.38008606 -0.8516634 -0.36461496 -0.52083755
-0.019309722 -0.009742531 -0.97495425 -0.005045791 -0.70547163 -0.16281305 -0.6805023 -0.41406766
-0.0029715828 -0.33267838 -0.37635186 -0.048909742 -0.42978665 -0.1960194 -0.74746156 -0.46919546
-0.11810448 -0.5809829 -0.32160196 -0.89599633 -0.60548383 -0.10496858 -0.39756703 -0.81558365
-0.4339702 -0.004558803 0.016428536 -0.22942872 -0.5694243 -0.57784474 -0.76018625 -0.004066148
-0.5710848 -0.91861385 -0.6712981 -0.32310948 -0.3844225 -0.20918652 -0.2844532 -0.28016827
-0.6245135 -0.2924591 -0.7471086 -0.019035919 -0.36381382 -0.3571293 -0.0057872576 -0.12854879
-0.42174736 -0.003554266 -0.2651968 -0.21930248 0.007645449 -0.0013805844 -0.0047279387 -0.7776679
-0.34032616 -0.014416104 -0.27109635 -0.577738 -0.8640141 -0.014985343 -0.4017131 -0.24193805
-0.6680741 -1.0568577 0.013557262 -0.38784304 -0.88648826 -0.03966443 -0.018745624 -0.958991
-0.65767676 -0.002457232 -0.33657974 -0.86840874 -0.37228248 -0.2681701 -0.4014099 -0.6412287

1.running_mean f4 [512]
00000000: f35f b93d db9b 1fbe 8614 f83d 9618 66bf
00000010: 347e a7bf c627 f9bd 7f72 ec3e 1d1b 5dbf
00000020: 682f 853d 5175 3dbf 0203 c4bf 8b40 d83c
00000030: ea8c abbf 2300 663f f5c9 913e d77a 9cbe
00000040: d4da fdbe ad39 1e3f fe5a 05be c454 09bf
00000050: d7e0 32bf ff30 893e 84e6 81bf dafd a83f
00000060: 2930 68bd 7fd0 88be ae48 b1bf ff29 89bf
00000070: 32fd 85bf 4ece edbc 13c9 43bf 4c6d 4f3c
00000080: ea08 863f a7d3 abbd 8ab7 02bf 3b22 1fbf
00000090: 3715 81be 9582 b2be ec8e 5ebf fee0 bcbf
000000a0: 1b44 02bf 37a0 663c 8cc1 2d3e 7eee 7bbe
000000b0: 3b43 c5bf 1a95 5bbf e4e3 edbb 67e6 5fbe
000000c0: d596 82bf fa29 cabc e900 8cbf 13ff 81bf
000000d0: 5f23 71bf 69cc 5dbe 8945 adbf b8e0 e23e
000000e0: a856 8dbe 7d60 82bf 0719 8a3f f0a8 d6bf
000000f0: 20c2 aebe 269b 653e 9af5 2abf 90f7 dfbe
00000100: 11be 513e 6c12 d53e 56b8 b0be bcc4 4cbf
00000110: 6704 9abf 09b6 afbe 2478 7e3f dbfb 183f
00000120: b94e 0a3f 79f9 aebc 3e91 bebe dbaf 7e3f
00000130: a0a7 6b3e 4a3d 433d 1ad3 213e e15b 1bbf
00000140: 007b cdbe 8fe4 82bf d13e 573f 94de b13e
00000150: d616 9fbf 8bef 2ebf b988 eebc bda7 33bf
00000160: e07b 33bc 6ded 61bf 5c36 2ebf 8182 18bf
00000170: ad94 83bf b9f0 d6be 787a 43bf 8760 70bf
00000180: b393 94bd 41ca 453c 932a 58bd fb8c 17bd
00000190: 816d f9be 7a00 573f cfa2 26bf 488e 26be
000001a0: 6dcd 823f 48cd 97be 9850 1bbe e57a 623c
000001b0: 5011 9abf 9496 e83d f91f 83be 8b26 ce3b
000001c0: 1c58 413e 9efb 2e3e 944c 203e b814 9bbe
000001d0: 5dc6 15be 42d0 76be ed6a 1b3c 46af eebe
000001e0: 0c84 2cbf 9d08 b93e c153 02be b769 bbbe
000001f0: af5a b33d 0782 cdbe 083b 903f 9bfc bcbe
00000200: 4778 7bbe d62e 36be 36ab 363d c87c 8bbf
00000210: b225 503f 20f0 abbf 543e 38bf 84d8 29bd
00000220: 61d9 a43f 54c9 1dbd 777c 7e3f e5a9 c53e
00000230: db78 353f a8c0 5abf ec0d 2abf c204 3f3e
00000240: c1b6 123f 44bc bcbf ac13 20bf e5fc 13bc
00000250: 11fb cfbf c284 593f cb51 bbbf de8c 0dbc
00000260: efe0 28bd ab0d cebe 8faf d1bc 9af1 8ebe
00000270: 4b58 29bf 3538 553d aa39 57bf af4f 9ebf
00000280: 4dbc 99be 9ac1 f1bf f990 6bbf c405 78be
00000290: d3c6 403c a1aa f63e a221 c43c 3daa 03bf
000002a0: aef7 a6bd bf00 0c3d 4863 003c 4417 253e
000002b0: 85d9 063f 8466 73bf 5ba8 553f d9e7 74bf
000002c0: 20bf 8bbf ffae 173d 03b4 693e afdd 25ba
000002d0: 928f bebe 1bf1 3abe da36 0d3d 33e2 82be
000002e0: e54a 153d 58b4 a0bf c571 84be a329 e8be
000002f0: 6393 98be 2f1f 093e 76d1 bfbf c681 85bf
00000300: bcb5 b1be c74d 03bf 184f cabe 5a51 2abf
00000310: 0009 64bf 5ab8 9e3d 85a0 893d 58d9 b1bf
00000320: 7bf6 33be 7d17 23bb 93af e3be 6792 11be
00000330: 5ef8 17c0 6a3e 6a3e 3e08 433e 4758 67bc
00000340: 6dbc f3bf 2958 fcbe c9db 1bbf 2a34 74bc
00000350: a3ab 11be 58fc 2abf 9d14 56bf 2975 dc3e
00000360: 8874 0cbe 1e8e a83e 0d0a b13e a118 23bd
00000370: 9553 c13e c7f1 3bbf 972b 713c 2f37 ab3e
00000380: 7629 28bd cc01 813c 27a1 7e3f 0bfc 6abf
00000390: a3a2 b2be f3ef 1abc 296d 1bbd 78da 20be
000003a0: 3838 3abf 39eb 78bd 2cc7 25bf 5804 f5be
000003b0: f8be 283e 7bc7 b63e 9a1b 43be 1eae 9b3e
000003c0: 3dee a4bf e059 aabf 7959 4bbf f77a 39bf
000003d0: 0e1c b3bd d70a d63b 49a3 2b3d a9b0 babf
000003e0: f627 e0bd 371e 033d ebd3 1fbf 7aad b0be
000003f0: 0699 f5be c57e 1fbf e847 0ebf d172 f83c
0.09051504 -0.15586798 0.121132895 -0.89881265 -1.3085389 -0.12165789 0.46181104 -0.86369497
0.06503183 -0.74007136 -1.5313418 0.026397964 -1.3402379 0.8984396 0.28474393 -0.3056247
-0.49581015 0.61806756 -0.13022992 -0.5364497 -0.6987433 0.26795194 -1.0148473 1.3202469
-0.056686554 -0.2672157 -1.3850305 -1.0715941 -1.0467894 -0.029029038 -0.7647869 0.012660336
1.047147 -0.08389979 -0.5106131 -0.62161607 -0.25211498 -0.3486525 -0.8693683 -1.4756162
-0.5088517 0.014076284 0.16968364 -0.24602696 -1.5411142 -0.85774386 -0.0072598327 -0.21865235
-1.020228 -0.02467822 -1.0937778 -1.0155967 -0.94194597 -0.21660008 -1.3536845 0.44312072
-0.27605176 -1.0185696 1.0788888 -1.6770306 -0.3413248 0.22422466 -0.6678101 -0.43743563
0.20482661 0.41615617 -0.34515637 -0.7998769 -1.2032593 -0.3431857 0.9940207 0.597593
0.5402637 -0.021359192 -0.37220186 0.99487084 0.23013163 0.04766587 0.15803185 -0.6068707
-0.40132904 -1.0226 0.84080225 0.34740126 -1.2428844 -0.68334264 -0.029117929 -0.70177823
-0.010954827 -0.8825291 -0.68051696 -0.59574133 -1.0279747 -0.41980532 -0.7635875 -0.9389729
-0.07254734 0.012072147 -0.052774977 -0.036999684 -0.48716357 0.839851 -0.65092176 -0.16265213
1.0218941 -0.29648805 -0.15167463 0.013823246 -1.2036533 0.113568455 -0.2561033 0.006291216
0.18881267 0.17088172 0.15654212 -0.30289245 -0.14626451 -0.24102882 0.009485942 -0.46618098
-0.6738899 0.36139384 -0.12727262 -0.36604092 0.08757531 -0.40138265 1.1268015 -0.36911473
-0.24557601 -0.17791304 0.044596873 -1.0897455 0.8130752 -1.3432655 -0.71970105 -0.04146625
1.2878839 -0.03852208 0.9940867 0.38606182 0.70887536 -0.8545022 -0.66427493 0.18654159
0.5731011 -1.4744954 -0.62530017 -0.009032463 -1.6248494 0.849682 -1.4634336 -0.008639542
-0.04123014 -0.40244803 -0.025596408 -0.27918702 -0.6615035 0.052055556 -0.84072363 -1.2368068
-0.30026475 -1.8887208 -0.92018086 -0.2422095 0.011766153 0.48177055 0.023941819 -0.5143164
-0.0815271 0.0341804 0.0078361705 0.16122156 0.5267566 -0.950783 0.83460015 -0.9566627
-1.0917702 0.037032124 0.22822575 -0.0006327284 -0.3721891 -0.18256037 0.03447614 -0.255632
0.036448378 -1.2555037 -0.2586805 -0.45344266 -0.29799947 0.13390802 -1.4985797 -1.0430229
-0.34708965 -0.51290554 -0.3951347 -0.6653038 -0.8907623 0.07750006 0.0672007 -1.3894453
-0.17574494 -0.0024885826 -0.4446989 -0.14216004 -2.3745341 0.22875372 0.19046113 -0.014120168
-1.9041878 -0.4928601 -0.6088224 -0.014905015 -0.1422563 -0.66791296 -0.83625203 0.43058136
-0.13716328 0.32920927 0.3457798 -0.03981841 0.3775908 -0.734158 0.014719865 0.3344054
-0.041055165 0.015747927 0.9946465 -0.9179084 -0.34889707 -0.009456622 -0.0379459 -0.15708339
-0.72742033 -0.0607712 -0.6475704 -0.47854877 0.16479099 0.35699067 -0.19053498 0.30406278
-1.2885205 -1.3308678 -0.794334 -0.72453254 -0.087455854 0.006532054 0.041903768 -1.4585162
-0.10945122 0.032011237 -0.62432736 -0.34507352 -0.4796831 -0.6230281 -0.5557847 0.030328186

1.running_var f4 [512]
00000000: 6b28 003f 9f71 213f b8a4 3940 82ae a340
00000010: bc2c a13f bc7d 0540 6693 cd3f 0611 fe3f
00000020: 316b 473f c4e6 6a3f a321 843f d512 5e40
00000030: fff3 2540 c71a 0640 bb59 5440 7335 0c40
00000040: ee55 8a42 18d5 4240 0d6f 1b3f 9400 9840
00000050: 7973 6340 b2d9 3e40 6f1b 6641 2464 7d40
00000060: 1f22 fc3f 689a 1840 15ff 4c3f 9772 4740
00000070: de8f a440 a51c 6f3b f917 1340 05be d13a
00000080: 43ab 973f e337 443c 4478 3a40 5c92 9b3f
00000090: ae59 dd40 9069 6240 e3f2 7a3f 134a 093f
000000a0: 7bb4 3a41 ab63 6a3b 6457 8442 6c93 0040
000000b0: f5ad 0340 2b99 aa3f c2da bc3b d45b 9a3f
000000c0: e48c 1041 cf76 953a 5e45 e33f fa45 3c40
000000d0: 535a 0340 0f9f 523f ffd8 a440 8f5c 3841
000000e0: f29c 1742 93b3 b640 c006 1f40 c0ab 1740
000000f0: 49f4 ea3f bf8f 7940 a9ea a43f 9d06 2640
00000100: 3f3b 0940 4e15 ac40 e9d3 a03f d297 df3f
00000110: 438b 8b40 a16f 8940 4b61 d73f 9b4b ca3f
00000120: 2067 0840 1fbd 903c 1494 4a40 97b5 aa40
00000130: bfdb d43e 5b28 5240 a387 7c40 80bc cc3f
00000140: 0b66 4840 cafe a240 c25e 9e3f c4d0 c63f
00000150: c0b2 a640 ca2d 1e40 4df7 9c40 3cd7 a13f
00000160: 27c4 7c3b 7614 3541 da6d 0840 f472 0740
00000170: 9ff3 5740 a9d7 833f 00c2 f33f 647f 0a41
00000180: 3425 923e cd98 163c 46cf 393c 24a8 0140
00000190: 3ada 5840 9ba3 4440 e952 953f 5cde 823f
000001a0: 5a7d 0840 e0a8 0e40 beab cf3f f15f 323b
000001b0: a3a6 983f 2c66 0941 fae4 853e 3411 9240
000001c0: 6cb6 2f40 0ce2 3b40 2f77 bd41 9339 893f
000001d0: 0d0c 303f 125d 9e3f 1f76 8d3b 4d8f 0940
000001e0: 8de3 2a40 3579 3c40 8c24 933d b536 ed40
000001f0: edf0 1a41 b88e 8840 3184 f93f de73 0640
00000200: 0abf 3a41 2838 0240 6d9d 1e40 5ba9 a53f
00000210: fd89 eb40 4e4e ce40 c6ce 803f 81d8 8f3e
00000220: 9312 0740 80e8 4b3f ff7e 8e41 5f6d ea3f
00000230: 7a8a 3c40 093e 9140 3bea dd40 68ac 3741
00000240: 954d 2340 8ad0 2840 89af ca3f 633c aa3a
00000250: 35d5 6142 a3aa 3640 5b09 1a40 d09a 593b
00000260: 4767 1c3c b2cb 0040 c5dc 2440 ac8f 953f
00000270: 81c7 8840 9716 d23f b704 6d40 3eaf f63f
00000280: fa0f 3340 e0f1 df3f ffed ad3f 2280 3b40
00000290: c893 0b3b 5bec af3f 9d60 803b c9f3 7840
000002a0: c11d 0840 1d19 7e42 a48b 8e3b 4ad3 c63f
000002b0: aac2 973f e6c7 2840 0fa9 dd3f ba3e 6340
000002c0: 5b39 2f40 8f2e 703c 93f5 0a40 f1c8 683a
000002d0: a58e 443f bd74 6b3f 4ff3 9740 7c54 883f
000002e0: 75b3 3d3b 01bf 3541 60f0 3140 9227 8e3f
000002f0: 1400 3740 49ac 1840 b9c9 e73f d2ae 8c42
00000300: 9eb2 1e40 d4e5 9e3f 3c91 3441 30a4 3140
00000310: d38c c33f ffac 713e 49ab 2340 3a4a 4040
00000320: 1be6 123f 3224 ad3b a259 a640 3d4e 3540
00000330: 3c47 cd3f 081f 5540 c53e 4840 34f7 9d3b
00000340: 3dc0 5340 54c5 a63f 3e00 9d40 5457 3b41
00000350: 3efa 0740 b5fe 8e3f 0290 5c40 c154 af3f
00000360: 7ba0 c33f 9d0f ec40 afb2 b040 e48e 043e
00000370: 51a8 ef3f 8a34 f43f 1cf8 183b 2604 c03f
00000380: 6692 843f 07b8 1a3a eeeb a93f 1bb6 213f
00000390: 874a a840 b7bd 223b ca40 8e3b 6de8 4440
000003a0: 40ce f33f e0fe 5f3c 95f0 4940 0e11 5c40
000003b0: 2929 723f 82a7 6c40 68f6 2440 21b9 9040
000003c0: 28a9 0240 4e17 ad3f 150e a040 2337 d03f
000003d0: 8280 4a40 39dd 8f40 cb53 643b db6e 153f
000003e0: a621 1b40 2940 4a3b 7175 a93f 9f00 0241
000003f0: 233f b63f 05e5 0940 4b0a 3a40 1176 5942
0.5006167 0.63064 2.9006786 5.115052 1.2591777 2.0857992 1.6060607 1.9848945
0.77897936 0.9175837 1.0322765 3.4698994 2.5930173 2.0953844 3.3179767 2.1907623
69.16783 3.0442562 0.60716325 4.7500706 3.553923 2.982037 14.381698 3.959237
1.9697913 2.3844242 0.80076724 3.116369 5.142562 0.003648558 2.2983382 0.0016002065
1.184914 0.011976215 2.9135904 1.215404 6.917197 3.537693 0.98026866 0.53628653
11.669063 0.0035764973 66.170685 2.008998 2.0574925 1.3327993 0.0057633827 1.2059274
9.034397 0.0011403206 1.7755544 2.941771 2.052388 0.82273954 5.151489 11.522597
37.903267 5.7094207 2.484787 2.3698578 1.83558 3.8993986 1.2884113 2.5941536
2.144241 5.3776007 1.256467 1.7468207 4.3607497 4.2948766 1.6826566 1.5804323
2.1312943 0.017668305 3.165288 5.3346667 0.41573903 3.283713 3.9457786 1.5995026
3.1312282 5.093602 1.2372668 1.553246 5.20932 2.4715447 4.905188 1.2643809
0.0038569064 11.317495 2.1317048 2.1163912 3.3742445 1.0300189 1.9043579 8.656101
0.2854401 0.009191704 0.011340922 2.0258875 3.3883195 3.0724857 1.1665927 1.0224109
2.1326509 2.2290573 1.6224287 0.002721783 1.1925853 8.587444 0.26151258 4.5646
2.7455091 2.9356718 23.683195 1.0720695 0.6876839 1.2372153 0.0043170596 2.1493714
2.6701386 2.944898 0.07184705 7.412928 9.68382 4.2674217 1.9493467 2.100822
11.67164 2.0346775 2.4783585 1.2942308 7.3605943 6.4470587 1.0063102 0.28094867
2.1105087 0.7965164 17.81201 1.8314627 2.945952 4.5388227 6.9348426 11.479591
2.5516102 2.6377282 1.5834819 0.0012987967 56.45821 2.8541648 2.406821 0.0033203848
0.009546108 2.0124326 2.5759747 1.168447 4.2743535 1.6413144 3.7034128 1.927223
2.7978501 1.7495689 1.3588256 2.9296956 0.0021297801 1.3744005 0.003917767 3.8898795
2.126816 63.524525 0.0043501426 1.553323 1.1856282 2.6372008 1.7317218 3.5507035
2.7378757 0.014659538 2.1712387 0.000888004 0.7678016 0.91975003 4.7484508 1.0650783
0.0028946076 11.359132 2.7802963 1.1105826 2.8593798 2.3855155 1.8108436 70.341446
2.479652 1.2413888 11.285458 2.7756462 1.5277351 0.23601149 2.5573294 3.0045304
0.57382363 0.005283856 5.1984415 2.8329003 1.6037364 3.330019 3.1288311 0.0048207287
3.3086083 1.302897 4.9062796 11.70882 2.1246486 1.117148 3.4462895 1.369774
1.528335 7.376906 5.521812 0.12945133 1.8723241 1.9078534 0.0023341244 1.5001266
1.0357177 0.0005902056 1.3275125 0.63168496 5.2590976 0.0024832317 0.0043412196 3.0766861
1.9047318 0.013671607 3.155309 3.438541 0.94594055 3.6977239 2.5775394 4.5225987
2.0415745 1.3522737 5.001719 1.6266826 3.1640935 4.4957547 0.0034839984 0.5837228
2.4239287 0.0030860996 1.3238965 8.125152 1.4238018 2.1546032 2.9068782 54.3653

4.weight f4 [256, 512]
00000000: 5329 f03e 22b2 3c3c 0dc0 e8bd 8b6b 733e
00000010: 07d9 abbf 6948 34bf 8c3a eabb 80c2 c73f
00000020: 3a2b 4ebe 94df 6b3e f1d5 463e 35b1 413d
00000030: feab dabe 664f c33e d23d 9c3f f400 5e3d
00000040: 4cd0 623e dad6 3abe 6279 223e 631d 013f
00000050: dd9f cfbf c6d1 65bf 2afb 0fbd 3b1f 9abe
00000060: 4852 69bf ac04 4b3e 7810 033f 7318 183f
00000070: da74 333e e48e 5fbd d0a4 133f 072e 01b9
00000080: b45e 803f 5b8c e13c da68 2bbe 73e4 ff3d
00000090: f9dc ce3e a326 4ebd 797a a0bc c39a 2b40
000000a0: 58a0 62be 036c 3abd 1d7e b1bc 9170 9abf
000000b0: b4fe 89bf af18 19be cbb4 183b 0003 913e
000000c0: ae48 e53e d54e 17bd 16a2 4b3e 41a2 91be
000000d0: 8004 813f 46f2 1d3d 726a 4b3e 0aee 60be
000000e0: 68dc f93d dc6c 2fbf a0f6 b13e 7147 eb3d
000000f0: 4c8b ccbe c578 3bbe 15f5 203e 5367 523e
00000100: d260 563c 7bbb 1c3e 9657 84bb 9ac1 7e40
00000110: 64f1 65c0 84a7 09bf e16d 75bf 579e d3bd
00000120: 5235 5cbe 19db 6abe 1f36 4f3f 1e09 5b3e
00000130: 50aa e53d 0dca a83c 014d 0c3f 1f36 e13c
00000140: 049c cebe d177 7c3e 992c 2f3d 680b afbc
00000150: b6ea c03c 99a5 e8be e1dd ae3d d986 bbbc
00000160: 2d69 73bb b73d 02be 7d4f 073f 0cc6 c3be
00000170: 556b 51bd 7609 7a3f 8e97 4ebe 8aff 8ebc
00000180: 89cb 8abd fdb3 f9bd c64b f4bb 7603 8cbf
00000190: 524b 223f 63fd bebe aba2 f0bf 6204 8a3f
000001a0: d03b 03bf 5529 343e 9555 26c0 03bd ccbc
000001b0: 9bb1 7bbe ade9 c8be 20e9 823e 277b 203e
000001c0: 9bd9 113e 3793 933e d63a a7be f83d df3e
000001d0: 8eda a7bc 8695 343b 21c3 f8bc 19f4 f53c
000001e0: 6c1b b93e b501 0bbf bdcd 003e a182 47be
000001f0: 77e4 e63f 8ec7 bec0 50bf 873d fbbc dabe
00000200: dff5 8fbe 0bb0 f8be 882e 973e b7e8 ffbd
00000210: 095d 1e3d aa08 5d3f 1e2d e9bd 08ed e83d
00000220: d8d1 9c3f 08ff 6e3d c805 283e c345 593f
00000230: 510c ccba 0fdb bfbc 017f 613f e88b acbe
00000240: 3a90 b7bd 66f2 b0c0 fe4d 6fbe 6f2f 33bb
00000250: 293f e03d 6420 6ebd b498 0140 8216 a13b
00000260: 3e36 0bbe ce9c d23e f64d b8bf 545b c73e
00000270: 77ce a2c0 73fd 09bc c12f 053e 7c5e 83bf
00000280: 5249 1fbe e6e0 dabe ce96 fa3f 50fc c73d
00000290: f201 b13b 4dee 0dbd 29cf 96bc 78d0 343f
000002a0: 669e efbd eaf4 ac3d 8cdd 3c3c da50 17be
000002b0: 600c 9c3d decf a43e 9812 b73e a8b1 66bd
000002c0: 65bb e43e e362 bdbc 6fa0 43bd 4315 95bc
000002d0: ade5 903e b1ad b23a cbd7 16bd 0c9c c4be
000002e0: 0360 09bc b11a 8bbe bbf9 9fbe 6fd4 09c0
000002f0: 4ffc 9fbf a72f d93c 7e5e 64bf ac40 be39
00000300: f578 32bd bc36 033f 51c2 7cbe 4aa1 913f
00000310: c616 09be 4e4f ff3d 3b3d 713e f7f8 f9be
00000320: 9bcc 2abe 1edd 8abc b24d 5e3e 55e4 fe3d
00000330: 8c8f 3f3d 20b0 3d3f 509f 313d 0b75 acbc
00000340: 040f 453f c0bd b3bf 3c10 6d3c 9b10 24be
00000350: 388d 03c0 3471 d9bf 9ecf 6f3b 8ceb 013f
00000360: 6e7a 673d a8e2 1fbe 6229 23bb 909d de3c
00000370: 6a13 6abe f4a1 18bf 3ada 363b b872 47bd
00000380: 4c32 d0be 49ed cabc 53e4 e53e 7c82 7e3d
00000390: e2ee 12be 3113 39bd 469b 63bc 05e8 3040
000003a0: 1e17 273d 81f7 513c 10c0 1fbf d750 563f
000003b0: 7055 ea3d 71b0 c03d 2868 94bf b38d b7bf
000003c0: 79b3 89be 2240 a5c0 48a7 1ebe 4e97 4fbe
000003d0: e732 2bbf 6c8b b1c0 be1d 14bd e0f4 563f
000003e0: 6fb4 8d3e 2462 8b3b 5f0c 83be 98c1 0840
000003f0: c2f8 15c0 5211 403d eb3d 1abf 7578 37bd
0.46906528 0.01151708 -0.11364756 0.23771493 -1.3425606 -0.7042299 -0.0071480926 1.5606232
-0.20133677 0.23034507 0.1941755 0.04728814 -0.42709345 0.38146514 1.2206366 0.054200128
0.22149771 -0.18246022 0.15866616 0.50435466 -1.6220661 -0.89773214 -0.035151638 -0.30101952
-0.91141176 0.19826001 0.51197004 0.59412307 0.17525044 -0.05457963 0.5767336 -0.00012319545
1.0028901 0.027532747 -0.16739216 0.12494745 0.40402964 -0.050329816 -0.01958965 2.681321
-0.22131479 -0.045513164 -0.02166658 -1.2065603 -1.0780854 -0.14950822 0.002330112 0.283226
0.44782013 -0.036940414 0.1988605 -0.28444102 1.0079498 0.038561128 0.19864824 -0.21965805
0.12200242 -0.6852548 0.34758472 0.11488236 -0.39950025 -0.18307789 0.15718491 0.20547228
0.013084607 0.15305893 -0.0040387614 3.9805665 -3.5928583 -0.53771234 -0.95870787 -0.10332935
-0.21504715 -0.22935142 0.8094196 0.21390197 0.11214125 0.020604158 0.54805 0.027491627
-0.40353405 0.24655081 0.04276714 -0.021367744 0.023549419 -0.4543884 0.08538414 -0.022891449
-0.0037141547 -0.12718855 0.52855664 -0.38237035 -0.05112775 0.97670686 -0.20175001 -0.017455835
-0.067771025 -0.12192533 -0.007455322 -1.0938556 0.6339618 -0.37302694 -1.8799642 1.0782588
-0.5126314 0.17593892 -2.5989735 -0.024992472 -0.2457947 -0.3924078 0.25568485 0.15671979
0.14243166 0.28823254 -0.32662076 0.43601966 -0.020489957 0.0027554943 -0.030366482 0.030023621
0.36153734 -0.5429948 0.12578483 -0.19483425 1.8038472 -5.9618597 0.06628287 -0.42722306
-0.28117272 -0.4857181 0.29527688 -0.12495559 0.038662944 0.86341345 -0.113855585 0.11373335
1.2251539 0.058348686 0.16408455 0.8487207 -0.0015567635 -0.023419885 0.8808442 -0.3370049
-0.08963056 -5.5295897 -0.23369595 -0.0027341505 0.10949547 -0.05813636 2.0249453 0.004916013
-0.1359491 0.41135257 -1.4398792 0.38936865 -5.087703 -0.008422243 0.13006498 -1.0263209
-0.15555313 -0.4274971 1.9577272 0.09764922 0.005401843 -0.03465109 -0.018409329 0.706306
-0.11700134 0.08445151 0.01152743 -0.14776936 0.07619548 0.3218984 0.35756373 -0.05632177
0.4467422 -0.023118442 -0.047760423 -0.018198615 0.2830023 0.0013632086 -0.03682689 -0.38400304
-0.008384707 -0.271688 -0.31245217 -2.153591 -1.2498873 0.02651198 -0.89206684 0.00036287808
-0.043572385 0.51255393 -0.24683501 1.1377347 -0.13387594 0.12466298 0.23558514 -0.48822758
-0.16679613 -0.01695114 0.21709326 0.12445895 0.046767756 0.7409687 0.043364823 -0.021051904
0.7697604 -1.4042282 0.014469203 -0.1602196 -2.0554943 -1.6987672 0.0036592255 0.5075004
0.056513242 -0.15613806 -0.0024896492 0.027174741 -0.22858968 -0.5962212 0.002790107 -0.04869339
-0.40663373 -0.02477135 0.4490076 0.06213616 -0.14348939 -0.045184318 -0.013892001 2.7641613
0.04079353 0.012815357 -0.6240244 0.837171 0.11442077 0.094086535 -1.1594286 -1.4340118
-0.2689474 -5.1640787 -0.154935 -0.20272562 -0.66874546 -5.5482693 -0.036161177 0.839674
0.27676722 0.0042536426 -0.25595376 2.136816 -2.343308 0.046891518 -0.6025073 -0.04479261

4.bias f4 [256]
00000000: 6e53 e93e bedd c7be 11de af3e faa0 a53e
00000010: 4a6b a6bf 6fd5 eabe 58d1 2a3e b4cc 50bd
00000020: b05f 7e3f d01c 67bf d927 15bf 3760 513e
00000030: 8447 0f3c 7ae8 aa3d 7503 bd40 faeb b43e
00000040: bb6f 75bf 951a 5c3f 566d 2c3f 98c8 193f
00000050: 38c1 03bf ac7f cebe 91d3 f4bd 1a63 c23e
00000060: 9768 dbbd 42f7 243f 5954 c3be ec12 c43c
00000070: 3b54 0cbf 7d4d 63bf 9e25 f5be e39c d13e
00000080: b905 91bf 5223 513f 96a2 cc40 1571 e6bc
00000090: 198e f340 251c 553e 0dec 82bf 2d58 d73c
000000a0: 9b26 4abf 75c7 62bf 3654 773f df50 edbe
000000b0: 8908 213e bffa d340 31ec 08bf 1f04 313d
000000c0: 088f 4cbe d2ce a13e c780 5a3b 66bc 7a3f
000000d0: 5643 eebd 7cc3 603f 7d9c 473e 537c 01bf
000000e0: 9b8e 093f 170b 56bf 54d4 123f 89a3 033f
000000f0: 8ae7 c5be fa7b 79bf 5298 13bf c259 9dbf
00000100: 30e1 573e 9b27 0ac0 5d74 713f e3d1 86bf
00000110: 079f 15bf 424d 48bf 3e0a 3e3e 42a9 53bf
00000120: 0326 17bf fee9 8e3f 0586 bb3e 086d b1bd
00000130: 948c a13f 1003 a7be 7dcc 943f 9815 87be
00000140: 8aa1 393e 8087 003f 0adc f33e 5d6d 05bd
00000150: b11a b73e 37a5 3c41 47fc e13c 124a 1340
00000160: 5723 d1bf d097 d340 f742 4f3f 4563 613e
00000170: 111c b43e 8c6e 1f3f b51e e93e ce15 a7be
00000180: 1d49 d4bc 2ae0 b43c af06 7abe f296 febd
00000190: 278a c0bf 6eb7 873f 1abf 533f 814b cebe
000001a0: 5102 5741 fd38 88bf 7619 f940 56cf 96bf
000001b0: da33 0a41 1427 fdbe 9acf 41bf d213 e63e
000001c0: 7f16 063f dbaa f23f dd3c 78bd 2509 343f
000001d0: bc21 b3bd 747e 70bf e4e1 f8be 99a2 313f
000001e0: 87d1 0fbf 0fe9 b3be 8c1f 8340 fe5d 0c3e
000001f0: 69d4 153d f413 5f3e 51dd 07bf 79d4 93bf
00000200: 10fb 923f 29ea 683f 9306 b2bf 87c7 9b3e
00000210: 19df 933d 9d3b 6bbf 690d fcbf 22f3 733e
00000220: 438f 6b40 c303 b3bf 450f 32bf 6c06 8a3e
00000230: f3e2 82bf c6c6 84be 4fcd 73be ddcd a7bf
00000240: 1f2a 853e c2f6 3d3f 901e 473e 2feb 3fbf
00000250: 39c1 073e 7fc5 3e3b f0af 9a3e 4776 43be
00000260: 2df2 e03f 63b4 443e 3f72 6e3f 6c21 98bf
00000270: 4696 abbe 29da 833e 205b b73e e4df e33e
00000280: e3a8 5a3f 153f f8be 6e4b 5e3f 8aa8 2840
00000290: 9022 8b3c e8d7 6cbf 0415 55bf 3f3f cf40
000002a0: 8257 3ebf e5da be3e 4ef9 a1bf 8ffc a8bf
000002b0: b209 8a3e a8a0 5d3e 507b bcbe 8e93 f6be
000002c0: 5407 583f cfef f940 563b 00bf eefb 433f
000002d0: 0935 39bf d27f bc3f 3950 333f 2c1f 52bf
000002e0: 3b68 cc40 c391 c4bf 914c 90be 1d23 9abf
000002f0: 5865 4e3f 6f88 6dbe 4bb9 aebe 80b9 08be
00000300: 1ff5 3f3f 7345 4041 f291 5ebc 83ae 1abe
00000310: 2608 61bf 7629 d03e fc70 adbf ced5 73bf
00000320: 833b 913e 8e86 7abf bf2c 27bf c616 03bf
00000330: 2324 753f 63e4 743f 86e3 0d3e 4d91 5abf
00000340: 47ac 68bf b088 343e e3f5 0b3f 91b6 173f
00000350: 855a df3f 92f2 d73e 9d34 a5bf bf28 85bf
00000360: fbee a33e 9012 073f e971 38bf 4f55 513f
00000370: 6533 d040 bcbd 2dbe ada3 5a3f 6b4b b7be
00000380: 5989 adbf dd7f d33f 9ac7 f040 c3bf 8c3f
00000390: d00e d5be 8a60 adbf a043 e1be 05b0 87bf
000003a0: c41d 1c3f 2cf2 f9be 87ef 4dbf 642b 243f
000003b0: 59fe a73f e722 a33e a2e9 3f3f ebe6 233e
000003c0: 6f68 e440 2827 653f 0fe2 c1be 5430 f1be
000003d0: 8ba3 013c 5c6f 16bf ec34 903f 83d1 8dbf
000003e0: e689 e53d 3f83 173f f8fa 073e c417 e73e
000003f0: 1fcd 89bf d61d f8bd 2f9f 19be fd2e 1abf
0.45571464 -0.39036363 0.3434911 0.32349378 -1.3001492 -0.45865962 0.16681421 -0.05097647
0.9936476 -0.9027834 -0.5826393 0.2044686 0.008745078 0.08345123 5.906672 0.35336286
-0.9587361 0.8597806 0.67354333 0.60071707 -0.51466703 -0.4033178 -0.119544156 0.37966233
-0.10713308 0.64439785 -0.3815029 0.023934804 -0.54816025 -0.8879011 -0.47880262 0.40940008
-1.1329871 0.8169452 6.394847 -0.028130094 7.611096 0.20811518 -1.0228287 0.026287163
-0.7896516 -0.885856 0.9661287 -0.46350762 0.15725912 6.6243587 -0.534854 0.04321682
-0.19976437 0.31603104 0.0033340917 0.97943723 -0.11633937 0.87798285 0.1949329 -0.5058033
0.53733224 -0.8361067 0.57355237 0.5142141 -0.38653213 -0.974548 -0.576543 -1.2293017
0.21081996 -2.1586673 0.9431818 -1.0532802 -0.5844578 -0.78242886 0.18558595 -0.8268014
-0.59042376 1.1165159 0.36625686 -0.08663374 1.2621026 -0.32619524 1.1624905 -0.26383662
0.18128029 0.50206757 0.47628814 -0.032575 0.3576255 11.790336 0.027586116 2.301396
-1.633891 6.612282 0.80961555 0.22010525 0.35177663 0.62278056 0.4553124 -0.32633823
-0.02591377 0.022079546 -0.24416612 -0.12431134 -1.5042161 1.0602853 0.8271347 -0.4029198
13.438066 -1.0642391 7.784358 -1.1782024 8.637659 -0.49443877 -0.757074 0.44936997
0.52378076 1.8958391 -0.06060492 0.70326453 -0.08746669 -0.9394295 -0.4860984 0.6938873
-0.5617909 -0.35138747 4.097601 0.1370773 0.036579523 0.21784955 -0.5307208 -1.1549217
1.1482868 0.909823 -1.3908256 0.30425665 0.07220287 -0.9188784 -1.9691592 0.23823217
3.680619 -1.3985523 -0.6955455 0.26958025 -1.022551 -0.25932902 -0.23808788 -1.31097
0.26008698 0.7420465 0.19445252 -0.74968237 0.13257302 0.0029109416 0.30212355 -0.19088088
1.7573906 0.19209437 0.93143076 -1.18852 -0.33513087 0.2575238 0.3581171 0.44506752
0.8541395 -0.48485628 0.86833847 2.6352868 0.016984254 -0.92516947 -0.8323519 6.4764705
-0.74352276 0.37276378 -1.2654207 -1.3202075 0.26960522 0.21643317 -0.3681283 -0.4815945
0.8438618 7.8105235 -0.5009054 0.7655629 -0.7234655 1.4726508 0.70044285 -0.82078815
6.3877234 -1.5356983 -0.28183416 -1.2041966 0.8062339 -0.23196577 -0.34125742 -0.13352013
0.749834 12.016955 -0.013584601 -0.15105633 -0.8790306 0.40656632 -1.3550105 -0.95248115
0.28365716 -0.97861564 -0.6530265 -0.51206625 0.95758265 0.9566099 0.13856325 -0.8537796
-0.90887874 0.17630267 0.5467207 0.5926295 1.7449499 0.42177254 -1.2906681 -1.040306
0.32018265 0.527627 -0.72048813 0.81770796 6.5062737 -0.16966909 0.85406 -0.35799727
-1.355754 1.6523396 7.5243654 1.0996021 -0.41612864 -1.3545086 -0.43996906 -1.0600592
0.6098292 -0.48817575 -0.80443615 0.6412871 1.3124496 0.31862566 0.7496587 0.16006057
7.1377482 0.8951287 -0.37867782 -0.47107184 0.007912527 -0.5876367 1.126615 -1.1079563
0.11207943 0.5918464 0.1327933 0.4513532 -1.0765723 -0.12115066 -0.1500213 -0.6022795
